results/ppo/My Behavior/My Behavior-3983.onnx (onnx, 74645 bytes, 6 tensors)

network_body._body_endoder.seq_layers.0.weight f4 [128, 6]
-0.38600305 -0.2795072 0.2324706 -0.1912934 0.40931597 0.47364977 1.2986437 0.4849775
-0.0071702157 -0.39932442 0.057714246 0.35091302 -0.25675285 0.36717907 -0.3952496 -0.052324146
0.76296103 -0.42482877 -0.09350173 -0.5661869 -0.16780947 0.75221497 0.18463303 -0.5930185
-0.104940265 0.28718835 0.5136924 -0.19634706 -0.040231235 -0.1432879 -0.23879507 0.22582418
0.16447458 0.3341387 0.14786991 1.039893 -0.14626536 -0.34682953 0.21642043 0.21688664
0.15216252 -0.18879345 -0.108949855 -0.0225967 -0.0050260117 -0.19681211 0.4865418 0.23220389
-0.51898247 -0.19969904 -0.20492022 0.44191268 0.04957963 0.3910537 -0.11311794 -0.5134949
-0.004744569 0.17184067 0.060306333 -0.13773246 0.2870202 0.5300776 0.39226532 -0.23277217
-0.7556422 0.17325604 -0.6603436 -0.49680033 -0.15477982 0.28585416 -1.1481707 0.6464505
0.11327004 0.4387111 0.3587116 0.2951448 -0.18366759 0.13576324 0.24671741 1.2053992
-0.4761191 0.6293734 0.43034044 -0.0912596 -0.00671125 -0.029411511 0.009493252 0.40887338
-0.118565395 -0.019051855 0.5773132 0.4971973 -0.26707247 -0.041253973 -0.50789964 -0.6361658
0.40431818 -0.10093926 0.55414045 0.69982284 0.14893958 -0.41581723 -0.22935806 -0.17013808
0.70840955 -0.29701427 -0.09595257 0.45441633 -0.08438106 0.6272501 -0.4955364 -0.110893406
-0.32547003 -0.6609782 0.31049296 -0.53646684 0.3967433 0.22222139 -0.06512022 -0.2860092
0.23432934 -0.5141535 -0.17486738 0.4216107 -0.2541461 -0.09737417 0.541795 -0.47087756
0.37495095 0.0068670255 -0.039342195 0.37766013 0.435654 0.34990963 -0.110471986 -0.2513495
0.04892507 0.6348294 -0.11355488 -0.045356512 -0.37007302 0.26716727 -0.17366672 0.14353427
-0.0074897525 -0.4671683 0.39109114 -0.39625448 -0.26995918 -0.19202061 0.09489645 -0.07955691
-0.16281942 -0.30936214 0.15557495 -0.099361755 -0.535454 -0.5542568 0.17912385 -0.22049877
0.06638279 0.077850305 0.12523519 0.045234293 -0.0015085733 -0.16386661 0.71524596 -0.25035655
0.062410854 0.022607666 -0.63750035 -0.5033911 -0.7302954 0.27352437 0.0029417197 0.038323723
0.6869192 0.35479578 -0.3602984 0.13053466 0.33227542 -0.080548316 -0.406156 0.0445702
-0.24046922 0.21369508 0.78297204 -0.6789202 -0.18995646 -0.06294807 -0.95301306 -0.20822299
0.26130527 0.20785563 0.38682845 0.8528339 0.39890382 0.16029464 -0.0462361 -0.43553832
0.26898465 0.2253887 -0.23860179 -0.88467604 -0.28077596 0.43994924 0.023536839 -0.6153967
0.38155562 -0.042329825 0.66011333 0.5460947 -0.32299176 -0.24856336 -0.19049463 -0.1317798
-0.14612183 0.0025570928 0.07193812 -0.67852163 -0.22736052 -0.467741 -0.18910164 0.4341135
0.27612007 -0.19243965 -0.12345385 0.06501627 0.82067436 0.39167804 0.25485656 -0.31102914
0.2903571 0.9053181 -0.21379761 -0.104078814 0.3394909 1.223281 0.024742983 -0.41651312
0.6250982 0.16840704 -0.10667999 0.08916851 -0.22101171 0.02543388 0.3395138 0.38209224
0.04986803 -0.43527707 0.46840304 -0.17637846 -0.28632495 0.21561587 0.29009587 0.025785971
00000000: 31a2 c5be 911b 8fbe c60c 6e3e 6be2 43be
00000010: dd91 d13e 3982 f23e f539 a63f f94e f83e
00000020: 21f4 eabb 4074 ccbe c665 6c3d dfaa b33e
00000030: 1c75 83be e5fe bb3e 285e cabe d851 56bd
00000040: 6a51 433f 2883 d9be d67d bfbd a0f1 10bf
00000050: 3fd6 2bbe 2991 403f 7110 3d3e 0fd0 17bf
00000060: ecea d6bd 5a0a 933e 5881 033f 340f 49be
00000070: 82c9 24bd 10ba 12be b286 74be 743e 673e
00000080: 066c 283e 3a14 ab3e 366b 173e 371b 853f
00000090: 96c6 15be a493 b1be 519d 5d3e 8817 5e3e
000000a0: 7ed0 1b3e 1253 41be 1a21 dfbd b71c b9bc
000000b0: 3eb1 a4bb 1d89 49be 021c f93e dbc6 6d3e
000000c0: 09dc 04bf e87d 4cbe 9bd6 51be 6142 e23e
000000d0: 0314 4b3d 3138 c83e 61aa e7bd 6774 03bf
000000e0: 5478 9bbb 00f7 2f3e c603 773d bd09 0dbe
000000f0: 50f4 923e 2ab3 073f 00d7 c83e d45b 6ebe
00000100: c471 41bf 086a 313e 470c 29bf 9d5c febe
00000110: 9a7e 1ebe 7a5b 923e 42f7 92bf c87d 253f
00000120: 1ffa e73d be9e e03e 0ca9 b73e 381d 973e
00000130: 5b13 3cbe 8505 0b3e 7da3 7c3e 854a 9a3f
00000140: e2c5 f3be 9d1e 213f 9555 dc3e 50e6 babd
00000150: 0cea dbbb 69f0 f0bc 9689 1b3c da57 d13e
00000160: 6ad2 f2bd a312 9cbc ccca 133f a590 fe3e
00000170: b9bd 88be edf9 28bd b605 02bf c3db 22bf
00000180: cb02 cf3e 3eb9 cebd 26dc 0d3f 9727 333f
00000190: 9e83 183e ffe5 d4be d7dc 6abe ad38 2ebe
000001a0: 545a 353f 4112 98be c882 c4bd 42a9 e83e
000001b0: facf acbd 7693 203f f2b6 fdbe 151c e3bd
000001c0: 02a4 a6be de35 29bf eff8 9e3e e455 09bf
000001d0: f021 cb3e 018e 633e c05d 85bd cc6f 92be
000001e0: 08f4 6f3e 909f 03bf 6f10 33be 5cdd d73e
000001f0: 701f 82be 1c6c c7bd 14b3 0a3f dd16 f1be
00000200: 92f9 bf3e c904 e13b 4825 21bd ab5c c13e
00000210: 0b0e df3e 5b27 b33e 233f e2bd e2b0 80be
00000220: a765 483d 2e84 223f 768f e8bd c0c7 39bd
00000230: 367a bdbe 26ca 883e b0d5 31be a6fa 123e
00000240: 996c f5bb af30 efbe 193d c83e dee1 cabe
00000250: 1738 8abe 0da1 44be 1259 c23d bcee a2bd
00000260: 22ba 26be b764 9ebe 0a4f 1f3e 2d7e cbbd
00000270: 8313 09bf c6e3 0dbf 3e6c 373e 6eca 61be
00000280: b3f3 873d fb6f 9f3d a73d 003e 9847 393d
00000290: 52bb c5ba a6cc 27be 5c1a 373f bc2e 80be
000002a0: 86a2 7f3d b633 b93c 3933 23bf 3dde 00bf
000002b0: a4f4 3abf 630b 8c3e dec9 403b 56f9 1c3d
000002c0: f0d9 2f3f cba7 b53e 0879 b8be e1aa 053e
000002d0: 0120 aa3e 84f6 a4bd aef3 cfbe 3e8f 363d
000002e0: 903d 76be e2d2 5a3e db70 483f b7cd 2dbf
000002f0: f283 42be ebea 80bd aaf8 73bf 6838 55be
00000300: cec9 853e 1bd8 543e 610e c63e 5353 5a3f
00000310: 1f3d cc3e 4724 243e 1162 3dbd e1fe debe
00000320: 5bb8 893e 4ccc 663e 0754 74be 217a 62bf
00000330: dec1 8fbe 0741 e13e 54d0 c03c a38a 1dbf
00000340: 425b c33e 0a62 2dbd 30fd 283f ddcc 0b3f
00000350: 2d5f a5be 6587 7ebe 0611 43be 49f1 06be
00000360: f6a0 15be e694 273b 4b54 933d 98b3 2dbf
00000370: 32d1 68be c07b efbe dca3 41be 2044 de3e
00000380: 9c5f 8d3e e60e 45be 5fd5 fcbd 4027 853d
00000390: b717 523f 068a c83e 8f7c 823e 363f 9fbe
000003a0: b0a9 943e edc2 673f c3ed 5abe 4627 d5bd
000003b0: c0d1 ad3e 7994 9c3f ccb1 ca3c 3541 d5be
000003c0: 7006 203f e572 2c3e 0a7b dabd fb9d b63d
000003d0: e550 62be b65a d03c c1d4 ad3e 98a1 c33e
000003e0: 6b42 4c3d a3dc debe 86d2 ef3e 8e9c 34be
000003f0: 2f99 92be 68ca 5c3e 7287 943e 1a3d d33c

network_body._body_endoder.seq_layers.0.bias f4 [128]
0.0 0.0 0.0 0.0 0.0 0.0 0.0 0.0
0.0 0.0 0.0 0.0 0.0 0.0 0.0 0.0
0.0 0.0 0.0 0.0 0.0 0.0 0.0 0.0
0.0 0.0 0.0 0.0 0.0 0.0 0.0 0.0
0.0 0.0 0.0 0.0 0.0 0.0 0.0 0.0
0.0 0.0 0.0 0.0 0.0 0.0 0.0 0.0
0.0 0.0 0.0 0.0 0.0 0.0 0.0 0.0
0.0 0.0 0.0 0.0 0.0 0.0 0.0 0.0
0.0 0.0 0.0 0.0 0.0 0.0 0.0 0.0
0.0 0.0 0.0 0.0 0.0 0.0 0.0 0.0
0.0 0.0 0.0 0.0 0.0 0.0 0.0 0.0
0.0 0.0 0.0 0.0 0.0 0.0 0.0 0.0
0.0 0.0 0.0 0.0 0.0 0.0 0.0 0.0
0.0 0.0 0.0 0.0 0.0 0.0 0.0 0.0
0.0 0.0 0.0 0.0 0.0 0.0 0.0 0.0
0.0 0.0 0.0 0.0 0.0 0.0 0.0 0.0
00000000: 0000 0000 0000 0000 0000 0000 0000 0000
00000010: 0000 0000 0000 0000 0000 0000 0000 0000
00000020: 0000 0000 0000 0000 0000 0000 0000 0000
00000030: 0000 0000 0000 0000 0000 0000 0000 0000
00000040: 0000 0000 0000 0000 0000 0000 0000 0000
00000050: 0000 0000 0000 0000 0000 0000 0000 0000
00000060: 0000 0000 0000 0000 0000 0000 0000 0000
00000070: 0000 0000 0000 0000 0000 0000 0000 0000
00000080: 0000 0000 0000 0000 0000 0000 0000 0000
00000090: 0000 0000 0000 0000 0000 0000 0000 0000
000000a0: 0000 0000 0000 0000 0000 0000 0000 0000
000000b0: 0000 0000 0000 0000 0000 0000 0000 0000
000000c0: 0000 0000 0000 0000 0000 0000 0000 0000
000000d0: 0000 0000 0000 0000 0000 0000 0000 0000
000000e0: 0000 0000 0000 0000 0000 0000 0000 0000
000000f0: 0000 0000 0000 0000 0000 0000 0000 0000
00000100: 0000 0000 0000 0000 0000 0000 0000 0000
00000110: 0000 0000 0000 0000 0000 0000 0000 0000
00000120: 0000 0000 0000 0000 0000 0000 0000 0000
00000130: 0000 0000 0000 0000 0000 0000 0000 0000
00000140: 0000 0000 0000 0000 0000 0000 0000 0000
00000150: 0000 0000 0000 0000 0000 0000 0000 0000
00000160: 0000 0000 0000 0000 0000 0000 0000 0000
00000170: 0000 0000 0000 0000 0000 0000 0000 0000
00000180: 0000 0000 0000 0000 0000 0000 0000 0000
00000190: 0000 0000 0000 0000 0000 0000 0000 0000
000001a0: 0000 0000 0000 0000 0000 0000 0000 0000
000001b0: 0000 0000 0000 0000 0000 0000 0000 0000
000001c0: 0000 0000 0000 0000 0000 0000 0000 0000
000001d0: 0000 0000 0000 0000 0000 0000 0000 0000
000001e0: 0000 0000 0000 0000 0000 0000 0000 0000
000001f0: 0000 0000 0000 0000 0000 0000 0000 0000

network_body._body_endoder.seq_layers.2.weight f4 [128, 128]
0.032526925 -0.017867656 0.08376152 0.13823187 -0.07945951 -0.006656761 0.032009743 -0.10499472
0.015913052 -0.036749814 -0.15947577 0.052487113 0.011888947 -0.1380599 0.0064908713 0.009334012
-0.02512659 -0.055816595 -0.10706994 -0.05492698 -0.015406591 0.06829383 -0.06667376 -0.1172538
-0.04138136 -0.12715563 0.042092696 -0.044404265 0.042339046 0.092975385 -0.10541176 -0.14438227
0.0075334185 -0.01676843 0.1125801 0.1187774 0.012831822 0.021680472 0.026964776 0.058237433
0.07210297 -0.08526911 -0.07683629 0.10231049 0.1782271 -0.22476375 0.15379106 -0.003644696
0.04836904 0.067668505 -0.023106901 -0.1728506 0.03198549 -0.19418527 0.04267061 0.0073545296
-0.009084775 0.044709355 0.034891065 -0.020733401 0.0568543 0.046355005 -0.07061816 -0.047327116
-0.01059874 0.10239407 -0.029643293 -0.025233043 0.034485467 -0.1300984 0.042133123 0.1460534
-0.014513032 0.05299587 -0.044132374 -0.020461928 0.06671512 -0.053439636 0.044409133 0.037683774
-0.2529477 0.036189083 0.04208139 -0.14221236 0.024698667 0.014003411 -0.02209624 -0.0018287293
0.059405815 0.13536917 0.040664636 0.027135199 0.13964431 -0.10468459 0.03723905 -0.057656977
0.07712542 -0.07306952 -0.09385139 0.038711708 0.009528593 -0.010732027 0.07405243 0.012210683
0.024747135 -0.04332086 0.0046654725 0.040797647 0.011804251 0.14985394 0.07639462 -0.09761593
0.04604954 -0.07572252 -0.122570775 0.13482866 0.00999929 0.05513952 0.03189052 -0.08390125
0.15332423 -0.13973267 -0.073390104 0.005646099 -0.025627838 -0.009285877 -0.21411027 0.0057916115
0.13780707 -0.081077635 -0.043628395 0.039245494 -0.11476477 0.20148917 -0.008524743 0.014952612
0.05407625 0.07014043 -0.0045629493 0.09500659 -0.017923767 0.07379878 -0.20060603 -0.118636094
0.01086128 -0.13857959 0.027987069 0.020039055 -0.010083856 0.0796149 0.04261278 -0.037569724
-0.020092878 -0.06689402 -0.021521244 0.113289535 0.06832241 -0.1659815 -0.034399062 0.07514433
-0.076245494 -0.07744996 0.03739989 0.0071254 0.10564084 -0.022482311 0.071318544 0.09281655
-0.07225938 -0.06246438 -0.06679265 -0.12618558 -0.1479162 0.1145878 -0.06112024 -0.09868158
-0.044643078 -0.0693546 0.042401765 0.009882069 -0.008246302 -0.0034591465 -0.04190179 -0.027327811
0.22008583 0.028244557 -0.1782054 0.0043785167 -0.01349463 -0.026247581 0.071729 -0.090104364
0.010716618 -0.0418384 0.060905468 0.10601756 0.08123413 0.021923134 -0.02978319 0.08899341
0.019748574 -0.022226138 0.025170358 0.13161178 0.09610821 0.11091769 0.022927037 -0.10333882
0.017282166 -0.051165197 0.10199749 0.12662667 -0.08864011 -0.0074527515 0.031802773 -0.09699405
-0.02340631 -0.03440106 0.00071524526 0.07445093 -0.08471375 0.010953342 0.06690092 0.029950306
-0.064604476 -0.05436585 0.020353116 0.04067265 0.051628735 -0.03962582 -0.02235057 -0.1770475
-0.07549711 0.053255346 -0.027868394 -0.0155927595 0.07111911 0.08152432 0.055534657 -0.09815847
-0.050684366 -0.068031676 0.100626096 -0.060963403 -0.09106938 0.06805482 0.13745901 0.0603546
0.06804385 0.09832418 0.22739863 -0.15699273 0.110916086 -0.113461286 0.017229881 -0.005868928
00000000: f43a 053d 315f 92bc 298b ab3d a88c 0d3e
00000010: abbb a2bd f520 dabb a61c 033d 7907 d7bd
00000020: 175c 823c f986 16bd 9e4d 23be bafc 563d
00000030: dcc9 423c 935f 0dbe 60b1 d43b afed 183c
00000040: 47d6 cdbc f19f 64bd 7c47 dbbd 1dfb 60bd
00000050: ed6b 7cbc a3dd 8b3d 418c 88bd c322 f0bd
00000060: 807f 29bd 1635 02be 6469 2c3d 3fe1 35bd
00000070: b56b 2d3d e169 be3d 1fe2 d7bd f2d8 13be
00000080: e5da f63b f25d 89bc 6590 e63d 9141 f33d
00000090: 903c 523c 3f9b b13c 3ce5 dc3c 608a 6e3d
000000a0: b9aa 933d 92a1 aebd 585c 9dbd 2a88 d13d
000000b0: 2a81 363e 7828 66be 677b 1d3e dadb 6ebb
000000c0: 9d1e 463d c995 8a3d af4a bdbc bfff 30be
000000d0: 3803 033d 81d8 46be 61c7 2e3d 44fe f03b
000000e0: 4fd8 14bc 2821 373d efe9 0e3d 18d9 a9bc
000000f0: 0ee0 683d bfde 3d3d 41a0 90bd 14da 41bd
00000100: 56a6 2dbc fbb3 d13d 7ed6 f2bc 87b5 cebc
00000110: a240 0d3d 8438 05be c893 2c3d 068f 153e
00000120: 11c8 6dbc 3312 593d 26c4 34bd c69f a7bc
00000130: f0a1 883d 85e3 5abd 5ae6 353d 4d5a 1a3d
00000140: 5c82 81be 013b 143d 895d 2c3d 1ea0 11be
00000150: dc54 ca3c 906e 653c 2d03 b5bc f9b1 efba
00000160: 8353 733d 379e 0a3e f68f 263d a34a de3c
00000170: ebfe 0e3e e064 d6bd f987 183d b929 6cbd
00000180: eff3 9d3d 79a5 95bd 2835 c0bd 2b90 1e3d
00000190: d11d 1c3c 62d5 2fbc cda8 973d 510f 483c
000001a0: 81ba ca3c 3771 31bd d2e0 983b 6f1b 273d
000001b0: 9e66 413c 5073 193e c874 9c3d dcea c7bd
000001c0: 719e 3c3d 6914 9bbd 6306 fbbd 8610 0a3e
000001d0: 10d4 233c fad9 613d a29f 023d 6bd4 abbd
000001e0: 0701 1d3e 1516 0fbe 8d4d 96bd e902 b93b
000001f0: 79f1 d1bc cb23 18bc b93f 5bbe 8fc7 bd3b
00000200: 4c1d 0d3e 080c a6bd b0b3 32bd e2bf 203d
00000210: cb09 ebbd 2d53 4e3e 5dab 0bbc cdfb 743c
00000220: 0f7f 5d3d c9a5 8f3d cb84 95bb d192 c23d
00000230: ddd4 92bc d123 973d ab6b 4dbe 7bf7 f2bd
00000240: 83f3 313c cfe7 0dbe 2345 e53c f228 a43c
00000250: c236 25bc 230d a33d bd8a 2e3d b6e2 19bd
00000260: d299 a4bc bbff 88bd 524d b0bc 5804 e83d
00000270: 9fec 8b3d 0ef7 29be 08e6 0cbd 45e5 993d
00000280: 9926 9cbd 169e 9ebd a130 193d 307c e93b
00000290: 3a5a d83d d32c b8bc 750f 923d 9a16 be3d
000002a0: bafc 93bd a6da 7fbd 96ca 88bd cb36 01be
000002b0: 5877 17be 02ad ea3d 3759 7abd 9119 cabd
000002c0: a9db 36bd c909 8ebd 79ad 2d3d 67e8 213c
000002d0: 7f1b 07bc d9b2 62bb 36a1 2bbd 93de dfbc
000002e0: 2e5e 613e 2161 e73c 7a7b 36be a979 8f3b
000002f0: 9518 5dbc 2b05 d7bc a7e6 923d a388 b8bd
00000300: c194 2f3c be5e 2bbd 0378 793d bc1f d93d
00000310: 145e a63d 2598 b33c e0fb f3bc 2d42 b63d
00000320: c3c7 a13c 9713 b6bc 1132 ce3c 3dc5 063e
00000330: 62d4 c43d d028 e33d 7bd1 bb3c 4ea3 d3bd
00000340: 5493 8d3c 9992 51bd 0fe4 d03d 6caa 013e
00000350: f288 b5bd 3636 f4bb a043 023d d1a4 c6bd
00000360: 97be bfbc 20e8 0cbd 4c7f 3b3a bb79 983d
00000370: 677e adbd a575 333c 5903 893d 585a f53c
00000380: 5a4f 84bd baae 5ebd 94bb a63c 5d98 263d
00000390: a778 533d af4e 22bd 8b18 b7bc f14b 35be
000003a0: 3b9e 9abd 4722 5a3d 424c e4bc c678 7fbc
000003b0: e5a6 913d 39f6 a63d 4f78 633d 4f07 c9bd
000003c0: 699a 4fbd 3154 8bbd 0e15 ce3d c3b4 79bd
000003d0: 9582 babd 5360 8b3d 0ec2 0c3e 6336 773d
000003e0: 935a 8b3d 305e c93d 30db 683e b4c2 20be
000003f0: f927 e33d 645e e8bd ae25 8d3c 2350 c0bb

action_model._continuous_distribution.log_sigma f4 [1, 2]
0.0 0.0
00000000: 0000 0000 0000 0000

action_model._continuous_distribution.mu.weight f4 [2, 128]
-0.0070517487 0.0039049175 -0.0076741963 0.010535548 0.017026478 0.0053651785 0.016551126 0.026403738
-0.01745827 0.011731431 0.009217867 0.02011087 0.013220866 -0.018868655 -0.03624625 -0.006061034
-0.016553333 -0.0031571444 0.00995558 0.02144419 0.013390757 0.004241161 -0.0056298994 -0.042449083
-0.003942711 -0.026801944 0.022971338 0.008835162 -0.008522477 -0.012466848 0.00679563 0.01558277
-0.01756549 -0.007481973 0.013683583 -0.015704976 0.021152874 -0.0018381113 0.0021023655 -0.0032471323
-0.001963524 0.013903836 -0.008144896 -0.013369793 0.023811432 -0.00634389 -0.0030607225 -0.0064290636
-0.0092680575 -0.015096023 0.0007132851 0.021038655 0.008503358 0.029717702 -0.019015446 0.0058996812
0.022163188 0.0135440845 -0.006336115 0.022681324 0.00963373 0.007461913 -0.033750173 0.015975552
-0.009140037 0.0004377225 -0.003093981 -0.0077287736 0.0044357693 -0.0033364191 0.014788114 -0.016088864
0.008104467 -0.015285646 -0.011900883 -0.023101415 -0.015708314 -0.020119747 0.017241692 -0.022372795
-0.017613417 0.010804406 0.028117275 -0.024517385 -0.018336846 0.00045098067 -0.020981444 0.037604384
-0.009722466 0.01991762 0.02407999 0.021293433 0.024469672 -0.0042195446 -0.0049550436 0.016257895
-0.004206396 0.00428091 0.010574115 0.012952137 -0.0036059392 0.0078053973 0.01873015 -0.022198362
-0.011430654 -0.013041662 0.020978717 -0.009400645 -0.00398077 0.04532477 0.011089024 -0.0039457646
-0.023244383 -0.007970511 -0.0007406449 0.017431447 -0.015278167 -0.013084799 0.001130673 0.04026016
0.033230156 0.015860524 0.037681613 -0.036184836 0.0061196466 0.0049524945 -0.021276081 -0.0032387066
-0.00692432 0.024903439 0.00974338 0.010287399 -0.009614201 -0.034405947 0.03913696 0.0093326215
-0.010995145 0.0023537076 0.01206061 -0.026152834 -0.010956648 0.0033956673 0.0127101615 0.001513676
0.011404604 -0.0063078897 -0.009086882 -0.0071179657 0.010757893 0.01838772 -0.008308085 -0.03920395
-0.0059700385 0.028041838 -0.004940565 -0.016959758 0.01446545 -0.042601254 -0.005942145 -0.002373538
0.007929553 0.0055095204 0.008526939 -0.008937255 0.013545354 0.020497184 -0.014089473 0.00884921
-0.008825834 -0.016487533 0.008112895 0.012430554 0.020035496 -0.00038992005 -0.0061202883 0.009000391
0.00930376 0.005281557 0.010078386 0.0140856495 0.0067318156 0.02582675 0.013701697 -0.02941498
-0.019196248 -0.03267168 -0.00853227 0.04605296 0.0044351886 0.011568487 0.012331445 -0.009294085
-0.0065935603 -0.0028506021 -0.0069995667 -0.011069679 -0.028069673 0.024877075 -0.0145310825 -0.011034071
0.01663939 0.007925182 0.023075368 0.0051880903 0.040412184 0.015735738 -0.018731534 -0.0025696277
-0.004982292 0.036237504 0.011182238 0.03188128 -0.0006872415 0.01719834 0.027280256 0.018895095
0.007161492 -0.008360657 0.03857876 -0.004376101 -0.0058178357 -0.005331002 0.008446748 0.005991625
0.018896256 -0.0016555777 0.012159971 0.011522196 0.0035369836 -0.0039732982 -0.04754242 0.014747289
0.0016511234 -0.013756747 0.020035323 0.023914227 0.024137974 0.019118486 -0.009925567 0.028236309
0.004660937 0.0024438095 0.013848819 -0.024891071 -0.0003880677 0.0029334219 -0.00025109295 -0.002954249
0.021022372 0.011487134 -0.025696844 -0.029530633 0.006535689 0.02190724 -0.005097003 -0.017766897
00000000: 5b12 e7bb a5e9 7f3b d377 fbbb 4b9d 2c3c
00000010: 1d7b 8b3c 61ce af3b 3a96 873c a74c d83c
00000020: a504 8fbc 3035 403c 8906 173c 8dbf a43c
00000030: 559c 583c 7092 9abc f376 14bd a39b c6bb
00000040: db9a 87bc 18e8 4ebb bb1c 233c baab af3c
00000050: e864 5b3c 70f9 8a3b 057b b8bb 17df 2dbd
00000060: db31 81bb c08f dbbc 632e bc3c 5bc1 103c
00000070: dca1 0bbc c041 4cbc e0ad de3b e04e 7f3c
00000080: 81e5 8fbc 572b f5bb 1b31 603c b9a7 80bc
00000090: cb48 ad3c c8ec f0ba d7c7 093b d7cd 54bb
000000a0: 77ae 00bb eacc 633c 2b72 05bc fa0c 5bbc
000000b0: 3110 c33c 68e0 cfbb 6796 48bb e5aa d2bb
000000c0: 0dd9 17bc 4f55 77bc c1fb 3a3a 4259 ac3c
000000d0: ab51 0b3c 8a72 f33c 48c6 9bbc 1d52 c13b
000000e0: 938f b53c 02e8 5d3c 2f9f cfbb 2fce b93c
000000f0: cbd6 1d3c 1083 f43b 9f3d 0abd 29df 823c
00000100: 18c0 15bc 1f7e e539 63c4 4abb a741 fdbb
00000110: ee59 913b d3a7 5abb d849 723c cbcc 83bc
00000120: 99c8 043c a570 7abc ecfb 42bc 2e3f bdbc
00000130: b9ae 80bc 2bd2 a4bc 733e 8d3c 2747 b7bc
00000140: 034a 90bc f704 313c 3356 e63c afd8 c8bc
00000150: 2737 96bc 9a71 ec39 47e1 abbc 0e07 1a3d
00000160: fa4a 1fbc 472a a33c 6643 c53c 916f ae3c
00000170: 9f74 c83c 1b44 8abb eb5d a2bb 472f 853c
00000180: cfd5 89bb e046 8c3b 0e3f 2d3c 3335 543c
00000190: 9f51 6cbb 6bc4 ff3b f96f 993c 57d9 b5bc
000001a0: a347 3bbc b2ac 55bc 8fdb ab3c 2a05 1abc
000001b0: 1e71 82bb 77a6 393d bdae 353c 794b 81bb
000001c0: 016b bebc bf96 02bc d627 42ba 65cc 8e3c
000001d0: 4751 7abc a061 56bc 1733 943a d6e7 243d
000001e0: 581c 083d eeed 813c 0958 1a3d 8d36 14bd
000001f0: 5187 c83b 8948 a23b 2d4b aebc 7b40 54bb
00000200: 68e5 e2bb 4c02 cc3c b3a2 1f3c 7b8c 283c
00000210: e284 1dbc 40ed 0cbd 144e 203d dae7 183c
00000220: fb24 34bc a940 1a3b dd99 453c 783e d6bc
00000230: 8383 33bc d889 5e3b 483e 503c 8a66 c63a
00000240: 60da 3a3c 6ab2 cebb 25e1 14bc d33d e9bb
00000250: e041 303c d8a1 963c a21e 08bc 5294 20bd
00000260: 50a0 c3bb ffb7 e53c 77e4 a1bb 31ef 8abc
00000270: 7f00 6d3c a77e 2ebd 53b6 c2bb 5c8d 1bbb
00000280: f5ea 013c 3589 b43b 93b4 0b3c 906d 12bc
00000290: 55ed 5d3c b6e9 a73c 88d7 66bc 47fc 103c
000002a0: 3b9a 10bc dd10 87bc f3eb 043c 86a9 4b3c
000002b0: 7b21 a43c 2f6e ccb9 b38c c8bb 6076 133c
000002c0: cc6e 183c e910 ad3b d11f 253c 7fc7 663c
000002d0: 9096 dc3b 9f92 d33c 157d 603c aff7 f0bc
000002e0: 7341 9dbc bdd2 05bd efca 0bbc 07a2 3c3d
000002f0: 0f55 913b c089 3d3c d409 4a3c 3846 18bc
00000300: cb0e d8bb 2bd1 3abb 9f5c e5bb 995d 35bc
00000310: 5ff2 e5bc 02cb cb3c c713 6ebc 40c8 34bc
00000320: 544f 883c 9fd8 013c 8e08 bd3c db00 aa3b
00000330: 3f87 253d 3ce8 803c e072 99bc 3367 28bb
00000340: 7f42 a3bb c76d 143d b535 373c f295 023d
00000350: ff27 34ba 88e3 8c3c d87a df3c e3c9 9a3c
00000360: f3aa ea3b 23fb 08bc c304 1e3d 6565 8fbb
00000370: 8ba3 bebb b0af aebb 3b64 0a3c 6555 c43b
00000380: 52cc 9a3c f8ff d8ba 9d3a 473c 98c7 3c3c
00000390: bdcc 673b 7132 82bb d7bb 42bd 9d9e 713c
000003a0: 826a d83a fb63 61bc 1e21 a43c c5e7 c33c
000003b0: 00bd c53c 5f9e 9c3c d89e 22bc d54f e73c
000003c0: c6ba 983b 5228 203b 28e6 623c 5ce8 cbbc
000003d0: 9175 cbb9 a73e 403b 20a5 83b9 139c 41bb
000003e0: 1c37 ac3c 8834 3c3c 3082 d2bc 3aea f1bc
000003f0: 5529 d63b d076 b33c c304 a7bb e28b 91bc

action_model._continuous_distribution.mu.bias f4 [2]
0.0 0.0
00000000: 0000 0000 0000 0000
