results/ppo/My Behavior/My Behavior-1864.pt (torch, 149810 bytes, 12 tensors)

network_body._body_endoder.seq_layers.0.weight f4 [128, 6]
0.11060086 -0.15756802 0.19178209 0.4865797 0.37600425 -0.59389275 -0.036173735 0.2498409
0.056986526 -0.0949371 -0.60688525 -0.32958883 -0.6771407 -0.5069603 -0.18595296 0.28339165
0.30505145 -0.28307468 -0.4003573 0.39866272 0.42473567 -0.1348512 0.68376356 0.63051635
-0.50148946 -0.20405191 -0.43054694 -0.2979441 0.10934231 0.19371283 0.33957538 0.02870527
0.027733888 0.08858149 -0.22639076 0.11151582 0.426523 0.5271619 -0.10567106 -0.23257539
-0.36592358 0.38514292 -0.0255256 -0.065327264 -0.10453593 0.08906965 0.30008236 0.3221909
-0.20874938 -0.6530362 -0.19267394 -0.15053222 0.47787306 -0.61920935 -0.4466395 -0.22501673
-0.86656 -0.15043163 0.30909634 -0.26447713 -0.0979022 0.15243985 0.121851265 -0.13014305
-0.35286042 -0.38625613 -0.310379 -0.17082995 0.75071526 0.20692526 -0.058532648 0.13811721
0.36258516 -0.03569652 0.00014403694 -0.49315965 0.12207649 0.37757218 -0.28196624 -0.09936415
1.0261543 -0.95285296 0.33612603 0.31455246 -0.06730816 -0.10884541 0.3515362 0.8390499
-0.106939666 0.48360914 0.2628431 0.46579167 -0.4276688 -0.34330633 -0.515039 -0.441122
-0.14676036 0.5340274 -0.50911635 0.3272127 -0.8774314 0.07565137 -0.11047285 0.30312654
0.28139883 0.31062105 -0.60687715 -0.09334057 0.8540902 0.2695849 -0.33155808 -0.23531434
0.3869165 -0.0067184954 0.11410942 -0.5829687 0.16041066 0.4654258 -0.85323447 -0.22402947
0.20494154 0.42215952 0.9121534 0.3660807 -0.29675308 0.3990493 -0.11895502 0.014530947
-0.1634386 -0.967734 -0.06694194 0.18785438 0.73700523 0.5949259 0.5588001 -0.12759158
0.21781626 0.5100271 -0.023717437 0.20872585 -0.19947226 -0.2848472 0.81802523 0.25780684
-0.29202303 -0.49700987 -0.103155635 0.7510649 0.14836663 0.116176195 0.26595733 0.16426359
-0.08106794 -0.1856485 -0.38886526 -0.6254199 -0.039911963 -0.669543 0.72888964 0.26702243
0.17103495 0.098135464 -0.7276412 -0.18659051 0.024133112 -0.043650296 0.4635829 -0.37428346
0.30862626 0.42789784 -0.08648884 -0.2718591 -0.07872839 -0.3923419 0.002128657 0.74510777
-0.22981405 1.4785974 0.07384221 -0.1616292 0.22695124 0.48021117 -0.38102335 0.14406784
-0.3068887 -0.35883158 -0.25034714 0.06881569 -0.2772355 0.37870634 -0.07787485 -0.18479599
-0.057846133 -0.1758708 -0.46830127 0.50760436 0.47417733 -0.33358246 0.10263839 0.6568595
0.47702557 -1.1147509 0.11625286 -0.2392652 -0.04459369 -0.53089076 -0.4690089 0.0050134035
0.5111102 0.08213731 -0.39539602 0.9233919 -0.6151422 0.5550701 0.047194086 0.578362
-0.22270633 0.2022671 0.07950304 -0.82801676 -0.041092373 -0.27275234 -0.60805476 -0.74626535
0.064608864 0.2883388 0.065025724 -0.51819986 0.18006738 -0.0735523 -0.2944861 0.07536861
0.25300443 0.15154673 -0.28482738 0.8549985 0.50799954 -0.48809046 -0.92645323 0.118501164
-0.29720172 -0.20840831 -0.40600947 0.17591622 -0.19331813 0.38385597 0.098171555 -0.51676536
-0.19204773 0.33928734 -0.12340393 0.043554652 -0.10054201 -0.16464391 0.37647906 0.10806221
00000000: b482 e23d 8359 21be 8662 443e f920 f93e
00000010: a183 c03e 5b09 18bf e92a 14bd 4bd6 7f3e
00000020: b46a 693d 626e c2bd d55c 1bbf debf a8be
00000030: 1859 2dbf 26c8 01bf 746a 3ebe b618 913e
00000040: b42f 9c3e 2aef 90be a2fb ccbe 851d cc3e
00000050: f476 d93e 6f16 0abe 210b 2f3f 8569 213f
00000060: 9d61 00bf fcf2 50be a670 dcbe 218c 98be
00000070: dcee df3d a85c 463e d3dc ad3e 5027 eb3c
00000080: 2e32 e33c 366a b53d fbd2 67be 6862 e43d
00000090: 3961 da3e 15f4 063f 126a d8bd 3e28 6ebe
000000a0: 565a bbbe 7431 c53e 101b d1bc 4dca 85bd
000000b0: ef16 d6bd 266a b63d 65a4 993e 35f6 a43e
000000c0: 66c2 55be 612d 27bf 514c 45be 1e25 1abe
000000d0: c7ab f43e 8184 1ebf efad e4be c96a 66be
000000e0: e0d6 5dbf c00a 1abe e041 9e3e 8c69 87be
000000f0: f380 c8bd 3119 1c3e 288d f93d 3844 05be
00000100: 1faa b4be 5dc3 c5be ffe9 9ebe 0cee 2ebe
00000110: e02e 403f 37e4 533e eebf 6fbd 996e 0d3e
00000120: c3a4 b93e 8436 12bd 9f08 1739 6c7f fcbe
00000130: 3d03 fa3d 2451 c13e e15d 90be 6e7f cbbd
00000140: 0659 833f 2cee 73bf b618 ac3e 050d a13e
00000150: dcd8 89bd 58ea debd 8efc b33e f9cb 563f
00000160: 2f03 dbbd 9e9b f73e 5f93 863e 3f7c ee3e
00000170: 68f7 dabe d9c5 afbe 99d9 03bf beda e1be
00000180: 5948 16be 05b6 083f 7355 02bf 6c88 a73e
00000190: 589f 60bf 1bef 9a3d 973f e2bd 6733 9b3e
000001a0: 8213 903e b909 9f3e 4d5c 1bbf 5729 bfbd
000001b0: a8a5 5a3f 0807 8a3e fbc1 a9be 3ef6 70be
000001c0: eb19 c63e d326 dcbb 33b2 e93d 703d 15bf
000001d0: b142 243e 4a4c ee3e 936d 5abf fb67 65be
000001e0: 32dc 513e 4b25 d83e e382 693f ee6e bb3e
000001f0: 05f0 97be 3150 cc3e b19e f3bd 3613 6e3c
00000200: 735c 27be 6abd 77bf db18 89bd e65c 403e
00000210: 60ac 3c3f 104d 183f 860d 0f3f 5ea7 02be
00000220: 3a0b 5f3e 2391 023f 124b c2bc 3bbc 553e
00000230: 7542 4cbe 7ed7 91be 1a6a 513f 42ff 833e
00000240: 0b84 95be 1478 febe 4343 d3bd ca45 403f
00000250: 6ced 173e c9ed ed3d 8f2b 883e b734 283e
00000260: f306 a6bd a41a 3ebe 5919 c7be 851b 20bf
00000270: ba7a 23bd 2c67 2bbf 8398 3a3f 2ab7 883e
00000280: c923 2f3e 3ffb c83d b246 3abf 9511 3fbe
00000290: ceb2 c53c a7ca 32bd bd5a ed3e 15a2 bfbe
000002a0: 4304 9e3e 6d15 db3e 1021 b1bd 1e31 8bbe
000002b0: 5a3c a1bd 0ae1 c8be f080 0b3b 62bf 3e3f
000002c0: 6054 6bbe ae42 bd3f 963a 973d 2082 25be
000002d0: e865 683e 3dde f53e 7e15 c3be 8586 133e
000002e0: 8420 9dbe c6b8 b7be 802d 80be 3eef 8c3d
000002f0: d0f1 8dbe cce5 c13e d97c 9fbd 293b 3dbe
00000300: 11f0 6cbd 7a17 34be 2fc5 efbe 5cf2 013f
00000310: 5fc7 f23e 52cb aabe 1434 d23d f227 283f
00000320: b23c f43e 28b0 8ebf fb15 ee3d f001 75be
00000330: e0a7 36bd 75e8 07bf ef21 f0be 7a47 a43b
00000340: 1ed8 023f 9b37 a83d 5971 cabe 6963 6c3f
00000350: f679 1dbf 1319 0e3f 964e 413d 880f 143f
00000360: 210d 64be 1b1f 4f3e 7dd2 a23d e8f8 53bf
00000370: 7a50 28bd 32a6 8bbe 7aa9 1bbf 3f0b 3fbf
00000380: a751 843d 25a1 933e 352c 853d bfa8 04bf
00000390: 9563 383e 97a2 96bd e2c6 96be dc5a 9a3d
000003a0: cc89 813e 112f 1b3e e5d4 91be 2fe1 5a3f
000003b0: 420c 023f fee6 f9be 0a2c 6dbf bdb0 f23d
000003c0: d32a 98be fd68 55be 79e0 cfbe 6223 343e
000003d0: 30f5 45be c588 c43e 2b0e c93d bc4a 04bf
000003e0: 29a8 44be 12b7 ad3e 33bb fcbd 5d66 323d
000003f0: f8e8 cdbd 6a98 28be ddc1 c03e b84f dd3d

network_body._body_endoder.seq_layers.0.bias f4 [128]
0.0 0.0 0.0 0.0 0.0 0.0 0.0 0.0
0.0 0.0 0.0 0.0 0.0 0.0 0.0 0.0
0.0 0.0 0.0 0.0 0.0 0.0 0.0 0.0
0.0 0.0 0.0 0.0 0.0 0.0 0.0 0.0
0.0 0.0 0.0 0.0 0.0 0.0 0.0 0.0
0.0 0.0 0.0 0.0 0.0 0.0 0.0 0.0
0.0 0.0 0.0 0.0 0.0 0.0 0.0 0.0
0.0 0.0 0.0 0.0 0.0 0.0 0.0 0.0
0.0 0.0 0.0 0.0 0.0 0.0 0.0 0.0
0.0 0.0 0.0 0.0 0.0 0.0 0.0 0.0
0.0 0.0 0.0 0.0 0.0 0.0 0.0 0.0
0.0 0.0 0.0 0.0 0.0 0.0 0.0 0.0
0.0 0.0 0.0 0.0 0.0 0.0 0.0 0.0
0.0 0.0 0.0 0.0 0.0 0.0 0.0 0.0
0.0 0.0 0.0 0.0 0.0 0.0 0.0 0.0
0.0 0.0 0.0 0.0 0.0 0.0 0.0 0.0
00000000: 0000 0000 0000 0000 0000 0000 0000 0000
00000010: 0000 0000 0000 0000 0000 0000 0000 0000
00000020: 0000 0000 0000 0000 0000 0000 0000 0000
00000030: 0000 0000 0000 0000 0000 0000 0000 0000
00000040: 0000 0000 0000 0000 0000 0000 0000 0000
00000050: 0000 0000 0000 0000 0000 0000 0000 0000
00000060: 0000 0000 0000 0000 0000 0000 0000 0000
00000070: 0000 0000 0000 0000 0000 0000 0000 0000
00000080: 0000 0000 0000 0000 0000 0000 0000 0000
00000090: 0000 0000 0000 0000 0000 0000 0000 0000
000000a0: 0000 0000 0000 0000 0000 0000 0000 0000
000000b0: 0000 0000 0000 0000 0000 0000 0000 0000
000000c0: 0000 0000 0000 0000 0000 0000 0000 0000
000000d0: 0000 0000 0000 0000 0000 0000 0000 0000
000000e0: 0000 0000 0000 0000 0000 0000 0000 0000
000000f0: 0000 0000 0000 0000 0000 0000 0000 0000
00000100: 0000 0000 0000 0000 0000 0000 0000 0000
00000110: 0000 0000 0000 0000 0000 0000 0000 0000
00000120: 0000 0000 0000 0000 0000 0000 0000 0000
00000130: 0000 0000 0000 0000 0000 0000 0000 0000
00000140: 0000 0000 0000 0000 0000 0000 0000 0000
00000150: 0000 0000 0000 0000 0000 0000 0000 0000
00000160: 0000 0000 0000 0000 0000 0000 0000 0000
00000170: 0000 0000 0000 0000 0000 0000 0000 0000
00000180: 0000 0000 0000 0000 0000 0000 0000 0000
00000190: 0000 0000 0000 0000 0000 0000 0000 0000
000001a0: 0000 0000 0000 0000 0000 0000 0000 0000
000001b0: 0000 0000 0000 0000 0000 0000 0000 0000
000001c0: 0000 0000 0000 0000 0000 0000 0000 0000
000001d0: 0000 0000 0000 0000 0000 0000 0000 0000
000001e0: 0000 0000 0000 0000 0000 0000 0000 0000
000001f0: 0000 0000 0000 0000 0000 0000 0000 0000

network_body._body_endoder.seq_layers.2.weight f4 [128, 128]
-0.11540344 -0.069749795 0.12168787 -0.13529691 -0.13819169 0.057818048 0.0008185294 -0.018271638
-0.069638155 -0.061335027 -0.0012273759 0.07441273 0.11020712 0.09550499 0.0937715 -0.005848296
0.06584793 0.033716436 0.049090546 0.0059552146 -0.03434959 -0.16102096 -0.17487614 -0.14476202
-0.14650907 0.08546026 0.022042552 -0.04455323 -0.111381 0.02925694 -0.08125594 -0.0098900795
0.06665571 -0.04948531 0.02133562 -0.101916 -0.04912419 0.11057462 0.041604284 0.057976946
0.036482345 -0.06974919 -0.058103003 -0.04765735 -0.020755816 0.24046849 -0.06591746 0.089052
0.010701768 -0.084317334 0.0035001636 -0.13291904 -0.04482342 0.07151559 0.11763275 -0.034559034
-0.03416086 -0.115481816 0.019318016 -0.01983312 -0.0640128 0.07578119 0.13962044 -0.027508428
-0.011973496 0.037873678 0.07158376 0.0370021 -0.048494685 0.016320255 -0.06139375 0.04133278
-0.041284166 0.15182911 0.010716774 0.030148376 -0.09068771 -0.10907572 0.032063365 -0.113956384
-0.119227774 -0.21096101 -0.03168847 -0.028640829 0.07021034 -0.23676865 0.029157706 0.03986294
-0.08576768 -0.0281651 -0.0021593086 -0.18765897 0.07160738 0.11313459 0.0009484664 0.06229354
-0.12629344 -0.08526902 -0.028726254 -0.06302107 -0.14849651 0.061476003 0.09211657 0.015594934
0.054032475 -0.048131485 0.1083318 0.0606631 0.074989006 -0.019869696 -0.03392211 -0.0015610107
-0.029823497 0.0014559439 0.0658698 0.063364424 -0.10787235 0.025490722 -0.15955088 0.022494936
-0.046496388 -0.019130899 0.076928675 -0.028800476 0.002759423 -0.011756664 -0.03243792 -0.10752311
-0.04701053 -0.03244642 0.024011657 0.08992902 -0.24906676 0.10160546 -0.028737435 0.037318643
0.042638455 -0.043703947 0.12717278 -0.019126797 -0.018556448 0.06422973 0.09111598 -0.023672752
0.06010142 0.017167319 0.059652604 -0.07994267 0.08985077 -0.0999657 -0.089670315 0.04672919
0.016075896 0.07678198 0.14775968 -0.08492682 0.08455587 -0.08597063 -0.018515311 0.06276538
-0.004316867 0.14522693 -0.06151397 -0.0979135 0.006490955 0.12529619 0.1582665 -0.021663025
-0.06796197 -0.00044150226 -0.10056512 -0.069774814 -0.03326345 -0.005024363 0.07540435 0.07596774
0.0002363122 -0.04318032 -0.08043707 0.14153388 -0.05249683 -0.06442871 0.07139074 0.08551806
-0.101291664 -0.030875765 0.20511702 -0.04511275 0.002787175 0.07103247 -0.043830488 0.032293938
-0.117430635 -0.08671118 0.048235275 0.053360466 0.16404496 -0.015371821 0.05196501 -0.044249002
0.016413603 0.10730635 -0.03880763 -0.0035378153 0.0042996374 -0.013056075 -0.185079 0.037615158
0.002427832 0.07048456 -0.1414102 -0.102655 0.023684612 -0.043333236 -0.06790024 -0.043589562
-0.08159817 0.2072359 0.047386236 -0.14774336 -0.037652887 0.06382156 -0.12797691 -0.07692464
0.050379988 -0.013859597 -0.06162106 0.19728169 0.007829258 0.06443886 -0.0012661889 0.057574574
-0.05739524 -0.11348675 -0.06536176 -0.0948182 0.11224426 -0.003952371 -0.007870396 0.013787946
-0.047506116 0.12722316 -0.06193231 0.042559527 0.03883082 0.02870724 -0.039372336 -0.07514846
-0.11058725 0.09723366 0.025858749 -0.090677276 -0.12141505 -0.026801536 -0.035601217 -0.14820674
00000000: a458 ecbd fbd8 8ebd 7d37 f93d 468b 0abe
00000010: 1f82 0dbe 9ed2 6c3d 9492 563a 67ae 95bc
00000020: 739e 8ebd 703a 7bbd e7df a0ba b465 983d
00000030: 45b4 e13d 1f98 c33d 460b c03d 10a3 bfbb
00000040: 48db 863d 3f1a 0a3d 2b13 493d f623 c33b
00000050: 28b2 0cbd aee2 24be bb12 33be 7f3c 14be
00000060: 7906 16be ca05 af3d 9592 b43c 737d 36bd
00000070: b91b e4bd 40ac ef3c 8469 a6bd 000a 22bc
00000080: ca82 883d 1cb1 4abd 0ac8 ae3c 56b9 d0bd
00000090: 7236 49bd f274 e23d 4169 2a3d 3c79 6d3d
000000a0: 836e 153d aad8 8ebd 6afd 6dbd 5a34 43bd
000000b0: 1a08 aabc 5f3d 763e bcff 86bd e560 b63d
000000c0: 7856 2f3c 91ae acbd 0063 653b ee1b 08be
000000d0: c398 37bd c476 923d 70e9 f03d c68d 0dbd
000000e0: 42ec 0bbd bb81 ecbd d140 9e3c 1179 a2bc
000000f0: 2519 83bd 2b33 9b3d a9f8 0e3e 5b59 e1bc
00000100: 7b2c 44bc 6e21 1b3d 829a 923d 848f 173d
00000110: 5da2 46bd 0eb2 853c 0378 7bbd 904c 293d
00000120: 9619 29bd 1779 1b3e 6895 2f3c baf9 f63c
00000130: 7aba b9bd 1763 dfbd e054 033d f761 e9bd
00000140: b12d f4bd 2a06 58be c5cb 01bd 2ca0 eabc
00000150: 70ca 8f3d 7b73 72be 24dc ee3c 5247 233d
00000160: f7a6 afbd 7fba e6bc 3083 0dbb ac29 40be
00000170: e4a6 923d 1cb3 e73d 81a2 783a 8327 7f3d
00000180: 1153 01be 86a1 aebd 5253 ebbc 3111 81bd
00000190: 780f 18be 43ce 7b3d 9da7 bc3d e581 7f3c
000001a0: 2851 5d3d 8525 45bd 10dd dd3d df79 783d
000001b0: d693 993d c6c5 a2bc e9f1 0abd d49a ccba
000001c0: 6850 f4bc 5fd5 be3a bfe6 863d 35c5 813d
000001d0: 2eec dcbd ebd1 d03c 4e61 23be 4d47 b83c
000001e0: ff72 3ebd 67b8 9cbc c88c 9d3d faee ebbc
000001f0: 70d7 343b 069f 40bc a0dd 04bd 1435 dcbd
00000200: 1d8e 40bd 8ae6 04bd 18b4 c43c b52c b83d
00000210: 5b0b 7fbe 8616 d03d c56a ebbc 6fdb 183d
00000220: a9a5 2e3d e902 33bd 9539 023e cdaf 9cbc
00000230: b103 98bc e08a 833d 049b ba3d 5ced c1bc
00000240: e82c 763d 7aa2 8c3c 4a56 743d fcb8 a3bd
00000250: ae03 b83d d1ba ccbd 12a5 b7bd 1b67 3f3d
00000260: 99b1 833c df3f 9d3d 504e 173e 1dee adbd
00000270: a12b ad3d 5f11 b0bd 6cad 97bc 238b 803d
00000280: 8174 8dbb 5eb6 143e 13f6 7bbd e086 c8bd
00000290: 14b2 d43b a54d 003e 9d10 223e a876 b1bc
000002a0: a52f 8bbd 6e79 e7b9 16f5 cdbd 19e6 8ebd
000002b0: 413f 08bd 69a3 a4bb 996d 9a3d f994 9b3d
000002c0: 93ca 7739 d9dd 30bd 31bc a4bd 42ee 103e
000002d0: ea06 57bd 33f3 83bd 4f35 923d 1824 af3d
000002e0: 0172 cfbd 2cef fcbc 320a 523e 26c8 38bd
000002f0: 09a9 363b 7979 913d 9987 33bd a646 043d
00000300: 797f f0bd a295 b1bd 5a92 453d 8190 5a3d
00000310: 67fb 273e 17da 7bbc 43d9 543d 713e 35bd
00000320: d275 863c 6ec3 db3d c0f4 1ebd b1da 67bb
00000330: f9e3 8c3b 26e9 55bc 5985 3dbe 5a12 1a3d
00000340: 431c 1f3b 365a 903d d6cd 10be c93c d2bd
00000350: 3b06 c23c 317e 31bd 480f 8bbd f88a 32bd
00000360: f11c a7bd a635 543e 1218 423d 094a 17be
00000370: ea39 1abd e1b4 823d 610c 03be aa8a 9dbd
00000380: 3f5b 4e3d 5d13 63bc 5d66 7cbd 3604 4a3e
00000390: 4a46 003c 85f8 833d 40f6 a5ba 51d3 6b3d
000003a0: 4517 6bbd be6b e8bd 63dc 85bd 0b30 c2bd
000003b0: 52e0 e53d e482 81bb d5f2 00bc d6e6 613c
000003c0: c695 42bd ca46 023e bcac 7dbd e652 2e3d
000003d0: 110d 1f3d 722b eb3c e344 21bd 70e7 99bd
000003e0: 917b e2bd 7122 c73d bad5 d33c 02b5 b9bd
000003f0: 74a8 f8bd e58e dbbc 95d2 11bd 82c3 17be

network_body._body_endoder.seq_layers.2.bias f4 [128]
0.0 0.0 0.0 0.0 0.0 0.0 0.0 0.0
0.0 0.0 0.0 0.0 0.0 0.0 0.0 0.0
0.0 0.0 0.0 0.0 0.0 0.0 0.0 0.0
0.0 0.0 0.0 0.0 0.0 0.0 0.0 0.0
0.0 0.0 0.0 0.0 0.0 0.0 0.0 0.0
0.0 0.0 0.0 0.0 0.0 0.0 0.0 0.0
0.0 0.0 0.0 0.0 0.0 0.0 0.0 0.0
0.0 0.0 0.0 0.0 0.0 0.0 0.0 0.0
0.0 0.0 0.0 0.0 0.0 0.0 0.0 0.0
0.0 0.0 0.0 0.0 0.0 0.0 0.0 0.0
0.0 0.0 0.0 0.0 0.0 0.0 0.0 0.0
0.0 0.0 0.0 0.0 0.0 0.0 0.0 0.0
0.0 0.0 0.0 0.0 0.0 0.0 0.0 0.0
0.0 0.0 0.0 0.0 0.0 0.0 0.0 0.0
0.0 0.0 0.0 0.0 0.0 0.0 0.0 0.0
0.0 0.0 0.0 0.0 0.0 0.0 0.0 0.0
00000000: 0000 0000 0000 0000 0000 0000 0000 0000
00000010: 0000 0000 0000 0000 0000 0000 0000 0000
00000020: 0000 0000 0000 0000 0000 0000 0000 0000
00000030: 0000 0000 0000 0000 0000 0000 0000 0000
00000040: 0000 0000 0000 0000 0000 0000 0000 0000
00000050: 0000 0000 0000 0000 0000 0000 0000 0000
00000060: 0000 0000 0000 0000 0000 0000 0000 0000
00000070: 0000 0000 0000 0000 0000 0000 0000 0000
00000080: 0000 0000 0000 0000 0000 0000 0000 0000
00000090: 0000 0000 0000 0000 0000 0000 0000 0000
000000a0: 0000 0000 0000 0000 0000 0000 0000 0000
000000b0: 0000 0000 0000 0000 0000 0000 0000 0000
000000c0: 0000 0000 0000 0000 0000 0000 0000 0000
000000d0: 0000 0000 0000 0000 0000 0000 0000 0000
000000e0: 0000 0000 0000 0000 0000 0000 0000 0000
000000f0: 0000 0000 0000 0000 0000 0000 0000 0000
00000100: 0000 0000 0000 0000 0000 0000 0000 0000
00000110: 0000 0000 0000 0000 0000 0000 0000 0000
00000120: 0000 0000 0000 0000 0000 0000 0000 0000
00000130: 0000 0000 0000 0000 0000 0000 0000 0000
00000140: 0000 0000 0000 0000 0000 0000 0000 0000
00000150: 0000 0000 0000 0000 0000 0000 0000 0000
00000160: 0000 0000 0000 0000 0000 0000 0000 0000
00000170: 0000 0000 0000 0000 0000 0000 0000 0000
00000180: 0000 0000 0000 0000 0000 0000 0000 0000
00000190: 0000 0000 0000 0000 0000 0000 0000 0000
000001a0: 0000 0000 0000 0000 0000 0000 0000 0000
000001b0: 0000 0000 0000 0000 0000 0000 0000 0000
000001c0: 0000 0000 0000 0000 0000 0000 0000 0000
000001d0: 0000 0000 0000 0000 0000 0000 0000 0000
000001e0: 0000 0000 0000 0000 0000 0000 0000 0000
000001f0: 0000 0000 0000 0000 0000 0000 0000 0000

action_model._continuous_distribution.log_sigma f4 [1, 2]
0.0 0.0
00000000: 0000 0000 0000 0000

action_model._continuous_distribution.mu.weight f4 [2, 128]
0.007116463 -0.015979601 0.024000948 -0.01666001 -0.026277665 -0.020447334 -0.004555999 0.0066495747
0.0016122829 -0.023075888 -0.014920232 0.015125774 -0.0014266635 0.022128036 -0.029785514 -0.025169065
-0.030281553 0.0024906786 -0.012831682 0.010581772 -0.02104888 -0.057241797 -0.012225332 0.0091131665
-0.0023642837 0.0032454082 0.0154041145 -0.0068573365 -0.017034275 -0.014945869 -0.0077909008 0.0013373069
-0.031925473 -0.028466782 0.0101337945 0.010471985 0.012011759 -0.016275499 -0.0006736714 0.010018443
-0.025886688 0.0043123933 -0.0056768586 0.0156732 0.021748954 0.011997593 0.008389569 0.0047115306
0.013990424 0.0013424404 -0.0006074471 -0.013931024 0.001299722 0.008730913 0.0051657674 0.015313806
-0.012819505 -0.014004898 -0.004342101 -0.017348474 -0.017334783 0.014272654 -0.006757758 -0.018266052
0.0139525 -0.013859113 0.019421427 0.012652608 0.021592101 0.012784203 -0.021225715 0.001771896
0.014012786 0.016863218 -0.0163017 -0.012031942 -0.0008969949 -0.0047998703 0.058819383 0.03352387
0.011455896 -0.00018401832 -0.027573327 0.003584965 -0.006681724 -0.025844282 0.012328692 0.017482297
-0.029141223 0.011299995 0.0049325963 0.014969817 0.044851758 -0.009414835 -0.018090896 -0.008429854
0.024850426 -0.02804038 -0.013528168 0.021891683 -0.0082440805 0.011616465 -0.032707594 0.014124892
0.022925043 0.015592408 -0.017632073 -0.004022633 -0.0012828487 0.012257293 0.030832767 -0.035901215
-0.03375643 -0.029963514 -0.014644111 -0.005591289 -0.02510987 -0.00052793516 -0.0234969 0.006171502
-0.021218745 -0.00636872 0.014185217 0.022021333 0.0066314093 -0.015085294 0.009792744 -0.01202394
-0.0024909568 0.0003058278 0.009528498 -0.017734377 -0.023784637 -0.003058335 -0.00090897514 0.0050430195
0.017571732 -0.011549225 0.0097416965 0.01410818 -0.021635799 0.0176563 0.024196059 0.013749403
0.029351104 0.007568598 0.015154515 -0.026910907 0.020653632 -0.041746628 0.009747155 0.011889806
0.012290008 -0.020396378 0.0072237626 0.018714298 -0.010983486 0.0039112484 -0.016189277 -0.016605597
0.019435871 0.0027894326 -0.0043654796 0.013347101 0.017056575 -0.006843345 -0.028310535 0.015370018
-0.025814286 -0.010747654 0.010990157 -0.016351394 -0.007031408 -0.019725857 0.02076705 0.03841577
0.02103429 0.008179508 0.008654634 0.017136563 -0.010257355 -0.00014382518 0.02681589 -0.007888306
-0.0052981004 -0.038573127 -0.03041762 0.0043043443 -0.011076993 0.020923456 0.0046423296 -0.011839042
-0.010545322 0.0059884987 -0.017719219 0.010589253 -0.0061117513 -0.013863019 0.00231886 -0.016048314
-0.029214025 -0.007105298 0.00595259 -0.0031679391 -0.011280417 -0.0017575602 -0.0015193208 -0.023065919
0.01923143 -0.031022945 -0.0012633672 0.007233781 0.0154278865 0.009518487 0.015691644 0.0065904967
-0.010294858 -0.016762277 0.026225422 -0.013130757 0.004673037 -0.00012308704 -0.010180125 0.020472677
-0.009151985 0.00037693194 -0.0074121836 0.022472026 -0.02612315 -0.0122947255 -0.008450789 0.008389276
0.021209126 0.006084208 -0.04304231 -0.012092992 -0.0018396694 0.013813357 -0.011038943 -0.0017018842
-0.024826149 -0.013871222 -0.0045550987 -0.019560419 -0.02201332 0.009113174 0.01706911 0.029517492
-0.0011489516 -0.05827259 -0.027699446 -0.0051287552 0.01149317 -0.014195541 0.0013601229 -0.015857292
00000000: 3831 e93b a7e7 82bc a39d c43c 937a 88bc
00000010: 4244 d7bc 2b81 a7bc 7d4a 95bb ade4 d93b
00000020: 3d53 d33a a509 bdbc fd73 74bc 18d2 773c
00000030: e2fe baba db45 b53c c000 f4bc 5b2f cebc
00000040: 0511 f8bc a73a 233b fa3b 52bc 2b5f 2d3c
00000050: b36e acbc 6076 6abd c24c 48bc 644f 153c
00000060: 19f2 1abb eab0 543b 8a61 7c3c 82b3 e0bb
00000070: 778b 8bbc 85df 74bc d04a ffbb 9348 af3a
00000080: 49c4 02bd 2b33 e9bc 3708 263c b092 2b3c
00000090: f8cc 443c 3254 85bc 5399 30ba 6524 243c
000000a0: 5210 d4bc fa4e 8d3b f104 babb 1565 803c
000000b0: dd2a b23c 8d91 443c 6774 093c 2f63 9a3b
000000c0: 1738 653c d3f4 af3a 163d 1fba f33e 64bc
000000d0: 6f5b aa3a 1a0c 0f3c 9945 a93b c2e6 7a3c
000000e0: e708 52bc cd74 65bc 2f48 8ebb 631e 8ebc
000000f0: ad01 8ebc dad7 693c 2f70 ddbb b0a2 95bc
00000100: 0799 643c 5511 63bc af19 9f3c e24c 4f3c
00000110: ebe1 b03c d574 513c 8de1 adbc f73e e83a
00000120: e295 653c bb24 8a3c 258b 85bc 9f21 45bc
00000130: 4f24 6bba 3b48 9dbb 98ec 703d 5350 093d
00000140: 83b1 3b3c 0bf5 40b9 75e1 e1bc bbf1 6a3b
00000150: 5df2 dabb 63b7 d3bc 48fe 493c 0937 8f3c
00000160: 93b9 eebc 9d23 393c 9ea1 a13b f743 753c
00000170: 7ab6 373d ae40 1abc 5c33 94bc 5f1d 0abc
00000180: 1f93 cb3c f0b4 e5bc 40a5 5dbc 3056 b33c
00000190: 2e12 07bc fc52 3e3c 66f8 05bd 176c 673c
000001a0: 4dcd bb3c 4d77 7f3c 2371 90bc 4bd0 83bb
000001b0: 4225 a8ba d0d2 483c 0095 fc3c 270d 13bd
000001c0: 2f44 0abd 0b76 f5bc daed 6fbc 2237 b7bb
000001d0: 37b3 cdbc 2165 0aba 927c c0bc 503a ca3b
000001e0: efd2 adbc b2b0 d0bb 1d69 683c 1566 b43c
000001f0: 4b4c d93b 4f28 77bc bf71 203c 0f00 45bc
00000200: 523f 23bb 8357 a039 6b1d 1c3c af47 91bc
00000210: 00d8 c2bc 596e 48bb 4a48 6eba ea3f a53b
00000220: 98f2 8f3c f638 3dbc a39b 1f3c ff25 673c
00000230: 8f3d b1bc f2a3 903c d036 c63c 2d45 613c
00000240: ba71 f03c 0002 f83b a54a 783c 4374 dcbc
00000250: ce31 a93c 83fe 2abd 88b2 1f3c 76cd 423c
00000260: 085c 493c 4e16 a7bc 50b5 ec3b ba4e 993c
00000270: 14f4 33bc ee29 803b 609f 84bc 7608 88bc
00000280: fa37 9f3c eace 363b 4c0c 8fbb cdad 5a3c
00000290: 3bba 8b3c 233e e0bb 7feb e7bc 87d2 7b3c
000002a0: 7b78 d3bc ee16 30bc 0f10 343c 5cf3 85bc
000002b0: ba67 e6bb 1f98 a1bc a91f aa3c db59 1d3d
000002c0: 1a50 ac3c 5803 063c 2acc 0d3c fa61 8c3c
000002d0: 770e 28bc c7cf 16b9 ffac db3c f43d 01bc
000002e0: b09b adbb dbfe 1dbd 5f2e f9bc 750b 8d3b
000002f0: 477c 35bc ab67 ab3c af1e 983b 8bf8 41bc
00000300: 49c6 2cbc 2b3b c43b e527 91bc 8c7e 2d3c
00000310: 1645 c8bb b721 63bc 04f8 173b c177 83bc
00000320: 4052 efbc 8fd3 e8bb f20d c33b 339d 4fbb
00000330: 80d1 38bc ef5d e6ba f223 c7ba bdf4 bcbc
00000340: 3b8b 9d3c d523 febc 9297 a5ba 5a09 ed3b
00000350: 3fc5 7c3c 6ef3 1b3c c38b 803c 18f5 d73b
00000360: c4ab 28bc 0b51 89bc b2d6 d63c 6322 57bc
00000370: 4720 993b ed10 01b9 8aca 26bc 51b6 a73c
00000380: 35f2 15bc f39e c539 e7e1 f2bb 4117 b83c
00000390: 3700 d6bc d16f 49bc 2e75 0abc 2d73 093c
000003a0: c3be ad3c 095e c73b 224d 30bd af21 46bc
000003b0: 1021 f1ba 6b51 623c afdc 34bc c211 dfba
000003c0: 3560 cbbc 1f44 63bc f042 95bb 2c3d a0bc
000003d0: 4755 b4bc 6c4f 153c 85d4 8b3c abce f13c
000003e0: 6b98 96ba 3daf 6ebd f3e9 e2bc 1e0f a8bb
000003f0: d94d 3c3c 6a94 68bc 2746 b23a 27e7 81bc

action_model._continuous_distribution.mu.bias f4 [2]
0.0 0.0
00000000: 0000 0000 0000 0000

network_body._body_endoder.seq_layers.0.weight f4 [128, 6]
0.097612195 -0.13992578 -0.4383667 0.71501505 0.080949254 -0.61730343 -0.8866195 -0.5619433
0.19041546 -0.37603202 0.20206141 -0.5036995 0.0148837995 1.0617763 -0.055317257 -0.38783383
0.5536168 -0.15606546 0.14985453 -0.057107836 -0.33892226 -0.8012778 0.38655004 -0.44915947
0.5886475 0.18185276 0.7180453 -0.28322875 -0.35494193 0.23596285 0.0879164 0.10222011
-0.32379332 -0.8050888 0.50004065 -0.36282712 0.39870936 1.0675018 -0.55974233 0.2186383
0.654722 -0.292103 -0.25153303 -0.24340034 0.30059403 0.116436064 -0.25174513 0.15863565
-0.26138487 0.025554499 -0.21294734 -0.20253848 0.4216554 -0.26349363 -0.6446519 0.6558185
-0.05478949 0.07457734 0.06611697 -0.59272933 -0.0059886505 0.83249676 0.9248042 0.14203653
-0.6205806 0.120397374 -0.95823836 0.013952394 -0.25125307 -0.08620578 0.3547988 -0.4576227
0.23158936 -0.87000954 -0.35592914 -0.60933656 0.54084855 -0.39152107 -0.17305979 -0.2898433
0.19031262 0.6408169 -0.19997762 0.05913663 -0.45763215 0.075224064 -0.13824676 0.82826537
0.49219862 0.1515153 -0.26734954 0.012971372 0.43423867 0.6789994 -0.23200138 -0.21397814
-0.098320864 0.413551 -0.4144796 -0.69660836 0.11266239 -0.05233346 -0.5081686 -0.1320503
0.100870796 0.5856241 0.012504598 1.3364735 0.43486482 -0.23614238 -0.19301036 0.42621163
-0.2610703 0.034661867 -0.26432562 -0.4295935 0.044933423 0.746972 -0.29739 -0.6440114
0.26518717 0.05384324 0.28475103 -0.31818455 0.1582369 -0.12887107 0.7471283 -0.46345395
0.5975278 0.11458212 0.8362272 -0.44318205 0.09493696 0.043629285 -0.19672683 -0.103801325
0.34082723 0.2821862 -0.8828341 0.8142535 -0.4881212 -0.1481776 0.14047377 0.23696972
0.29878074 -0.21277498 -0.042555906 -0.04851017 0.3460582 -0.087816015 0.4971901 -0.1237787
-0.19710405 -0.5819925 0.41925278 0.13253564 -0.0053421343 -0.022875391 -0.049296714 0.21776105
-0.12319829 0.13887535 0.13602605 -0.2926363 0.8575488 -0.055453133 -0.22462359 0.015215056
-0.35495758 -0.36300892 -0.1954351 0.122280136 0.9895214 0.5320079 0.08114407 0.5187376
0.61471874 0.8586645 0.15734759 -0.15794145 0.10067577 -0.060125507 0.50073147 0.16541456
-0.13534415 0.16589841 -0.52468187 0.25187084 -0.5413265 0.06575232 0.45762643 -0.08855021
0.15136258 -0.43143842 -0.26295406 -0.7140017 0.5547444 0.43272054 -0.50681067 -0.23004764
-0.25078878 -0.043756478 0.49701652 0.27200398 -0.08111983 0.054928917 0.30263373 0.49315467
0.47615057 0.57635254 0.66947293 -0.38310376 -0.6453884 0.10025422 0.26298437 0.18827999
-0.37486494 0.5581898 -0.40201673 -0.33511358 -0.007984512 -0.33744514 0.05781695 0.6000656
0.23242342 -0.06596201 0.28811702 -0.010773557 0.30857912 0.2157069 -0.27472386 0.36951646
-0.1926773 -0.35032776 0.004827512 -0.16083995 -0.26084593 -0.09328851 0.092206135 0.06728729
-0.3663444 -0.28652215 0.4149827 -0.44137052 -0.4450862 -0.054121733 0.50006044 -0.33157647
0.073720254 -0.16759244 -0.1981677 0.13644968 -0.14917295 0.71188414 -0.30412707 -0.22586796
00000000: e7e8 c73d b448 0fbe 9a71 e0be 3a0b 373f
00000010: b9c8 a53d 9907 1ebf 7ff9 62bf 84db 0fbf
00000020: 45fc 423e 4587 c0be 30e9 4e3e 73f2 00bf
00000030: 2edb 733c 49e8 873f 5994 62bd 2892 c6be
00000040: d5b9 0d3f a0cf 1fbe 7773 193e e8e9 69bd
00000050: 3887 adbe 8b20 4dbf e3e9 c53e 3bf8 e5be
00000060: 9ab1 163f 9c37 3a3e d1d1 373f 5c03 91be
00000070: f3ba b5be 3fa0 713e 830d b43d c758 d13d
00000080: 3dc8 a5be 4d1a 4ebf aa02 003f 7ac4 b9be
00000090: a223 cc3e e6a3 883f 464b 0fbf b8e2 5f3e
000000a0: dc9b 273f 868e 95be f0c8 80be f03d 79be
000000b0: 76e7 993e 0876 ee3d bde4 80be 6271 223e
000000c0: 3dd4 85be ab57 d13c de0e 5abe 3f66 4fbe
000000d0: 37e3 d73e a3e8 86be e807 25bf b9e3 273f
000000e0: f26a 60bd 01bc 983d 5568 873d 1cbd 17bf
000000f0: 713c c4bb 821e 553f f8bf 6c3f 0672 113e
00000100: 5fde 1ebf e692 f63d 1c4f 75bf 9598 643c
00000110: 3ea4 80be a88c b0bd 30a8 b53e 864d eabe
00000120: c325 6d3e f2b8 5ebf 583c b6be 7bfd 1bbf
00000130: 0d75 0a3f 7375 c8be 9636 31be 5766 94be
00000140: 50e1 423e 940c 243f efc6 4cbe 4039 723d
00000150: c34e eabe 130f 9a3d 8f90 0dbe 3309 543f
00000160: 7501 fc3e d426 1b3e 0ae2 88be e185 543c
00000170: 8854 de3e e8d2 2d3f c591 6dbe 161d 5bbe
00000180: 735c c9bd f5bc d33e ac36 d4be ed54 32bf
00000190: 8abb e63d 9c5b 56bd 5617 02bf 3238 07be
000001a0: 5995 ce3d 76eb 153f 16e0 4c3c 9011 ab3f
000001b0: 9aa6 de3e 4fcf 71be 82a4 45be 6938 da3e
000001c0: 02ab 85be 9af9 0d3d b055 87be aef3 dbbe
000001d0: 1c0c 383d 8f39 3f3f 8143 98be eedd 24bf
000001e0: 9dc6 873e bb8a 5c3d e3ca 913e 16e9 a2be
000001f0: db08 223e c7f6 03be cd43 3f3f d649 edbe
00000200: 95f7 183f 08aa ea3d fc12 563f c2e8 e2be
00000210: 4f6e c23d 9fb4 323d c272 49be ca95 d4bd
00000220: e880 ae3e b67a 903e 6a01 62bf eb72 503f
00000230: 06eb f9be debb 17be 5bd8 0f3e 31a8 723e
00000240: caf9 983e afe1 59be 1a4f 2ebd 9ab2 46bd
00000250: 8a2e b13e e2d8 b3bd b38f fe3e b07f fdbd
00000260: a5d5 49be 76fd 14bf 4da8 d63e 6cb7 073e
00000270: 120d afbb 2c65 bbbc 5aeb 49bd c1fc 5e3e
00000280: 634f fcbd 5735 0e3e 6a4a 0b3e 6dd4 95be
00000290: 5188 5b3f d322 63bd ba03 66be 9248 793c
000002a0: 00bd b5be 4edc b9be 2420 48be 026e fa3d
000002b0: 4651 7d3f ab31 083f dd2e a63d fdcb 043f
000002c0: 355e 1d3f 70d1 5b3f ba1f 213e 67bb 21be
000002d0: 192f ce3d 2a46 76bd f02f 003f 6f62 293e
000002e0: a897 0abe 46e1 293e 8d51 06bf 37f5 803e
000002f0: 6094 0abf 27a9 863d 034e ea3e d059 b5bd
00000300: cbfe 1a3e 7fe5 dcbe eaa1 86be d1c8 36bf
00000310: bb03 0e3f 8c8d dd3e 58be 01bf 9c91 6bbe
00000320: 6367 80be fe39 33bd f378 fe3e 1b44 8b3e
00000330: 2722 a6bd 25fd 603d cff2 9a3e c57e fc3e
00000340: 02ca f33e d78b 133f 9462 2b3f 2d26 c4be
00000350: 2d38 25bf 1652 cd3d e3a5 863e 78cc 403e
00000360: 4cee bfbe 87e5 0e3f 23d5 cdbe 0294 abbe
00000370: 78d1 02bc 9cc5 acbe 77d1 6c3d e69d 193f
00000380: 6800 6e3e 1717 87bd 1384 933e 9383 30bc
00000390: 15fe 9d3e 45e2 5c3e 9ba8 8cbe 4331 bd3e
000003a0: 334d 45be 295e b3be 1b30 9e3b 3ab3 24be
000003b0: 998d 85be 0c0e bfbd 92d6 bc3d ebcd 893d
000003c0: 7e91 bbbe 08b3 92be 9d78 d43e 51fb e1be
000003d0: 57e2 e3be c0ae 5dbd f603 003f 64c4 a9be
000003e0: a5fa 963d 5a9d 2bbe 79ec 4abe 77b9 0b3e
000003f0: cbc0 18be 0a3e 363f 8bb6 9bbe ee49 67be

network_body._body_endoder.seq_layers.0.bias f4 [128]
0.0 0.0 0.0 0.0 0.0 0.0 0.0 0.0
0.0 0.0 0.0 0.0 0.0 0.0 0.0 0.0
0.0 0.0 0.0 0.0 0.0 0.0 0.0 0.0
0.0 0.0 0.0 0.0 0.0 0.0 0.0 0.0
0.0 0.0 0.0 0.0 0.0 0.0 0.0 0.0
0.0 0.0 0.0 0.0 0.0 0.0 0.0 0.0
0.0 0.0 0.0 0.0 0.0 0.0 0.0 0.0
0.0 0.0 0.0 0.0 0.0 0.0 0.0 0.0
0.0 0.0 0.0 0.0 0.0 0.0 0.0 0.0
0.0 0.0 0.0 0.0 0.0 0.0 0.0 0.0
0.0 0.0 0.0 0.0 0.0 0.0 0.0 0.0
0.0 0.0 0.0 0.0 0.0 0.0 0.0 0.0
0.0 0.0 0.0 0.0 0.0 0.0 0.0 0.0
0.0 0.0 0.0 0.0 0.0 0.0 0.0 0.0
0.0 0.0 0.0 0.0 0.0 0.0 0.0 0.0
0.0 0.0 0.0 0.0 0.0 0.0 0.0 0.0
00000000: 0000 0000 0000 0000 0000 0000 0000 0000
00000010: 0000 0000 0000 0000 0000 0000 0000 0000
00000020: 0000 0000 0000 0000 0000 0000 0000 0000
00000030: 0000 0000 0000 0000 0000 0000 0000 0000
00000040: 0000 0000 0000 0000 0000 0000 0000 0000
00000050: 0000 0000 0000 0000 0000 0000 0000 0000
00000060: 0000 0000 0000 0000 0000 0000 0000 0000
00000070: 0000 0000 0000 0000 0000 0000 0000 0000
00000080: 0000 0000 0000 0000 0000 0000 0000 0000
00000090: 0000 0000 0000 0000 0000 0000 0000 0000
000000a0: 0000 0000 0000 0000 0000 0000 0000 0000
000000b0: 0000 0000 0000 0000 0000 0000 0000 0000
000000c0: 0000 0000 0000 0000 0000 0000 0000 0000
000000d0: 0000 0000 0000 0000 0000 0000 0000 0000
000000e0: 0000 0000 0000 0000 0000 0000 0000 0000
000000f0: 0000 0000 0000 0000 0000 0000 0000 0000
00000100: 0000 0000 0000 0000 0000 0000 0000 0000
00000110: 0000 0000 0000 0000 0000 0000 0000 0000
00000120: 0000 0000 0000 0000 0000 0000 0000 0000
00000130: 0000 0000 0000 0000 0000 0000 0000 0000
00000140: 0000 0000 0000 0000 0000 0000 0000 0000
00000150: 0000 0000 0000 0000 0000 0000 0000 0000
00000160: 0000 0000 0000 0000 0000 0000 0000 0000
00000170: 0000 0000 0000 0000 0000 0000 0000 0000
00000180: 0000 0000 0000 0000 0000 0000 0000 0000
00000190: 0000 0000 0000 0000 0000 0000 0000 0000
000001a0: 0000 0000 0000 0000 0000 0000 0000 0000
000001b0: 0000 0000 0000 0000 0000 0000 0000 0000
000001c0: 0000 0000 0000 0000 0000 0000 0000 0000
000001d0: 0000 0000 0000 0000 0000 0000 0000 0000
000001e0: 0000 0000 0000 0000 0000 0000 0000 0000
000001f0: 0000 0000 0000 0000 0000 0000 0000 0000

network_body._body_endoder.seq_layers.2.weight f4 [128, 128]
-0.09497769 -0.10513123 0.12417312 0.20458615 0.21211606 -0.0571579 0.07006382 0.024587132
-0.011729544 0.002452251 -0.05786309 -0.04327588 0.051427025 -0.10179637 0.1061639 0.040561877
-0.13736346 0.22766665 0.12147855 0.0491499 -0.08392312 0.013938264 0.0013252328 0.0019375278
0.06579986 0.0626847 0.08912144 0.06262224 0.0119409 -0.08655409 0.16385084 0.16569637
-0.0358602 -0.055170935 0.031393945 -0.0034124532 -0.04276254 0.067166835 0.1886801 0.3125791
0.006574639 0.03850878 0.07296116 -0.002666664 0.065410666 0.080662526 0.012040859 0.02639596
0.093119636 0.027873002 -0.0033088762 0.030096788 0.110660024 0.03205826 -0.10047647 0.13469203
0.09659779 0.22714582 0.011797023 0.07102333 0.01347339 0.03851164 0.0405809 -0.02636057
-0.06101077 -0.0043071387 -0.22739798 -0.0072586387 0.16805886 -0.04034039 -0.13217376 0.03887111
-0.05811556 0.026940757 -0.060367983 -0.01541194 -0.030295229 0.06518462 0.13114452 -0.09010378
0.006874594 0.13227208 -0.13401395 0.014945066 -0.10975152 -0.010682965 0.08175462 -0.119380444
0.05864178 0.073342495 -0.09621619 -0.11014261 0.09334191 -0.0003447724 -0.075045794 0.12717639
0.1903157 0.02158983 -0.02907002 0.072594486 -0.094369784 -0.06923428 -0.1095831 0.17922795
0.053006526 -0.14981946 -0.10885943 0.04838621 -0.13566583 0.0786214 -0.044012956 -0.122679114
-0.10629709 0.11068017 -0.0024906367 -0.06697255 -0.055091657 -0.17053609 -0.054854464 -0.048142552
-0.05628079 0.061741527 -0.19913399 -0.01807929 -0.021928426 0.2054038 -0.024173114 -0.08873125
-0.18023951 -0.12861182 -0.079445176 0.041216623 0.037601072 0.0030871914 0.018424964 -0.07218614
0.1456503 0.09816043 -0.020275857 -0.05419829 0.115545236 0.17272 -0.13726744 -0.07736123
-0.1426446 -0.021818494 0.106631145 -0.04744774 0.09296048 0.06751375 -0.062086694 -0.06049561
0.0401098 0.10273502 -0.065062866 0.0069607147 0.039337717 0.031659063 0.058970243 -0.0189633
0.0033783836 -0.04992037 -0.17030473 -0.13964698 -0.13490145 -0.052026007 -0.04408064 0.045883093
0.042069368 0.022651471 -0.16508187 0.0143087525 0.0104037 0.0900527 -0.017911747 -0.07965296
-0.04667327 0.057208758 -0.07877276 0.087854125 0.018830713 -0.044543825 -0.030516768 0.09160654
0.11917652 0.12227627 0.06269603 -0.1113518 -0.0054923 0.12166617 -0.12805969 -0.038952637
0.104834944 -0.011918811 0.024198892 0.0038420819 0.13380525 -0.01607221 -0.18688118 0.029394958
-0.118228264 0.1517698 0.05181171 0.07964538 0.09926097 -0.04901031 0.08312554 0.1933726
0.08902483 -0.058846276 -0.020235036 -0.053147987 -0.06977042 0.011233771 -0.24815889 0.12089662
-0.098221526 -0.24071622 -0.031934425 0.1684211 0.06948464 -0.004043346 0.1195265 -0.029148031
-0.0779125 -0.021049194 -0.07814865 0.006853701 -0.052821152 0.06758619 -0.09886865 0.08274201
0.0022351737 0.013352362 -0.122383885 0.009372846 -0.06239393 0.016503166 -0.072657965 -0.08217794
-0.021006308 0.021486754 0.006925518 0.14360014 -0.036851566 0.18453272 0.09801643 -0.030585572
0.059412166 -0.044450954 0.014167223 0.009374331 0.15762194 0.14334007 0.015265043 -0.059753362
00000000: aa83 c2bd 0b4f d7bd 7a4e fe3d 087f 513e
00000010: f434 593e 671e 6abd 9f7d 8f3d f46a c93c
00000020: 462d 40bc f2b5 203b d901 6dbd 0d42 31bd
00000030: 25a5 523d 9e7a d0bd 756c d93d 3624 263d
00000040: 02a9 0cbe 7221 693e bfc9 f83d 6851 493d
00000050: e2df abbd 515d 643c 6fb3 ad3a a5f4 fd3a
00000060: 14c2 863d d660 803d 4d85 b63d 1740 803d
00000070: c4a3 433c 4543 b1bd 84c8 273e 4fac 293e
00000080: 25e2 12bd ebfa 61bd f096 003d 77a3 5fbb
00000090: c627 2fbd c48e 893d 5b35 413e 5e0a a03e
000000a0: 1270 d73b 62bb 1d3d a96c 953d 33c3 2ebb
000000b0: 07f6 853d 6532 a53d 0647 453c 573c d83c
000000c0: 82b5 be3d ec55 e43c bbd9 58bb 8a8d f63c
000000d0: b9a1 e23d 864f 033d 9cc6 cdbd b5ec 093e
000000e0: 10d5 c53d ea98 683e 4d48 413c ae74 913d
000000f0: 7ebf 5c3c 62be 1d3d 2838 263d 1ff2 d7bc
00000100: 6ee6 79bd e622 8dbb 04db 68be e0d9 edbb
00000110: 9f17 2c3e f73b 25bd 8f58 07be 5037 1f3d
00000120: 950a 6ebd ddb2 dc3c 6b44 77bd 5d82 7cbc
00000130: b32d f8bc 847f 853d c04a 063e 5588 b8bd
00000140: 4644 e13b 5572 073e f43a 09be 26dc 743c
00000150: 68c5 e0bd 9a07 2fbc f76e a73d bc7d f4bd
00000160: 5d32 703d 9734 963d fe0c c5bd 7392 e1bd
00000170: 0b2a bf3d 91c2 b4b9 9cb1 99bd 873a 023e
00000180: 1ee2 423e 28dd b03c 4024 eebc 6bac 943d
00000190: f244 c1bd b4ca 8dbd 1b6d e0bd 8887 373e
000001a0: 5f1d 593d 466a 19be b1f1 debd 9e30 463d
000001b0: fceb 0abe 4204 a13d ee46 34bd 303f fbbd
000001c0: 4ab2 d9bd 49ac e23d f339 23bb e728 89bd
000001d0: caa7 61bd 03a1 2ebe 13af 60bd 2031 45bd
000001e0: b086 66bd afe4 7c3d c8e9 4bbe 051b 94bc
000001f0: 3ea3 b3bc 6055 523e b206 c6bc bbb8 b5bd
00000200: b590 38be d1b2 03be 27b4 a2bd c3d2 283d
00000210: 9503 1a3d 7a52 4a3b f3ef 963c 54d6 93bd
00000220: 5a25 153e 5608 c93d 8e19 a6bc 07ff 5dbd
00000230: fba2 ec3d 83dd 303e d68f 0cbe 916f 9ebd
00000240: 6d11 12be b3bc b2bc 6e61 da3d 9058 42bd
00000250: 1062 be3d a644 8a3d 9e4e 7ebd 3fca 77bd
00000260: 2c4a 243d bd66 d23d ae3f 85bd b516 e43b
00000270: 9620 213d efac 013d c88a 713d ec58 9bbc
00000280: df67 5d3b 4d79 4cbd 5d64 2ebe 9eff 0ebe
00000290: 9b23 0abe 3919 55bd e78d 34bd e9ef 3b3d
000002a0: ee50 2c3d 948f b93c 390b 29be 426f 6a3c
000002b0: 4874 2a3c 8d6d b83d a8bb 92bc 1721 a3bd
000002c0: 792c 3fbd bb53 6a3d 9d53 a1bd ddec b33d
000002d0: de42 9a3c 9673 36bd 4dfe f9bc 369c bb3d
000002e0: d212 f43d fb6b fa3d c766 803d 6a0c e4bd
000002f0: c0f8 b3bb 1d2c f93d 1422 03be cd8c 1fbd
00000300: b4b3 d63d 1e47 43bc c13c c63c 70cb 7b3b
00000310: 3e04 093e dea9 83bc c85d 3fbe b2cd f03c
00000320: a921 f2bd 8b69 1b3e 8438 543d 1e1d a33d
00000330: 5649 cb3d 09bf 48bd b93d aa3d 7803 463e
00000340: a652 b63d cb08 71bd f2c3 a5bc b4b1 59bd
00000350: cbe3 8ebd da0d 383c 5d1d 7ebe a698 f73d
00000360: 5e28 c9bd 507e 76be accd 02bd 9576 2c3e
00000370: f74d 8e3d 0b7e 84bb 4fca f43d dac7 eebc
00000380: 9790 9fbd 5c6f acbc 660c a0bd 0395 e03b
00000390: fe5a 58bd a16a 8a3d a67b cabd a574 a93d
000003a0: fe7b 123b dec3 5a3c 67a4 fabd 9190 193c
000003b0: c790 7fbd a631 873c b3cd 94bd e84c a8bd
000003c0: 6c15 acbc fd04 b03c 75ef e23b ea0b 133e
000003d0: abf1 16bd 25f6 3c3e d7bc c83d 988e fabc
000003e0: 2c5a 733d 3412 36bd a41d 683c cb96 193c
000003f0: a567 213e bdc7 123e 3b1a 7a3c f1bf 74bd

network_body._body_endoder.seq_layers.2.bias f4 [128]
0.0 0.0 0.0 0.0 0.0 0.0 0.0 0.0
0.0 0.0 0.0 0.0 0.0 0.0 0.0 0.0
0.0 0.0 0.0 0.0 0.0 0.0 0.0 0.0
0.0 0.0 0.0 0.0 0.0 0.0 0.0 0.0
0.0 0.0 0.0 0.0 0.0 0.0 0.0 0.0
0.0 0.0 0.0 0.0 0.0 0.0 0.0 0.0
0.0 0.0 0.0 0.0 0.0 0.0 0.0 0.0
0.0 0.0 0.0 0.0 0.0 0.0 0.0 0.0
0.0 0.0 0.0 0.0 0.0 0.0 0.0 0.0
0.0 0.0 0.0 0.0 0.0 0.0 0.0 0.0
0.0 0.0 0.0 0.0 0.0 0.0 0.0 0.0
0.0 0.0 0.0 0.0 0.0 0.0 0.0 0.0
0.0 0.0 0.0 0.0 0.0 0.0 0.0 0.0
0.0 0.0 0.0 0.0 0.0 0.0 0.0 0.0
0.0 0.0 0.0 0.0 0.0 0.0 0.0 0.0
0.0 0.0 0.0 0.0 0.0 0.0 0.0 0.0
00000000: 0000 0000 0000 0000 0000 0000 0000 0000
00000010: 0000 0000 0000 0000 0000 0000 0000 0000
00000020: 0000 0000 0000 0000 0000 0000 0000 0000
00000030: 0000 0000 0000 0000 0000 0000 0000 0000
00000040: 0000 0000 0000 0000 0000 0000 0000 0000
00000050: 0000 0000 0000 0000 0000 0000 0000 0000
00000060: 0000 0000 0000 0000 0000 0000 0000 0000
00000070: 0000 0000 0000 0000 0000 0000 0000 0000
00000080: 0000 0000 0000 0000 0000 0000 0000 0000
00000090: 0000 0000 0000 0000 0000 0000 0000 0000
000000a0: 0000 0000 0000 0000 0000 0000 0000 0000
000000b0: 0000 0000 0000 0000 0000 0000 0000 0000
000000c0: 0000 0000 0000 0000 0000 0000 0000 0000
000000d0: 0000 0000 0000 0000 0000 0000 0000 0000
000000e0: 0000 0000 0000 0000 0000 0000 0000 0000
000000f0: 0000 0000 0000 0000 0000 0000 0000 0000
00000100: 0000 0000 0000 0000 0000 0000 0000 0000
00000110: 0000 0000 0000 0000 0000 0000 0000 0000
00000120: 0000 0000 0000 0000 0000 0000 0000 0000
00000130: 0000 0000 0000 0000 0000 0000 0000 0000
00000140: 0000 0000 0000 0000 0000 0000 0000 0000
00000150: 0000 0000 0000 0000 0000 0000 0000 0000
00000160: 0000 0000 0000 0000 0000 0000 0000 0000
00000170: 0000 0000 0000 0000 0000 0000 0000 0000
00000180: 0000 0000 0000 0000 0000 0000 0000 0000
00000190: 0000 0000 0000 0000 0000 0000 0000 0000
000001a0: 0000 0000 0000 0000 0000 0000 0000 0000
000001b0: 0000 0000 0000 0000 0000 0000 0000 0000
000001c0: 0000 0000 0000 0000 0000 0000 0000 0000
000001d0: 0000 0000 0000 0000 0000 0000 0000 0000
000001e0: 0000 0000 0000 0000 0000 0000 0000 0000
000001f0: 0000 0000 0000 0000 0000 0000 0000 0000

value_heads.value_heads.extrinsic.weight f4 [1, 128]
0.14819841 0.19851215 0.12705094 0.031060478 0.02664035 -0.01015101 0.18747473 -0.08343868
0.110046014 0.13494098 -0.1998156 0.12467386 -0.043905646 0.002291679 -0.04668146 -0.10667114
0.13139309 0.060222372 0.2088445 -0.20101766 0.20681061 -0.1992431 0.05806482 0.008746162
-0.12669127 -0.08632567 -0.0965016 -0.1844185 0.04513868 0.07023655 0.0044559166 -0.01870583
-0.20703678 -0.052447613 -0.16580544 0.15123415 0.18680802 -0.020507721 -0.1405465 0.07030851
-0.21560201 0.1451361 0.03797989 -0.16038269 0.116939254 0.11525169 -0.047877483 0.07379012
0.196797 -0.21340981 0.11961346 -0.1486507 0.052149795 -0.14767703 0.056955796 -0.20106441
0.19483384 -0.080055095 -0.04919276 -0.1964718 -0.20618208 0.060410693 -0.041921556 -0.19623615
0.20963828 0.15660454 0.0002762211 0.08625701 0.096351445 -0.18917324 -0.10672996 0.19927824
0.07798041 0.07744742 0.18508527 -0.15865754 0.09110644 0.18384862 -0.08491514 -0.17890188
0.114566535 0.105389155 -0.18934712 -0.14681397 0.16543226 0.15743482 0.012885854 0.11855377
-0.06364059 -0.08589614 0.14715794 -0.024719527 0.07145216 -0.06559258 0.046170343 -0.10833837
0.11540286 0.16038355 0.15045992 0.1276438 0.16813312 0.14289437 -0.1945845 0.18127798
0.13287072 -0.11707012 0.09065423 0.03946116 -0.19208795 0.17529523 -0.13122404 -0.06398407
-0.06040465 0.038552023 -0.19104864 0.07174036 0.20196728 0.15243675 0.085793726 -0.020531053
-0.20958555 0.1594019 -0.09803343 0.21028534 -0.10182567 0.01664785 0.015102307 -0.12600078
00000000: 53c1 173e c546 4b3e a419 023e 8b72 fe3c
00000010: dd3c da3c 6c50 26bc 60f9 3f3e e6e1 aabd
00000020: ce5f e13d f82d 0a3e 769c 4cbe 0255 ff3d
00000030: 68d6 33bd fe2f 163b 0f35 3fbd 6676 dabd
00000040: e98b 063e bcab 763d 55db 553e 93d7 4dbe
00000050: 29c6 533e 6206 4cbe 60d5 6d3d 104c 0f3c
00000060: 5bbb 01be 83cb b0bd a2a2 c5bd 34d8 3cbe
00000070: 56e3 383d 2ed8 8f3d f002 923b f83c 99bc
00000080: 7301 54be 4fd3 56bd e7c8 29be 20dd 1a3e
00000090: 9a4a 3f3e cfff a7bc 6ceb 0fbe e8fd 8f3d
000000a0: c6c6 5cbe 8f9e 143e cd90 1b3d 5c3b 24be
000000b0: d97d ef3d 1409 ec3d 2e1b 44bd 461f 973d
000000c0: 2785 493e 1a88 5abe e7f7 f43d e437 18be
000000d0: 069b 553d a638 17be 7b4a 693d d4e3 4dbe
000000e0: 8682 473e edf3 a3bd 597e 49bd e72f 49be
000000f0: 6521 53be 3471 773d f0b5 2bbd 21f2 48be
00000100: 6bab 563e f15c 203e c5d1 9039 84a7 b03d
00000110: e853 c53d a1b6 41be 3d95 dabd 980f 4c3e
00000120: 31b4 9f3d c19c 9e3d fe86 3d3e 1f77 22be
00000130: 0396 ba3d d042 3c3e fde7 adbd 0e32 37be
00000140: dca1 ea3d 45d6 d73d 36e4 41be 6756 16be
00000150: 1367 293e 9836 213e 301f 533c 52cc f23d
00000160: ff55 82bd 51ea afbd 92b0 163e 9b80 cabc
00000170: 8355 923d 6755 86bd 1d1d 3d3d 82e0 ddbd
00000180: 5658 ec3d 963b 243e 2a12 1a3e 0eb5 023e
00000190: 172b 2c3e e752 123e 2941 47be efa0 393e
000001a0: 430f 083e 76c2 efbd eda8 b93d 06a2 213d
000001b0: b4b2 44be 9880 333e 985f 06be 150a 83bd
000001c0: de6a 77bd bae8 1d3d 41a2 43be 9cec 923d
000001d0: 83d0 4e3e 6118 1c3e 9fb4 af3d bd30 a8bc
000001e0: 989d 56be 403a 233e c0c5 c8bd 0a55 573e
000001f0: fa89 d0bd 1261 883c ab6f 773c 5906 01be
