results/ppo/My Behavior/My Behavior-31460.onnx (onnx, 75098 bytes, 7 tensors)

network_body._body_endoder.seq_layers.0.weight f4 [128, 6]
0.19478883 0.10812006 0.661969 -0.8756376 -0.86371833 0.21185301 -0.28261608 -0.34384215
-0.38059953 0.42367452 0.07310597 0.02240332 0.21900854 0.39487153 -0.1874316 0.9648884
-0.382828 -0.03982746 -0.74471855 0.4787537 0.012638167 0.019356914 0.0026785221 0.8075144
0.5352574 -0.56586397 -0.56399167 0.38340014 0.3210707 0.32376564 -0.5970806 -0.51173085
0.48123977 0.54341114 0.23019296 -0.12922774 -0.091673516 -0.13029698 0.3653721 0.37370303
0.26773635 0.5794075 0.15132557 -0.36064574 0.13958423 0.47251925 0.06735349 0.32256168
-0.022434456 1.2537618 -0.5927843 0.41369563 -0.45221496 -0.5664579 0.59917617 -0.4264697
-0.4714072 0.47075355 0.03668063 -0.34087324 -0.0066636903 -1.2324047 -0.34923953 0.68480605
0.3128496 -1.1387019 -0.046419542 -0.52409583 0.07304615 0.3452942 -0.038649917 0.30790168
-0.65698355 -0.53946656 -0.2266965 -0.46854627 0.47861424 0.2745229 -0.71296614 0.633256
0.6246779 -0.060124677 0.24238636 -0.23503183 -0.29090396 -0.4478093 -0.083193004 -0.23385017
-0.06736561 0.27175725 0.32710394 -0.44450405 -0.33458164 0.62036866 -0.5572899 0.29201695
-0.30910543 0.09900603 -0.2382045 -0.24533889 -0.45472187 -0.01501187 0.23930946 1.0382613
0.42041585 0.5038776 -0.34413102 -0.21232288 0.24476044 0.53345543 -0.42146972 0.06899816
0.087207966 -0.11082862 0.69750476 -0.12486592 -0.202179 -0.070554644 -0.44934422 -0.45010635
-0.33125114 -0.51485467 0.11435398 0.55387616 0.44883528 -0.026078548 -0.1995489 0.34164983
-0.60699916 0.14632507 -0.011154992 -0.06357189 -0.31567135 0.22172996 0.43478566 0.5052522
0.39897892 -0.32368147 0.6583634 -0.2484029 0.30558854 0.92868114 -0.11826013 -0.26407275
-0.012278515 -0.2440572 -0.5788937 0.4600901 -0.28331164 0.39407924 -0.21482734 -0.3687862
0.23546387 0.101655565 0.21681474 -0.088658385 0.080840506 0.2113124 0.047144294 -0.007486717
-0.13440254 0.5318638 0.122367546 0.6074014 -0.10884631 -0.079524264 0.12723804 0.2177982
0.06620449 0.17115606 -0.07053905 -0.4705478 0.18826428 -0.08381732 -0.17628673 0.48219258
-0.3475635 -0.16500938 -0.19691005 -0.05026476 -0.08116601 -0.2312845 0.03471883 0.12164717
-0.43222594 -0.5256285 0.73532104 -0.32672557 0.6729597 0.1844246 -0.5956183 -0.2294285
0.13917835 0.16090217 -0.089626454 0.3097954 0.213113 -0.72649974 -0.0764242 0.51835495
-0.07275293 -0.4028716 0.38028088 0.19767965 -0.82686317 -0.5510049 0.19012727 -0.36139053
0.16147725 0.14472204 -0.41600373 -0.13574381 -0.7198073 -0.40263972 -0.0020554229 -0.15526769
0.37976944 0.16835062 0.75171393 -0.41872653 0.024565417 -0.1906656 -0.38223752 -0.6232787
-0.0272862 0.16293922 -0.44838247 -1.1669203 0.5725512 -0.1365222 0.44192863 -0.17580079
-0.9332929 0.06633422 -0.72513354 -0.2901116 0.081058785 -0.26829174 0.016370637 -0.21816273
0.076739 0.14490476 0.1886973 -0.48097843 -0.20888458 0.04484203 0.10412268 0.10692987
-0.2874061 0.3869976 -0.15417852 -0.2630751 0.29084668 0.19358774 0.32342288 0.577979
00000000: b976 473e 0d6e dd3d cd76 293f c929 60bf
00000010: a51c 5dbf ffef 583e 0eb3 90be 140c b0be
00000020: f1dd c2be deeb d83e 95b8 953d 2b87 b73c
00000030: c643 603e 9a2c ca3e 12ee 3fbe ed02 773f
00000040: 0802 c4be 1e22 23bd e0a5 3ebf 341f f53e
00000050: 5010 4f3c 6492 9e3c 258a 2f3b 44b9 4e3f
00000060: a106 093f 76dc 10bf c261 10bf 064d c43e
00000070: 6163 a43e 9cc4 a53e 46da 18bf cb00 03bf
00000080: 0f65 f63e fe1c 0b3f b4b7 6b3e 4754 04be
00000090: 53bf bbbd 926c 05be 0d12 bb3e 0156 bf3e
000000a0: bd14 893e 0d54 143f 17f5 1a3e 8fa6 b8be
000000b0: 2bef 0e3e 0bee f13e a0f0 893d ce26 a53e
000000c0: 77c8 b7bc 447b a03f b6c0 17bf eacf d33e
000000d0: b888 e7be 6303 11bf 9c63 193f 3d5a dabe
000000e0: 495c f1be 9c06 f13e 6e3e 163d f086 aebe
000000f0: 165b dabb 70bf 9dbf 86cf b2be 734f 2f3f
00000100: d32d a03e fcc0 91bf 6b22 3ebd 252b 06bf
00000110: 3899 953d 67ca b03e 604f 1ebd 4aa5 9d3e
00000120: 1330 28bf 7b1a 0abf 2123 68be 4ce5 efbe
00000130: ed0c f53e 448e 8c3e f384 36bf 111d 223f
00000140: e4ea 1f3f 4b45 76bd 2134 783e 2fac 70be
00000150: 5df1 94be 4347 e5be 1861 aabd 6b76 6fbe
00000160: fbf6 89bd c423 8b3e 2b7a a73e 0996 e3be
00000170: 494e abbe 7bd0 1e3f 8daa 0ebf 3f83 953e
00000180: 1143 9ebe acc3 ca3d e1eb 73be 1e3a 7bbe
00000190: 4ed1 e8be 59f4 75bc 8a0d 753e bfe5 843f
000001a0: bf40 d73e 1ffe 003f f131 b0be 2b6b 59be
000001b0: 7ba2 7a3e 8990 083f e1ca d7be e84e 8d3d
000001c0: 179a b23d 1efa e2bd ac8f 323f b4b9 ffbd
000001d0: 0308 4fbe f47e 90bd 7210 e6be 5774 e6be
000001e0: c099 a9be 84cd 03bf 6b32 ea3d d4ca 0d3f
000001f0: bdcd e53e aea2 d5bc 8c56 4cbe baec ae3e
00000200: 4c64 1bbf 3dd6 153e 6dc3 36bc fb31 82bd
00000210: ad9f a1be 2e0d 633e 3a9c de3e 3558 013f
00000220: f746 cc3e 94b9 a5be 818a 283f 545d 7ebe
00000230: 1a76 9c3e 0cbe 6d3f 5e32 f2bd 8b34 87be
00000240: d32b 49bc 21ea 79be 6132 14bf ee90 eb3e
00000250: 390e 91be c1c4 c93e b3fb 5bbe 8bd1 bcbe
00000260: 711d 713e cb30 d03d af04 5e3e 8792 b5bd
00000270: b58f a53d 4762 583e 601a 413d 2253 f5bb
00000280: d2a0 09be 3a28 083f d69b fa3d a87e 1b3f
00000290: d0ea debd 9edd a2bd b04a 023e 7e06 5f3e
000002a0: 3896 873d 8943 2f3e c776 90bd a4eb f0be
000002b0: 5ac8 403e 6aa8 abbd 8284 34be f2e1 f63e
000002c0: d8f3 b1be 38f8 28be caa2 49be 6ce2 4dbd
000002d0: 5d3a a6bd d8d5 6cbe 5535 0e3d 2722 f93d
000002e0: b84c ddbe 978f 06bf 003e 3c3f 9348 a7be
000002f0: 1647 2c3f cdd9 3c3e 717a 18bf 4eef 6abe
00000300: c584 0e3e 8ac3 243e 138e b7bd 819d 9e3e
00000310: 4b3a 5a3e e3fb 39bf 4a84 9cbd e9b2 043f
00000320: 7dff 94bd 3045 cebe 2db4 c23e 896c 4a3e
00000330: 4ead 53bf a80e 0dbf b9b0 423e 2e08 b9be
00000340: 4b5a 253e 0432 143e 71fe d4be 6d00 0bbe
00000350: 4b45 38bf cb26 cebe 46b4 06bb 7efe 1ebe
00000360: 2471 c23e 1b64 2c3e 5370 403f 5363 d6be
00000370: 6a3d c93c d83d 43be a3b4 c3be 318f 1fbf
00000380: 4f87 dfbc 8ad9 263e 6392 e5be a55d 95bf
00000390: b792 123f 7acc 0bbe 7844 e23e 1f05 34be
000003a0: 49ec 6ebf 3cda 873d 5aa2 39bf 8289 94be
000003b0: 2602 a63d 895d 89be b71b 863c 0d66 5fbe
000003c0: 5629 9d3d ea61 143e dd39 413e ce42 f6be
000003d0: d7e5 55be 47ac 373d 463e d53d 0cfe da3d
000003e0: e426 93be 8d24 c63e f9e0 1dbe c8b1 86be
000003f0: dbe9 943e dd3b 463e af97 a53e 6ff6 133f

network_body._body_endoder.seq_layers.0.bias f4 [128]
0.005818799 0.0 0.0 0.0026283297 0.0 0.00037927722 -0.004195439 0.0
0.0056833467 0.0 0.0 0.0 -0.0052463124 0.0053129112 0.0 0.0
0.001415391 0.0053350325 0.0 0.0 -0.004971605 0.0 0.00410212 0.0
0.0 -0.0035830443 -0.004690803 -0.0029360328 -7.431137e-16 0.005139989 2.6872705e-28 0.0
0.0 0.0052229124 0.0055379183 0.0 0.0055762283 0.0 0.0 0.005095949
0.0052678636 0.0 -0.0035594525 -0.0052610612 -0.0051514846 0.0 -0.00016365247 0.005529725
0.0 0.0 -0.0016789043 0.0 0.0018224539 -0.004873781 0.000818259 0.0
0.0 -0.0051077283 0.0 -0.0051018647 -0.0047303746 0.0 0.0041413084 0.0026668767
0.0 0.0 0.0 -0.0047513093 0.0 0.0045138816 0.005186532 0.0
0.0 0.0019624543 0.003559023 0.0 0.0054815398 0.0 -8.831072e-27 -0.0056501394
0.0057784 0.0 0.0 0.005719301 0.0 0.0 0.0023926257 0.0
0.0 0.0 0.0 0.0 0.0 0.0 0.0 0.0052118204
0.0 -0.0039181756 0.0051467796 -0.004594354 0.0 0.0027514934 -1.1538711e-08 -0.0046337983
0.0 0.0 0.001569965 0.0023839285 -0.004808877 0.005066083 0.0055719013 0.0
0.005467282 -0.0048823236 0.004668877 -2.8223868e-10 0.0 0.0 0.0 0.0050360793
0.0 0.0 0.0 0.0020542531 0.0 -0.0023549453 -0.0046858825 0.0055855303
00000000: a0ab be3b 0000 0000 0000 0000 0e40 2c3b
00000010: 0000 0000 bad9 c639 e579 89bb 0000 0000
00000020: 5e3b ba3b 0000 0000 0000 0000 0000 0000
00000030: 42e9 abbb ee17 ae3b 0000 0000 0000 0000
00000040: a484 b93a 7fd1 ae3b 0000 0000 0000 0000
00000050: d8e8 a2bb 0000 0000 146b 863b 0000 0000
00000060: 0000 0000 82d1 6abb 4fb5 99bb 756a 40bb
00000070: 1d30 56a6 5a6d a83b 7553 aa11 0000 0000
00000080: 0000 0000 f724 ab3b 6d77 b53b 0000 0000
00000090: cbb8 b63b 0000 0000 0000 0000 ebfb a63b
000000a0: 0b9e ac3b 0000 0000 b445 69bb fb64 acbb
000000b0: c9cd a8bb 0000 0000 209a 2bb9 b232 b53b
000000c0: 0000 0000 0000 0000 ae0e dcba 0000 0000
000000d0: 68df ee3a 3db4 9fbb 6f80 563a 0000 0000
000000e0: 0000 0000 bb5e a7bb 0000 0000 8b2d a7bb
000000f0: 4201 9bbb 0000 0000 d0b3 873b c4c6 2e3b
00000100: 0000 0000 0000 0000 0000 0000 dfb0 9bbb
00000110: 0000 0000 2fe9 933b c9f3 a93b 0000 0000
00000120: 0000 0000 859c 003b 7f3e 693b 0000 0000
00000130: 7d9e b33b 0000 0000 dbea 2e94 ce24 b9bb
00000140: bc58 bd3b 0000 0000 0000 0000 f968 bb3b
00000150: 0000 0000 0000 0000 99cd 1c3b 0000 0000
00000160: 0000 0000 0000 0000 0000 0000 0000 0000
00000170: 0000 0000 0000 0000 0000 0000 ebc7 aa3b
00000180: 0000 0000 0a64 80bb 51a6 a83b 3c8c 96bb
00000190: 0000 0000 6652 343b ca3b 46b2 1ed7 97bb
000001a0: 0000 0000 0000 0000 49c7 cd3a af3b 1c3b
000001b0: c993 9dbb 6201 a63b 7f94 b63b 0000 0000
000001c0: e326 b33b e6fb 9fbb 61fd 983b 9029 9baf
000001d0: 0000 0000 0000 0000 0000 0000 b205 a53b
000001e0: 0000 0000 0000 0000 0000 0000 a6a0 063b
000001f0: 0000 0000 6d55 1abb 088c 99bb d306 b73b

network_body._body_endoder.seq_layers.2.weight f4 [128, 128]
0.0054974947 -0.014166622 0.17386468 -0.060070097 0.0988557 0.018710483 -0.05012575 0.12608817
-0.05999766 0.035263415 -0.04455964 -0.050062668 0.0015859246 0.07381767 -0.13772485 0.07372303
-0.061940618 -0.015559222 0.061775263 -0.098411195 -0.010220777 -0.071572796 -0.026327167 0.1570317
-0.08095574 0.1224355 -0.16290209 -0.092061356 -0.04289201 0.009730939 0.055782843 0.011923555
-0.006327669 0.07173761 -0.035815608 0.12000567 0.00029969183 -0.11656168 0.16884461 0.011474653
-0.014322845 0.15270603 -0.035078026 0.076358736 -0.09324588 0.03399801 0.14310917 0.1032255
0.13135774 -0.07978711 -0.08906104 -0.1771692 0.12059686 0.016604336 0.056073077 0.02118786
0.08296753 -0.0076420233 -0.16003314 -0.16976678 -0.04447895 0.044614926 0.028214771 -0.011317706
0.011325381 -0.027020723 -0.008086132 -0.07375016 -0.04383135 0.015300373 0.096151315 0.10675426
-0.01621828 0.06595289 -0.023922795 -0.047351956 -0.03472045 0.06481363 0.016166935 0.1290752
0.07944127 -0.045754116 -0.051580187 0.044237252 0.045429178 0.12822641 -0.0071437936 0.07027941
0.057487637 -0.025034787 -0.021681828 0.011455715 0.10326535 0.12706421 -0.08217661 -0.013364581
-0.10651546 0.027558323 0.14111325 -0.14737406 -0.01035536 0.05445867 0.11297801 -0.054499853
0.061653204 0.110156804 -0.10122608 0.010190942 -0.02613036 -0.012633394 -0.039464507 0.120735094
-0.045694355 0.023655156 0.04183859 -0.06948512 0.056183714 0.119257875 -0.006289267 -0.006746784
-0.017433258 -0.076397255 0.024836773 -0.03052068 -0.1093548 -0.104292974 0.13027719 -0.046528954
0.095008776 -0.010536717 0.019918533 -0.0564264 -0.0029746778 0.036951993 0.011454547 -0.033820976
-0.12708788 -0.10178691 -0.12380019 -0.035290312 -0.12379163 -0.037369438 0.047430445 -0.07326007
0.035508838 -0.0549091 0.006005102 -0.022390988 -0.036141288 -0.016507646 -0.051697414 -0.078566305
0.02840964 -0.022347683 -0.06805385 0.014780975 -0.14493795 0.027683022 -0.12853853 -0.103186645
0.19579485 0.08494782 0.056885157 -0.113210015 0.018881679 0.007709813 -0.09048119 -0.01894978
-0.027509043 -0.049862612 0.07465359 0.06317411 -0.10491452 -0.16041453 0.010655161 -0.0068474147
-0.032858763 0.081037946 0.026288219 0.0031308031 -0.020095924 -0.0049390895 -0.020777307 -0.11798191
0.0646145 -0.046754677 0.2029978 -0.0012861303 -0.060461987 0.040258188 0.038574733 -0.00585992
-0.100276686 0.038322873 -0.1225961 -0.038753707 -0.07559313 -0.07663465 0.063663416 0.015308379
0.09897739 0.047180925 -0.102670945 -0.002583881 -0.18202035 0.02801463 0.09361606 -0.09656043
-0.20345676 -0.07679972 0.1376147 0.09526439 0.011355108 0.081801966 -0.07938427 -0.10511189
0.001500895 0.10907135 0.03616669 0.03860591 -0.13065712 0.07965271 0.07308889 -0.097802274
0.049627706 -0.20043121 0.044632312 -0.031385474 0.02629931 -0.04523255 -0.020801729 0.014345531
-0.18108124 0.024227202 -0.12459326 0.039661508 -0.16195892 -0.07006549 0.037507083 0.06318625
-0.0582783 -0.0045060003 -0.049289547 0.118530445 0.15207656 0.17977357 0.20822267 -0.25318816
0.13728426 -0.047859088 -0.03669827 0.057721052 -0.09064806 0.1104992 -0.07022577 0.04283377
00000000: 5424 b43b 1f1b 68bc 9509 323e 100c 76bd
00000010: db74 ca3d ba46 993c a950 4dbd 421d 013e
00000020: 1bc0 75bd 5f70 103d 2b84 36bd 830e 4dbd
00000030: cdde cf3a b82d 973d be07 0dbe 1afc 963d
00000040: 72b5 7dbd 1bec 7ebc 0f08 7d3d cf8b c9bd
00000050: 0c75 27bc c294 92bd 12ac d7bc ebcc 203e
00000060: 1fcc a5bd 77bf fa3d cecf 26be aa8a bcbd
00000070: 88af 2fbd 846e 1f3c 8d7c 643d 045b 433c
00000080: 5658 cfbb 2beb 923d 63b3 12bd 88c5 f53d
00000090: f51f 9d39 e4b7 eebd 9ae5 2c3e 2f00 3c3c
000000a0: 5eaa 6abc f85e 1c3e faad 0fbd f861 9c3d
000000b0: b2f7 bebd 7f41 0b3d 368b 123e e467 d33d
000000c0: a582 063e 6d67 a3bd a265 b6bd d86b 35be
000000d0: 7dfb f63d d105 883c e2ac 653d 2a92 ad3c
000000e0: e1ea a93d f069 fabb badf 23be 58d7 2dbe
000000f0: 8f2f 36bd 24be 363d aa22 e73c e66d 39bc
00000100: 178e 393c 905a ddbc b27b 04bc 530a 97bd
00000110: 8088 33bd 6aae 7a3c fbea c43d faa1 da3d
00000120: 33dc 84bc 4f12 873d bdf9 c3bc 20f4 41bd
00000130: 0837 0ebd 02bd 843d 8570 843c 4a2c 043e
00000140: 1bb2 a23d ab68 3bbd bf45 53bd 1f32 353d
00000150: f213 3a3d c94d 033e 7c16 eabb a7ee 8f3d
00000160: 2878 6b3d c115 cdbc 179e b1bc c0b0 3b3c
00000170: c97c d33d 1f1d 023e 364c a8bd 1ef7 5abc
00000180: c724 dabd fec1 e13c fe7f 103e 3ae9 16be
00000190: 87a9 29bc 0e10 5f3d 0461 e73d 3d3b 5fbd
000001a0: 1288 7c3d e499 e13d 9e4f cfbd e9f7 263c
000001b0: 560f d6bc 4cfc 4ebc 89a5 21bd f643 f73d
000001c0: 012a 3bbd 75c8 c13c f15e 2b3d 374e 8ebd
000001d0: e520 663d 793d f43d 3216 cebb 2014 ddbb
000001e0: 31d0 8ebc 2a76 9cbd 7d76 cb3c 8106 fabc
000001f0: 69f5 dfbd 8e97 d5bd 6267 053e 2595 3ebd
00000200: f693 c23d 32a2 2cbc 312c a33c 5e1f 67bd
00000210: d0f2 42bb f95a 173d daab 3b3c dd87 0abd
00000220: 5323 02be a875 d0bd f48a fdbd 938c 10bd
00000230: 7786 fdbd b210 19bd 6d46 423d 6009 96bd
00000240: b771 113d 5de8 60bd 72c6 c43b 4e6d b7bc
00000250: e308 14bd 0b3b 87bc abc0 53bd 5fe7 a0bd
00000260: 55bb e83c 7d12 b7bc d15f 8bbd e72b 723c
00000270: 9d6a 14be 81c7 e23c 9b9f 03be 8553 d3bd
00000280: 727e 483e 1ff9 ad3d 6900 693d a7da e7bd
00000290: c0ad 9a3c 99a2 fc3b 344e b9bd 923c 9bbc
000002a0: a55a e1bc bd3c 4cbd fbe3 983d 6e61 813d
000002b0: 6ddd d6bd b543 24be fc92 2e3c 4760 e0bb
000002c0: e996 06bd 39f7 a53d 645a d73c 292e 4d3b
000002d0: 35a0 a4bc 16d8 a1bb 2c35 aabc 80a0 f1bd
000002e0: 9b54 843d d581 3fbd a8de 4f3e 5f93 a8ba
000002f0: fda6 77bd c5e5 243d 8a00 1e3d 9204 c0bb
00000300: dd5d cdbd 72f8 1c3d aa13 fbbd 35bc 1ebd
00000310: 92d0 9abd a1f2 9cbd f761 823d ffcf 7a3c
00000320: a8b4 ca3d c940 413d 2545 d2bd 5456 29bb
00000330: 8b63 3abe f07e e53c c7b9 bf3d 7ac1 c5bd
00000340: f856 50be 2c49 9dbd deea 0c3e fa19 c33d
00000350: c60a 3a3c ca87 a73d 3894 a2bd e744 d7bd
00000360: aeb9 c43a cd60 df3d 8623 143d 3b21 1e3d
00000370: fbca 05be f620 a33d a1af 953d 8f4c c8bd
00000380: 6c46 4b3d d73d 4dbe 5fd0 363d 0e8e 00bd
00000390: a771 d73c c445 39bd 6368 aabc 8509 6b3c
000003a0: 5c6d 39be 2078 c63c c02a ffbd 1b74 223d
000003b0: 8fd8 25be 7f7e 8fbd 07a1 193d cb67 813d
000003c0: 3ab5 6ebd 12a7 93bb d6e3 49bd 17c0 f23d
000003d0: f5b9 1b3e 9016 383e 5338 553e e1a1 81be
000003e0: 3f94 0c3e e407 44bd ed50 16bd e96c 6c3d
000003f0: b1a5 b9bd 684d e23d 87d2 8fbd 7772 2f3d

network_body._body_endoder.seq_layers.2.bias f4 [128]
0.0044308794 0.0 -0.0039866357 0.0022434564 0.0 0.004554579 0.0 0.0
0.0 0.0 0.0054694493 0.0 0.0 0.0054188003 0.0006521072 0.0
0.005509065 0.005545649 0.0 0.0 0.00569654 0.0 0.00518248 -0.004546516
0.0025197058 0.0 0.0 -0.0050469288 0.0 0.0 0.0 0.0
-0.0040855003 0.0 0.0013108101 0.0 0.0039653964 -0.0010062613 0.0 0.0
-0.0016697518 0.0054958905 0.005253492 0.0 0.0050863246 -0.0051496173 0.0046968516 -0.001761128
-0.005329846 -0.0052489717 0.0056091254 0.0051052584 -0.005338427 0.005279226 -5.800474e-24 0.0
0.0 0.002252933 0.0 0.0 0.00552104 -0.0009275409 0.0039819274 0.0
-0.0050393897 0.0 0.0 0.0 0.0 2.7809242e-15 -0.0034881125 0.0
0.0053896313 0.0 0.005578388 0.0058868737 -0.0015598639 -0.0041323337 0.0055176453 0.0
-0.004854789 -0.0040130727 0.0051112124 -0.00011607912 -0.0026902566 0.0039425106 0.004112151 0.0
0.0 0.0 -7.12958e-05 0.00032143612 -0.004244713 0.0055053686 -0.0051192697 0.0052602915
0.0 0.00447044 -0.00071350567 0.005672954 -0.005124262 -0.005363364 -0.0053407704 0.005864831
-0.001473556 0.0 0.0 -0.0051054396 -0.005341636 0.0 0.0 0.003794846
0.00506758 0.0 0.0 -0.005297004 0.0 0.0 -0.0016936966 -0.004761171
0.0 -0.005405165 0.0 0.0 0.0055183233 0.0023176875 0.0 0.0048103565
00000000: e930 913b 0000 0000 53a2 82bb f406 133b
00000010: 0000 0000 943e 953b 0000 0000 0000 0000
00000020: 0000 0000 0000 0000 1139 b33b 0000 0000
00000030: 0000 0000 3190 b13b 2cf2 2a3a 0000 0000
00000040: 6385 b43b 47b8 b53b 0000 0000 0000 0000
00000050: 0baa ba3b 0000 0000 cbd1 a93b f1fa 94bb
00000060: a621 253b 0000 0000 0000 0000 b560 a5bb
00000070: 0000 0000 0000 0000 0000 0000 0000 0000
00000080: a9df 85bb 0000 0000 7dcf ab3a 0000 0000
00000090: 28f0 813b 87e4 83ba 0000 0000 0000 0000
000000a0: 93db daba df16 b43b 7c25 ac3b 0000 0000
000000b0: 2fab a63b 1fbe a8bb 0ce8 993b a6d5 e6ba
000000c0: fda5 aebb 91ff abbb c1cc b73b 034a a73b
000000d0: f9ed aebb 5cfd ac3b 1d65 e098 0000 0000
000000e0: 0000 0000 f2a5 133b 0000 0000 0000 0000
000000f0: d7e9 b43b 3726 73ba d47a 823b 0000 0000
00000100: 7721 a5bb 0000 0000 0000 0000 0000 0000
00000110: 0000 0000 ff62 4827 d198 64bb 0000 0000
00000120: 819b b03b 0000 0000 e9ca b63b ade6 c03b
00000130: 5974 ccba 8768 87bb 5dcd b43b 0000 0000
00000140: ec14 9fbb 1880 83bb f57b a73b 816f f3b8
00000150: 044f 30bb 2d30 813b 39bf 863b 0000 0000
00000160: 0000 0000 0000 0000 a484 95b8 6d86 a839
00000170: 3c17 8bbb 6166 b43b 8cbf a7bb 865e ac3b
00000180: 0000 0000 c57c 923b 8e0a 3bba 30e4 b93b
00000190: 6de9 a7bb 28bf afbb a101 afbb c52d c03b
000001a0: 5624 c1ba 0000 0000 0000 0000 884b a7bb
000001b0: e408 afbb 0000 0000 0000 0000 f3b2 783b
000001c0: f10d a63b 0000 0000 0000 0000 7d92 adbb
000001d0: 0000 0000 0000 0000 07ff ddba 9903 9cbb
000001e0: 0000 0000 cf1d b1bb 0000 0000 0000 0000
000001f0: 0dd3 b43b 58e4 173b 0000 0000 32a0 9d3b

action_model._continuous_distribution.log_sigma f4 [1, 2]
0.0049599106 0.010370924
00000000: bf86 a23b cfea 293c

action_model._continuous_distribution.mu.weight f4 [2, 128]
-0.020592175 -0.033768706 -0.0029884933 -0.0085051 -0.0071795667 -0.013251149 -0.020929316 0.003032544
-0.013133462 -0.022286128 -0.027721351 -0.013199526 0.007060386 -0.006872426 0.00058775913 0.005023433
-0.024891688 -0.029093616 0.0013587304 -0.002565066 -0.012560882 0.02812464 -0.029810261 0.0167755
-0.0038450866 0.006484227 0.0028996493 0.003600184 0.020953506 -0.0036716491 0.00056540966 -0.011309481
0.02420891 -0.010382631 0.0043946523 -0.0059526856 -0.029849373 0.0016202168 0.019060336 -0.010900511
-0.0025415167 -0.02130038 -0.045309 -0.0118725 -0.027183179 0.009882354 -0.038783353 0.0025024838
0.018255213 0.004484836 -0.019335251 -0.038096808 0.009341845 -0.036743317 -0.0026264775 0.0009356122
0.002706771 -0.008727881 -0.012847044 0.011275345 -0.023671798 -0.0068255314 -0.012175658 0.012997418
0.02597145 0.010399534 0.002575162 -0.016420783 -0.0013250909 0.031501155 0.016242305 0.029767022
-0.01881366 -0.015648443 -0.027197111 -0.007901624 -0.0028719646 0.005909987 -0.032589503 0.019761657
0.0029822944 0.0040658843 -0.054453634 0.0061738896 0.0071797515 -0.016898142 -0.015090351 0.015784567
-0.0008687665 -0.052580964 -0.0066626593 -0.008388782 0.012963917 -0.029220028 0.0148962755 -0.048618685
-0.0094269635 -0.019975029 -0.008968028 -0.01331928 0.011863998 0.009697922 0.011100784 -0.007773626
-0.007368275 0.007389637 -0.03412928 0.0012142198 0.008435449 -0.012018149 0.005857634 -0.026837612
-0.038994957 -0.012625809 0.006921907 0.0068539158 0.013482965 -0.012394694 -0.001628248 0.0013231578
0.013124376 0.02455742 -0.0022019527 -0.010389898 -0.029084958 -0.008285402 0.018082654 -0.02397425
-0.013321743 -0.026218524 -0.002756354 0.028198007 -0.008420515 -0.006405693 0.0009650662 -0.024096724
-0.009046373 0.0217287 0.018008493 0.010202444 -0.03236234 0.0012549656 0.015387805 0.013790329
0.018637732 0.030771466 -0.022977132 0.007312792 0.013938255 -0.01143798 0.0022066499 0.01275618
0.0123982 0.003856125 0.0018704195 -0.00335674 -0.016064653 0.028461099 -0.011283003 -0.022935465
0.029893098 -0.011657909 0.040020496 0.009661956 -0.031738963 0.01331648 0.010563304 0.0066308887
-0.01645705 0.013518102 0.009750773 -0.018089337 -0.0015622424 -0.0045403102 -0.018138086 -0.016138192
-0.017415954 -0.029824777 0.023306554 -0.0007949363 -0.017940985 0.008998228 0.0068593523 -0.0070622745
0.007604323 0.02113049 0.016677406 -0.007633996 0.018147195 -0.018210087 -0.010426477 -0.017542858
0.0006750446 -0.0024536315 0.033198576 -0.019429682 0.013725429 -0.023561323 -0.028848892 -0.035971332
0.0064492878 -0.0067044417 0.041095335 0.008453908 -0.024898266 0.009338228 0.03034609 -0.01944678
-2.1106594e-05 0.008044767 -0.0001717708 0.0066058966 0.023833 -0.016658725 -0.01251313 -0.024360089
-0.0021181188 0.0081699 -0.008656692 -0.013486473 0.01505797 0.02368108 -0.0034657386 0.011357126
-0.045278102 -0.012111535 -0.0222197 0.021324348 -0.003564175 -0.02604868 -0.01753967 0.009473029
-0.054090843 0.0034751073 0.027173499 -0.0084805135 -0.029432902 0.025381142 -0.00036347678 -0.03142431
-0.0027427454 0.0012461115 0.0122911 -0.03374565 -0.011083102 -0.039675947 -0.038918793 -0.001636374
-0.0015818101 -0.033366386 0.012213449 -0.00763189 0.025474085 0.018234683 0.0118577955 -0.008231086
00000000: ecb0 a8bc 0e51 0abd 99da 43bb fa58 0bbc
00000010: 9242 ebbb 591b 59bc f573 abbc a5bd 463b
00000020: bb2d 57bc 6691 b6bc e317 e3bc d342 58bc
00000030: cf5a e73b 1632 e1bb d913 1a3a 9c9b a43b
00000040: a7e9 cbbc bc55 eebc 6d17 b23a ab1a 28bb
00000050: 28cc 4dbc a565 e63c a634 f4bc c66c 893c
00000060: d9fd 7bbb a379 d43b 0b08 3e3b 11f1 6b3b
00000070: b0a6 ab3c 0da0 70bb 0038 143a 674b 39bc
00000080: c451 c63c e91b 2abc 0401 903b bf0e c3bb
00000090: ac86 f4bc 745d d43a 6c24 9c3c 0f98 32bc
000000a0: 938f 26bb 227e aebc ee95 39bd e084 42bc
000000b0: 42af debc 99e9 213c 4bdb 1ebd b600 243b
000000c0: f58b 953c 88f5 923b f664 9ebc 660b 1cbd
000000d0: 8a0e 193c 2980 16bd fb20 2cbb df43 753a
000000e0: 1564 313b 63ff 0ebc 687c 52bc 3abc 383c
000000f0: 5ceb c1bc b5a8 dfbb 697c 47bc 1ff3 543c
00000100: 14c2 d43c cf62 2a3c 0dc4 283b e184 86bc
00000110: acae adba 5b07 013d 950e 853c f8d9 f33c
00000120: 1b1f 9abc 2a31 80bc 7acc debc d075 01bc
00000130: 9237 3cbb 90a8 c13b 927c 05bd 33e3 a13c
00000140: 9972 433b 1c3b 853b c60a 5fbd 574e ca3b
00000150: 1f44 eb3b f96d 8abc 853d 77bc a34e 813c
00000160: efbd 63ba 235f 57bd 7052 dabb 1a71 09bc
00000170: 9c66 543c d75e efbc 820f 743c 6324 47bd
00000180: 8d73 1abc aca2 a3bc a3ee 12bc 1c39 5abc
00000190: 3761 423c 08e4 1e3c 10e0 353c e7b9 febb
000001a0: 9271 f1bb c524 f23b 25cb 0bbd 7526 9f3a
000001b0: d634 0a3c c5e7 44bc 65f1 bf3b 8dda dbbc
000001c0: 2db9 1fbd 7bdc 4ebc 2ad1 e23b d096 e03b
000001d0: a7e7 5c3c 1d13 4bbc f06a d5ba cf6d ad3a
000001e0: 9f07 573c a42c c93c a34e 10bb 643a 2abc
000001f0: 9443 eebc 7fbf 07bc 1322 943c a565 c4bc
00000200: 7143 5abc 3bc8 d6bc f2a3 34bb 82ff e63c
00000210: 33f6 09bc d9e6 d1bb 7ffc 7c3a 7e66 c5bc
00000220: 3d37 14bc 6300 b23c 8c86 933c 2728 273c
00000230: 5f8e 04bd a87d a43a 221d 7c3c d5f0 613c
00000240: 28ae 983c 7114 fc3c 8a3a bcbc 25a0 ef3b
00000250: 475d 643c 5e66 3bbc 719d 103b 4cff 503c
00000260: d221 4b3c 0bb7 7c3b dd28 f53a c1fc 5bbb
00000270: 059a 83bc 4027 e93c 58dc 38bc 28e3 bbbc
00000280: 5fe2 f43c d000 3fbc 88ec 233d 2e4d 1e3c
00000290: b700 02bd 5e2d 5a3c b511 2d3c ed47 d93b
000002a0: efd0 86bc 077b 5d3c b5c1 1f3c 1730 94bc
000002b0: 28c4 ccba e2c6 94bb 5396 94bc 3e34 84bc
000002c0: e7ab 8ebc 1753 f4bc 63ed be3c 4663 50ba
000002d0: f9f8 92bc 4e6d 133c 6bc4 e03b a76a e7bb
000002e0: af2d f93b d919 ad3c 0e9f 883c 9a26 fabb
000002f0: 6da9 943c 522d 95bc d0d3 2abc 0ab6 8fbc
00000300: 7af5 303a 1bcd 20bb 3bfb 073d ff2a 9fbc
00000310: 9fe0 603c ad03 c1bc 8354 ecbc ad56 13bd
00000320: 8c54 d33b efb0 dbbb 9553 283d 4382 0a3c
00000330: 73f7 cbbc 5eff 183c 5d98 f83c db4e 9fbc
00000340: 110e b1b7 33ce 033c 5f1d 34b9 4776 d83b
00000350: 6c3d c33c e177 88bc df03 4dbc cf8e c7bc
00000360: 23d0 0abb 0bdb 053c ccd4 0dbc 5ef6 5cbc
00000370: b4b5 763c d3fe c13c 7221 63bb 3d13 3a3c
00000380: 8875 39bd 766f 46bc 1706 b6bc 66b0 ae3c
00000390: ef94 69bb 0b64 d5bc 5baf 8fbc c334 1b3c
000003a0: 5c8e 5dbd a0be 633b f59a de3c daf1 0abc
000003b0: 451d f1bc 1dec cf3c 0791 beb9 c7b6 00bd
000003c0: a2bf 33bb 9054 a33a 9c60 493c e138 0abd
000003d0: e695 35bc 3f83 22bd 5069 1fbd 9a7b d6ba
000003e0: bd54 cfba 31ab 08bd eb1a 483c ef14 fabb
000003f0: 07af d03c e760 953c 3347 423c addb 06bc

action_model._continuous_distribution.mu.bias f4 [2]
-0.00509534 0.0017904289
00000000: cff6 a6bb d3ac ea3a
