results/ppo/My Behavior/My Behavior-2240.onnx (onnx, 72102 bytes, 4 tensors)

network_body._body_endoder.seq_layers.0.weight f4 [128, 1]
-1.2966297 0.9661748 0.5650732 1.5805266 0.67529523 0.8535877 1.3986621 0.33359802
0.4729491 -0.814799 0.9444941 -0.17192233 0.084486015 -0.43932837 -1.0870031 0.73148066
-0.38897392 0.8382181 -0.6877765 -0.8186142 -1.59053 0.43197337 0.25444975 0.420551
-1.0100297 -0.08296654 1.1216013 -0.6049421 1.0154201 -0.7478967 0.2492563 -1.5951095
-2.1079903 0.88189 0.17933547 -0.9828349 1.1623248 -1.4648386 1.4670521 -0.0809547
1.0900183 -0.5734437 -1.0199786 -0.13620345 -0.10121997 0.77164525 -0.20007484 0.4867517
0.93366736 0.050875377 -0.8166276 -1.0756718 0.38081685 -0.030225849 -0.39373052 1.4539732
0.16208799 1.3268843 0.26512304 0.22884682 0.2245608 -1.1038631 0.89602757 -0.47103146
0.12187661 -1.962838 0.36394104 -0.94548094 -0.97699946 0.3914337 -1.3076767 0.6319822
-1.7705162 -0.19966134 -2.368076 -0.30092314 2.4313734 1.8954396 0.011648958 2.339655
0.1937311 -2.1345527 -1.4217557 0.48239785 1.0636814 0.4495518 -0.23108463 2.191285
-0.017923651 0.28432128 0.8102725 -0.9906797 0.14643109 -1.5074325 -1.0026996 1.6314172
2.1912313 1.4841537 -1.6133138 -2.42939 0.3768859 0.4590476 0.76169664 0.09615518
-1.0149343 1.9693803 -1.2824343 0.092968464 -0.43443012 -0.026867468 0.323592 1.0571988
1.3499029 -0.94125885 1.3025547 0.33724684 -0.8590864 -1.3882681 1.4317589 1.2102767
1.1697855 0.5494413 -0.54842585 -0.3812902 1.7456414 -0.8763436 -0.47954202 -0.3603443
00000000: f6f7 a5bf 3b57 773f a3a8 103f b24e ca3f
00000010: 26e0 2c3f b984 5a3f 5c07 b33f 5ccd aa3e
00000020: 6226 f23e ab96 50bf 5eca 713f 680c 30be
00000030: 0107 ad3d a6ef e0be eb22 8bbf 5142 3b3f
00000040: 9727 c7be 7695 563f 1f12 30bf b390 51bf
00000050: 7d96 cbbf 9d2b dd3e 3d47 823e 7652 d73e
00000060: a748 81bf 5cea a9bd a290 8f3f 7cdd 1abf
00000070: 49f9 813f 2876 3fbf 0b3d 7f3e 8c2c ccbf
00000080: 50e9 06c0 8bc3 613f b8a3 373e 119b 7bbf
00000090: 0fc7 943f d57f bbbf 5dc8 bb3f 94cb a5bd
000000a0: b885 8b3f 35cd 12bf a98e 82bf eb78 0bbe
000000b0: 6a4c cfbd 8b8a 453f 6be0 4cbe 8537 f93e
000000c0: d304 6f3f b362 503d 820e 51bf 9daf 89bf
000000d0: 6dfa c23e 339c f7bc 0c97 c9be cb1b ba3f
000000e0: 65fa 253e 58d7 a93f 35be 873e d256 6a3e
000000f0: 44f3 653e 634b 8dbf 1062 653f 092b f1be
00000100: 729a f93d 473e fbbf 7b56 ba3e 0a0b 72bf
00000110: a31c 7abf ff69 c83e f361 a7bf 96c9 213f
00000120: 46a0 e2bf 0674 4cbe 8f8e 17c0 9912 9abe
00000130: 9f9b 1b40 c49d f23f 45db 3e3c e8bc 1540
00000140: 7261 463e 839c 08c0 17fc b5bf dafc f63e
00000150: b626 883f a72b e63e 73a1 6cbe 033e 0c40
00000160: 9fd4 92bc 8f92 913e 056e 4f3f 2f9d 7dbf
00000170: 08f2 153e 8cf3 c0bf 7658 80bf 47d2 d03f
00000180: 223d 0c40 c0f8 bd3f 1181 cebf 207b 1bc0
00000190: 30f7 c03e 4908 eb3e 8dfe 423f 02ed c43d
000001a0: 5ee9 81bf a714 fc3f cf26 a4bf 4066 be3d
000001b0: a06d debe 2a19 dcbc daad a53e 4a52 873f
000001c0: 9ec9 ac3f 57f6 70bf 1dba a63f 9eab ac3e
000001d0: 16ed 5bbf c5b2 b1bf e043 b73f 59ea 9a3f
000001e0: 88bb 953f 2fa8 0c3f a365 0cbf 7838 c3be
000001f0: 2d71 df3f 0e58 60bf 8886 f5be 0c7f b8be

network_body._body_endoder.seq_layers.0.bias f4 [128]
0.0 0.0 0.0 0.0 0.0 0.0 0.0 0.0
0.0 0.0 0.0 0.0 0.0 0.0 0.0 0.0
0.0 0.0 0.0 0.0 0.0 0.0 0.0 0.0
0.0 0.0 0.0 0.0 0.0 0.0 0.0 0.0
0.0 0.0 0.0 0.0 0.0 0.0 0.0 0.0
0.0 0.0 0.0 0.0 0.0 0.0 0.0 0.0
0.0 0.0 0.0 0.0 0.0 0.0 0.0 0.0
0.0 0.0 0.0 0.0 0.0 0.0 0.0 0.0
0.0 0.0 0.0 0.0 0.0 0.0 0.0 0.0
0.0 0.0 0.0 0.0 0.0 0.0 0.0 0.0
0.0 0.0 0.0 0.0 0.0 0.0 0.0 0.0
0.0 0.0 0.0 0.0 0.0 0.0 0.0 0.0
0.0 0.0 0.0 0.0 0.0 0.0 0.0 0.0
0.0 0.0 0.0 0.0 0.0 0.0 0.0 0.0
0.0 0.0 0.0 0.0 0.0 0.0 0.0 0.0
0.0 0.0 0.0 0.0 0.0 0.0 0.0 0.0
00000000: 0000 0000 0000 0000 0000 0000 0000 0000
00000010: 0000 0000 0000 0000 0000 0000 0000 0000
00000020: 0000 0000 0000 0000 0000 0000 0000 0000
00000030: 0000 0000 0000 0000 0000 0000 0000 0000
00000040: 0000 0000 0000 0000 0000 0000 0000 0000
00000050: 0000 0000 0000 0000 0000 0000 0000 0000
00000060: 0000 0000 0000 0000 0000 0000 0000 0000
00000070: 0000 0000 0000 0000 0000 0000 0000 0000
00000080: 0000 0000 0000 0000 0000 0000 0000 0000
00000090: 0000 0000 0000 0000 0000 0000 0000 0000
000000a0: 0000 0000 0000 0000 0000 0000 0000 0000
000000b0: 0000 0000 0000 0000 0000 0000 0000 0000
000000c0: 0000 0000 0000 0000 0000 0000 0000 0000
000000d0: 0000 0000 0000 0000 0000 0000 0000 0000
000000e0: 0000 0000 0000 0000 0000 0000 0000 0000
000000f0: 0000 0000 0000 0000 0000 0000 0000 0000
00000100: 0000 0000 0000 0000 0000 0000 0000 0000
00000110: 0000 0000 0000 0000 0000 0000 0000 0000
00000120: 0000 0000 0000 0000 0000 0000 0000 0000
00000130: 0000 0000 0000 0000 0000 0000 0000 0000
00000140: 0000 0000 0000 0000 0000 0000 0000 0000
00000150: 0000 0000 0000 0000 0000 0000 0000 0000
00000160: 0000 0000 0000 0000 0000 0000 0000 0000
00000170: 0000 0000 0000 0000 0000 0000 0000 0000
00000180: 0000 0000 0000 0000 0000 0000 0000 0000
00000190: 0000 0000 0000 0000 0000 0000 0000 0000
000001a0: 0000 0000 0000 0000 0000 0000 0000 0000
000001b0: 0000 0000 0000 0000 0000 0000 0000 0000
000001c0: 0000 0000 0000 0000 0000 0000 0000 0000
000001d0: 0000 0000 0000 0000 0000 0000 0000 0000
000001e0: 0000 0000 0000 0000 0000 0000 0000 0000
000001f0: 0000 0000 0000 0000 0000 0000 0000 0000

network_body._body_endoder.seq_layers.2.weight f4 [128, 128]
0.047238924 -0.043787565 0.05051823 0.09387772 0.024769668 0.031653162 0.055880576 0.107698955
0.1252734 0.11892574 -0.08788977 -0.0068356413 -0.12471141 0.0056797275 -0.017123153 0.0056437105
0.13397305 0.08563816 0.10049075 0.059844658 0.0011923454 0.058193043 0.0387764 0.22620708
0.14195411 -0.0053323116 0.08971964 -0.06825652 -0.0055000978 -0.007509047 -0.04648234 0.05436151
-0.091169216 0.09939818 0.08193639 -0.22011113 0.08202859 -0.08926058 -0.07034762 -0.07100448
-0.051869262 -0.03268723 -0.045165654 0.088723086 0.046908595 -0.070069954 0.072831154 -0.03510744
-0.099071465 -0.02808609 -0.10123641 0.07215716 0.017185215 -0.021764953 0.15368754 -0.029762158
-0.037593685 0.13779062 -0.016193606 0.15574366 -0.036712747 -0.061460488 -0.024378303 0.0886226
0.07120753 0.067126475 -0.00031168447 0.13977103 -0.054500747 -0.025501514 -0.083271034 -0.030197429
-0.11272481 -0.06995526 0.039183486 -0.049652115 -0.05902477 0.038964868 0.06375383 0.038823795
-0.06134529 0.051127207 0.13963105 -0.05978863 0.026754184 0.12671843 0.013593715 -0.11842704
0.028370049 0.07844611 0.119951665 0.041218616 -0.04504802 0.10666497 0.04005604 -0.033013202
0.046797894 -0.021330355 0.14269236 -0.061284874 0.19473256 -0.059924968 0.017275287 0.07767681
0.05599384 -0.16775028 0.0048361435 0.11880685 0.068720095 -0.06997637 -0.0014443374 -0.048729427
0.05019695 -0.004307778 0.13271257 0.039340995 -0.006543973 0.056833487 0.04316095 -0.09232618
-0.08512157 -0.019308647 0.26978564 -0.13268103 -0.07545966 0.06715092 0.09554082 0.096731715
0.05568679 0.16433479 -0.018768886 -0.030501302 0.06439649 0.049860384 -0.14410602 -0.21606864
-0.0061337473 -0.03375565 0.053329337 0.04381686 0.073248096 0.029212043 -0.03368522 0.02036498
-0.081562616 0.16479099 0.15019532 0.09932104 -0.014434821 0.1251192 -0.06362501 0.024617514
-0.051500488 -0.10529069 0.13597889 -0.07375065 0.114711635 -0.07362513 -0.004792073 -0.05574313
-0.04784273 0.17855917 0.08161231 -0.030316148 0.016014637 -0.0056536896 -0.020423817 -0.03497941
-0.013904874 -0.12765971 0.09882576 -0.07880588 0.022972472 -0.18911135 0.116483554 0.0720507
0.11712973 -0.0052586086 -0.08566712 0.0010514626 -0.006168939 0.111716986 0.0022628203 -0.17496175
0.088365786 0.0012480284 0.17169455 0.028435543 0.043664113 0.07069241 -0.017139774 0.017270721
0.005993131 0.060520515 0.18556309 -0.08884991 0.013890503 0.17054728 0.002881961 0.030623501
-0.03773927 -0.013934225 0.05720029 0.021852093 -0.008174996 0.21495034 0.14108987 0.034511007
-0.056593318 0.054239605 -0.10271707 0.07000134 0.045537155 -0.069820784 -0.050678555 -0.0064519355
-0.115449734 -0.04360164 0.07104377 0.065053724 -0.051469494 -0.1641459 -0.0860758 0.021739481
0.022847401 0.049364142 -0.013927504 0.13248204 -0.053198636 0.03249257 0.14702077 0.044618614
-0.003678452 -0.029600456 0.11150845 -0.17527887 -0.046244834 -0.040399775 -0.13654141 0.18285969
0.008202639 0.057208344 0.10020975 -0.122911274 0.047326475 0.056057435 0.061370347 0.009160968
0.17640689 0.060604606 0.1308911 0.025404146 0.12998234 0.038758036 0.08664687 0.0002913433
00000000: 9a7d 413d 975a 33bd 34ec 4e3d f642 c03d
00000010: c2e9 ca3c bfa6 013d 08e3 643d 4591 dc3d
00000020: ac47 003e 578f f33d 8dff b3bd 84fd dfbb
00000030: b268 ffbd 021d ba3b db45 8cbc e0ee b83b
00000040: 3b30 093e 0f63 af3d 18ce cd3d ac1f 753d
00000050: 7948 9c3a d45b 6e3d 01d4 1e3d d4a2 673e
00000060: 6b5c 113e acba aebb eebe b73d 13ca 8bbd
00000070: 2a3a b4bb 740e f6bb 4464 3ebd 2daa 5e3d
00000080: edb6 babd 4691 cb3d 44ce a73d d064 61be
00000090: 9bfe a73d 40ce b6bd 6a12 90bd cc6a 91bd
000000a0: dd74 54bd 0be3 05bd 9fff 38bd 73b4 b53d
000000b0: 3a23 403d d680 8fbd 8028 953d d2cc 0fbd
000000c0: fbe5 cabd cd14 e6bc 0955 cfbd 22c7 933d
000000d0: 02c8 8c3c 6a4c b2bc 4460 1d3e c5cf f3bc
000000e0: d6fb 19bd fc18 0d3e 74a8 84bc 447b 1f3e
000000f0: 1b60 16bd febd 7bbd 02b5 c7bc c47f b53d
00000100: 41d5 913d 9b79 893d 9569 a3b9 2320 0f3e
00000110: 2d3c 5fbd 8de8 d0bc 018a aabd 9960 f7bc
00000120: 44dc e6bd b444 8fbd dd7e 203d 0460 4bbd
00000130: f5c3 71bd a099 1f3d 5e91 823d b305 1f3d
00000140: 3345 7bbd c36a 513d 71fb 0e3e ece4 74bd
00000150: 972b db3c 7ac2 013e 2cb8 5e3c e089 f2bd
00000160: 4e68 e83c 5ba8 a03d 38a9 f53d dad4 283d
00000170: 4684 38bd 2a73 da3d cd11 243d da38 07bd
00000180: 26af 3f3d ffbc aebc f21d 123e d905 7bbd
00000190: f967 473e e273 75bd e784 8d3c 0515 9f3d
000001a0: cc59 653d bbc6 2bbe 8378 9e3b 0151 f33d
000001b0: 1fbd 8c3d c54f 8fbd ec4f bdba 8298 47bd
000001c0: 519b 4d3d 4328 8dbb cee5 073e 0624 213d
000001d0: d36e d6bb 3bca 683d 89c9 303d 8215 bdbd
000001e0: 3854 aebd 2b2d 9ebc 5821 8a3e 89dd 07be
000001f0: 988a 9abd 6c86 893d e8aa c33d 471b c63d
00000200: d517 643d 6147 283e 35c1 99bc dedd f9bc
00000210: 4fe2 833d 673a 4c3d 8790 13be 1941 5dbe
00000220: 9afd c8bb 5d43 0abd dd6f 5a3d 4f79 333d
00000230: 1903 963d 184e ef3c 83f9 09bd 75d4 a63c
00000240: 4d0a a7bd f8be 283e cdcc 193e d468 cb3d
00000250: 0780 6cbc 3f1f 003e d44d 82bd abaa c93c
00000260: 2df2 52bd a5a2 d7bd 0d3e 0b3e 950a 97bd
00000270: efed ea3d c6c8 96bd d206 9dbb e952 64bd
00000280: bdf6 43bd 37d8 363e 5b24 a73d 9259 f8bc
00000290: 2131 833c 9642 b9bb d94f a7bc 9246 0fbd
000002a0: 45d1 63bc 3ab9 02be 2965 ca3d fa64 a1bd
000002b0: c430 bc3c 68a6 41be ee8e ee3d 518f 933d
000002c0: b6e1 ef3d 6850 acbb 3e72 afbd 3bd1 893a
000002d0: d024 cabb e0cb e43d d34b 143b 2c29 33be
000002e0: 1ff9 b43d e294 a33a b2d0 2f3e a8f1 e83c
000002f0: 24d9 323d 2fc7 903d b668 8cbc 547b 8d3c
00000300: 0762 c43b 5ce4 773d 4004 3e3e f1f6 b5bd
00000310: fe94 633c f2a3 2e3e 48df 3c3b 23de fa3c
00000320: 7e94 1abd 604c 64bc da4a 6a3d 2903 b33c
00000330: 6bf0 05bc f11b 5c3e dd79 103e 6a5b 0d3d
00000340: 65ce 67bd 592a 5e3d 545d d2bd dd5c 8f3d
00000350: 2b85 3a3d 33fe 8ebd 5194 4fbd c26a d3bb
00000360: e970 ecbd a297 32bd 657f 913d e33a 853d
00000370: add1 52bd dd15 28be 8248 b0bd ff16 b23c
00000380: 792a bb3c 0e32 4a3d 3030 64bc 5fa9 073e
00000390: d0e6 59bd ee16 053d 9d8c 163e 02c2 363d
000003a0: 2f12 71bb a87c f2bc 8b5e e43d 4e7c 33be
000003b0: 396b 3dbd 3c7a 25bd 83d1 0bbe 923f 3b3e
000003c0: 5d64 063c 4c53 6a3d c53a cd3d e8b8 fbbd
000003d0: 68d9 413d 7b9c 653d 795f 7b3d e217 163c
000003e0: 02a4 343e 893c 783d 5108 063e 5b1c d03c
000003f0: 171a 053e bfc0 1e3d ea73 b13d 70bf 9839

action_model._discrete_distribution.branches.0.weight f4 [1, 128]
0.008248454 0.0065856376 -0.007049501 -0.005782455 -0.004202985 0.0033970885 -0.0010947337 -0.0027702982
0.007727762 -0.00542634 -0.00052758725 0.0035933692 -0.00598306 0.0046337913 -0.0019880687 0.007944024
0.004197459 0.0018394433 0.011073591 -0.015022685 0.014876485 -0.0013849762 0.0031146205 -0.009516302
-0.0051327893 -0.003960281 -0.0078051933 0.00746819 -0.004543001 -0.0048767067 -0.015918614 -0.0019628943
0.004129273 0.008741862 0.00018321558 0.0020796347 -0.0043765632 -0.011486912 -0.01377721 0.0026825347
-0.013586518 0.00053195766 -0.0060598515 -0.008909842 -0.0016317073 -0.011550785 -0.0061564106 -0.008003518
-0.0005795769 0.011618757 -0.0030885008 0.0045309267 0.014397536 0.0088608945 0.008432893 -0.00097294984
-0.0070699654 0.0014769254 -0.0005742476 -0.0034353079 -0.0056426357 0.02070467 -0.0035601426 0.010825402
-0.0044292244 0.0049225297 0.008513212 0.011977067 0.00058723637 0.0034888058 -0.0027600902 0.00019920187
0.0049851667 0.009037285 -0.008957933 -0.016789084 -0.0105104875 0.0042034355 -0.00089256803 -0.008039572
-0.014023781 0.008399478 -0.01570284 0.0064888 0.0084307855 -0.007569866 -0.0005573509 0.011244785
0.011301101 -0.01476829 0.015313151 0.0067500295 0.003692702 0.004559278 0.010199633 -0.00959
-0.007284052 0.0068115937 -0.001207093 0.0010313846 -0.011288505 0.0070672384 -0.0019371022 -0.013192139
-0.01558214 0.009139675 -0.0069365115 0.0039495337 -0.00019960593 -0.0026747056 0.0026647158 0.0036588025
0.007516829 -0.0076671406 -0.0026419822 -0.013634622 0.006528303 -0.0042637135 0.009446779 0.0019947279
0.009451066 0.0071740234 0.005893181 0.013792696 0.0045819688 -0.009503936 -0.012187988 -0.007749521
00000000: 8624 073c 55cc d73b 80ff e6bb c07a bdbb
00000010: 32b9 89bb b0a1 5e3b 2b7d 8fba e48d 35bb
00000020: 2b39 fd3b 70cf b1bb c84d 0aba bb7e 6b3b
00000030: 8c0d c4bb 0fd7 973b 424a 02bb a727 023c
00000040: d78a 893b 7a19 f13a 026e 353c b521 76bc
00000050: 80bc 733c 1788 b5ba a91e 4c3b 43ea 1bbc
00000060: f530 a8bb 3fc5 81bb b5c2 ffbb b8b7 f43b
00000070: 74dd 94bb c8cc 9fbb c167 82bc e7a3 00bb
00000080: da4e 873b 073a 0f3c 8f1d 4039 7b4a 083b
00000090: 4669 8fbb 9a33 3cbc cfb9 61bc 77cd 2f3b
000000a0: fd99 5ebc 1373 0b3a b891 c6bb 96fa 11bc
000000b0: 03df d5ba 813f 3dbc b7bb c9bb 3021 03bc
000000c0: bfee 17ba 995c 3e3c 7268 4abb 2b78 943b
000000d0: a5e3 6b3c 492d 113c 1e2a 0a3c 8f0d 7fba
000000e0: 2bab e7bb 6595 c13a 1b89 16ba e722 61bb
000000f0: dce5 b8bb d79c a93c 4851 69bb 075d 313c
00000100: 0723 91bb 2c4d a13b 007b 0b3c 763b 443c
00000110: c4f0 193a 73a4 643b a1e2 34bb d8e0 5039
00000120: 9c5a a33b 1f11 143c 4bc4 12bc 4389 89bc
00000130: 2e34 2cbc f9bc 893b 3afb 69ba 69b8 03bc
00000140: 00c4 65bc f79d 093c 3ea3 80bc 00a0 d43b
00000150: 4721 0a3c a30c f8bb 301b 12ba 0c3c 383c
00000160: 4128 393c b3f6 71bc 03e4 7a3c 5a2f dd3b
00000170: 4201 723b ff65 953b 5d1c 273c 601f 1dbc
00000180: 0faf eebb ca33 df3b 5237 9eba 862f 873a
00000190: 6cf3 38bc 4b94 e73b 5de6 fdba d723 58bc
000001a0: 3b4c 7fbc 93be 153c ad4b e3bb 176b 813b
000001b0: 4f4d 51b9 1d4a 2fbb 83a2 2e3b 85c8 6f3b
000001c0: bb4f f63b a33c fbbb 1b25 2dbb c063 5fbc
000001d0: 60eb d53b 9fb6 8bbb aac6 1a3c fbb9 023b
000001e0: a5d8 1a3c 1214 eb3b 961b c13b c3fa 613c
000001f0: 5724 963b 66b6 1bbc 20b0 47bc b2ef fdbb
