results/ppo/My Behavior/My Behavior-95423.pt (torch, 442651 bytes, 36 tensors)

network_body._body_endoder.seq_layers.0.weight f4 [128, 6]
00000000: fa71 0c3f b9e6 c7be d04a 32bc 01cb c9be
00000010: e134 03be 5771 f03e 9bf5 1cbf 8160 e73e
00000020: 0c95 643e af6e 343f 2d3b 323f 7fcb 083e
00000030: 910a f53d e0bd 423e d73b e2be 1277 193f
00000040: 218d d63d 0076 dcbe a6ce bebe 3617 6f3e
00000050: 9af1 2bbe 67d9 2e3e 355b 61bd 9ebf a33e
00000060: c03b 05be ac65 3dbf 882a aabe ddb5 6cbe
00000070: f0eb fd3d f2b8 eabd 5f85 a4bd 6896 063f
00000080: af98 973e 7a08 a33e 9d45 48be 814c a2be
00000090: be16 363f 4ef3 863f 297c 163f 86b8 5bbe
000000a0: 681b 3e3c 6c22 9dbb 96f7 c43e cfb6 55be
000000b0: a8b8 143e 2137 cabe 53d9 50bd b688 5f3f
000000c0: ce7b d6be 3623 80bd 5475 dd3c 9804 ddbe
000000d0: 5d4e 3b3e 7960 c5be 0c7e 1f3d 78eb 81bd
000000e0: 250d 453f 1e18 6b3d 23f2 aebe 6aef 0abf
000000f0: 5358 c43d b281 7fbf 131e 46be 5f04 8e3c
00000100: da94 00be 2b10 323f 2d92 8bbe 8a3b cf3e
00000110: af98 0cbe 4a46 bbbc cf0a 7a3f 3380 1cbf
00000120: b3e6 34be 0d5e 1a3f 1f78 65be 3a8c e73d
00000130: 830a 2f3f 29bd 81bf 6522 7dbd cad4 c63e
00000140: 954f ffbc 588f a53d dda3 dfbe cb9f 84be
00000150: 8acc 1d3e a0a6 83be 15a7 b4be 39e8 9cbe
00000160: a079 5e3e f09d fcbc e658 803e 8171 0b3f
00000170: 8b80 86be b301 9c3e 724c 6abe 1230 f83c
00000180: 9793 2a3e 5aec f3bd a146 953d 6014 acbe
00000190: 3d21 81be ec0f 91bd e12d 73bf bca2 693e
000001a0: 975a c2bd 5802 c8bd 106e 7e3e 934b 71bf
000001b0: a3af 543e 650c 51bf 8b36 ee3d 9491 27be
000001c0: 1867 c93e 9980 d23b 876e cb3e 185c 27be
000001d0: 8197 a33e 7566 153f 4e57 d63e a7b9 8abe
000001e0: 1508 47bd 3bc1 3c3f f45a 2bbe 3031 db3e
000001f0: 596c 353e 98e1 92be 9359 50be b651 02bf
00000200: 1893 68be c8b1 463e 2f49 993d 1ff3 86be
00000210: 63ee cfbd 4ed9 cebe e07d be3c 99ff 9b3c
00000220: e18d bb3e 337b 8b3d 826a d63d f0f0 793e
00000230: 96e1 f43e 4565 443f 9ebf 523f e74d df3d
00000240: 7365 1d3e ad77 d0ba 819e 793e 6020 51be
00000250: a13a bfbc 7738 ba3c f516 ebbe 7553 b53d
00000260: 9bbb d1bb 25ae 123d e04e 403f 9145 1dbe
00000270: 12f4 093e 5566 9bbd 918f 833d 0375 dbbe
00000280: 3bbd eebc f2ac 723e e29e d3be e770 d9bc
00000290: 4d7a 993d c163 963e f2ef 0b3e 3ce9 28bf
000002a0: 0e27 39be 9f39 fabe b715 f83d 0b67 f4bd
000002b0: 0777 533f 6a4c 043e 4b5f 903e 835d 11bf
000002c0: bde0 bb3e 8527 cb3e a4a7 433e 7a0e 153f
000002d0: c254 fdbe e5f2 923c 877d 883d 8828 2abf
000002e0: dc2d 83be 867c 953e 6d68 01bf cbb4 af3d
000002f0: 4390 a43e e9a9 09bf 2487 75be d8bb f63d
00000300: 4786 26be 09c3 04be 44a5 9d3e 096f d83e
00000310: dea5 59be 746d 8a3e 1425 323f 6eed 163f
00000320: 8c3f 353f a98e 9bbd 5ecd 44be 9ed4 2b3d
00000330: 8034 1dbf 1d1f 813e 069c d0be 241f 92be
00000340: 4eff 8abd a3e6 163f 3e2f 903e 76b6 143f
00000350: 13d4 a5bd 981b fdbc 98f5 cdbc 38a0 f5bd
00000360: ac44 063e cfba ffbe c00e 82be 3890 21bf
00000370: 6448 913d 0c16 5bbe a96e cebe 5ca3 ad3d
00000380: 3800 023e f6f5 b73e 0264 903f b5ec abbe
00000390: 9154 18bf 81dc 0c3f 69ec 11bf 095b 27be
000003a0: 4503 cf3e 1845 c7ba 6db9 76bd 1102 3cbe
000003b0: 9d31 283f 536e 693e 4160 29be 341b 443f
000003c0: faf7 6e3f b8cb b9bc a7ff 19bf f57b 7cbf
000003d0: 5259 0e3f 754a d7bd 9c2f cbbe d1a9 f53d
000003e0: 09c0 35bf 8f34 853e 07ae 9abe 0918 133f
000003f0: fb7e 78be f936 e83e 2f31 8ebe ad55 113d
0.54861414 -0.39043215 -0.0108820945 -0.39412692 -0.1281314 0.4696147 -0.61312264 0.45190814
0.22322482 0.7048139 0.69621545 0.13358878 0.11964906 0.19017744 -0.4418628 0.5994731
0.10476137 -0.43058777 -0.37267035 0.23348698 -0.16791382 0.1707512 -0.055018622 0.3198213
-0.13011074 -0.73983264 -0.33235574 -0.2311625 0.12398517 -0.11461057 -0.08033251 0.5257325
0.29608676 0.31842405 -0.19557805 -0.31698993 0.7112845 1.0543001 0.58783203 -0.21457109
0.011603214 -0.004795363 0.38470143 -0.20870517 0.14523566 -0.39495185 -0.050988507 0.8731798
-0.4189133 -0.06256716 0.027033485 -0.43167567 0.18291612 -0.38550165 0.038938567 -0.0634374
0.7697318 0.057396047 -0.3416911 -0.54271567 0.09587159 -0.99807274 -0.1934741 0.017336069
-0.12556782 0.6955592 -0.2725996 0.40475112 -0.13730119 -0.022860665 0.9767274 -0.61133116
-0.1766613 0.6029976 -0.22409104 0.11306043 0.68375415 -1.0135852 -0.06180038 0.3883422
-0.031165877 0.08083981 -0.43679705 -0.25903162 0.15410057 -0.25713062 -0.35283723 -0.30645922
0.21726084 -0.03083703 0.25067824 0.5447007 -0.26269946 0.30470046 -0.22880724 0.03029636
0.16657864 -0.11910315 0.07288862 -0.33609295 -0.2522067 -0.07083115 -0.9499188 0.22815984
-0.09489935 -0.09766072 0.24846673 -0.9425594 0.20770125 -0.8165954 0.11631497 -0.16364127
0.39336467 0.0064240214 0.39732763 -0.16343725 0.31951526 0.5835946 0.41863483 -0.27094766
-0.048591692 0.73732346 -0.16733915 0.42810965 0.17717113 -0.2868774 -0.2034667 -0.5090593
-0.22712362 0.19403756 0.07484662 -0.26357362 -0.101528905 -0.40400165 0.023253381 0.019042777
0.36631683 0.06810608 0.104695335 0.24408317 0.47828358 0.76717025 0.82323635 0.109035306
0.15370731 -0.0015904807 0.2437687 -0.20422506 -0.023343386 0.022732003 -0.45915952 0.08853809
-0.006400538 0.03581061 0.75120354 -0.15358569 0.13472012 -0.07587878 0.064238675 -0.4286271
-0.029142966 0.23698786 -0.41332155 -0.026543094 0.0749403 0.2937298 0.1366575 -0.6598089
-0.18081304 -0.48872086 0.12113517 -0.119337164 0.82603496 0.12919775 0.28197703 -0.5678331
0.366949 0.39678589 0.19106919 0.58225214 -0.49478728 0.017938087 0.066645674 -0.66468096
-0.25620925 0.29196566 -0.50549966 0.085794054 0.32141313 -0.5377489 -0.23977333 0.12047547
-0.1626216 -0.12965025 0.3079015 0.42272213 -0.2125468 0.2703663 0.69587827 0.5895604
0.7080009 -0.0759557 -0.19218966 0.041950814 -0.61408234 0.2521905 -0.40744036 -0.28539383
-0.06786977 0.58945674 0.28161043 0.58090913 -0.080970906 -0.030896947 -0.025141522 -0.1199345
0.13112134 -0.4994721 -0.25401878 -0.63110685 0.070938855 -0.21395129 -0.40318802 0.08478424
0.12695396 0.3592984 1.128052 -0.3357903 -0.5950404 0.5502396 -0.5700136 -0.16343321
0.40432182 -0.0015203087 -0.06023543 -0.18360163 0.65700704 0.22795992 -0.16540624 0.7660401
0.9334713 -0.022680148 -0.6015572 -0.98626643 0.5560504 -0.105122484 -0.3968476 0.119952805
-0.7099615 0.26016662 -0.30210897 0.5745855 -0.24267189 0.4535444 -0.277719 0.035482097

network_body._body_endoder.seq_layers.0.bias f4 [128]
00000000: 0000 0000 5e01 333b 0000 0000 85e2 57bb
00000010: 0000 0000 61ab 3dbb b28d 64b9 f4d7 77ba
00000020: 788b 753a 0121 213b 0000 0000 6cb3 4cba
00000030: a1c7 53b9 9fe5 deb7 0000 0000 fd5d 6431
00000040: d4db 23b4 8340 2ebb 7df7 9f0c 0dec 26ba
00000050: 301d ae3a 11d0 1a90 eb54 d3ba b390 39bb
00000060: cda1 3fbb 168e d43a 8180 edba 3205 283b
00000070: 5f60 4b3b 0869 c23a 1897 fd3a ee66 fd3a
00000080: 01c1 1a3b c40d 41bb fd76 173b 8908 233a
00000090: 0000 0000 3287 4f39 e3c8 363b 665f 233b
000000a0: 0000 0000 d4df a21a f364 5dbb 93d1 033b
000000b0: 4180 b71e c448 27bb 4b90 3015 e82c 313b
000000c0: 0000 0000 0d17 69bb 9560 ee3a b8c5 6139
000000d0: 9d99 b706 8976 9da5 9bfa 2305 4262 2fbb
000000e0: cd95 d3bb 0dde fd2f 343f 5016 0000 0000
000000f0: 4fc2 a93a 4f96 3ebb 4c70 22a4 7645 39bb
00000100: a86b 292e 8429 a08e 8f0d cb3a ccc3 23a8
00000110: 0000 0000 0000 0000 beee 4abb a6bd 28bb
00000120: 426a 30b7 37d4 dcba 2c28 9214 06d3 2f3b
00000130: 3aa9 c71d c964 bd3a 72f5 28bb 0743 0a38
00000140: bf8d 82bb 9562 4f3a b224 003b 95aa 4bbb
00000150: 902c 2211 0000 0000 07a3 f1ba 0000 0000
00000160: 12ec 45bb fcf6 2c3b 89d9 b53a 14a5 101f
00000170: 51a4 eaba 8cff 33bb 3d2b 18bb 7ece 1e3b
00000180: 8d65 3ebb 0000 0000 64e2 37bb a18c 3da7
00000190: b4b2 46bb 074e 243b 9e84 49bb 1be5 5cba
000001a0: d50b 273a 069d c439 ecbb 8aae bc1f b906
000001b0: 0000 0000 a465 3dbb b566 e13a 6d11 1f3b
000001c0: f374 813a 2f53 a43a 0000 0000 6c98 c510
000001d0: cbda 373b 1a85 1a3b 7634 3f3b 0000 0000
000001e0: ee86 883a 8536 49bb 0000 0000 b166 3d3b
000001f0: 0000 0000 0000 0000 6421 babb 34b6 2f3a
0.0 0.0027314047 0.0 -0.0032941413 0.0 -0.002894126 -0.0002179656 -0.0009454482
0.0009366791 0.0024586322 0.0 -0.00078087184 -0.00020196896 -2.6571388e-05 0.0 3.3231793e-09
-1.5260531e-07 -0.0026588745 2.464678e-31 -0.0006367572 0.0013283845 -3.0531433e-29 -0.001612333 -0.0028315007
-0.0029240728 0.0016216661 -0.0018119962 0.0025637862 0.0031032783 0.0014832327 0.0019347398 0.0019333044
0.0023613574 -0.0029457668 0.0023111694 0.00062192284 0.0 0.00019791423 0.0027890734 0.0024928688
0.0 6.7363243e-23 -0.0033782094 0.002011393 1.9428923e-20 -0.002552555 3.5656744e-26 0.0027034823
0.0 -0.0035566718 0.0018186743 0.00021531328 6.9062664e-35 -2.731548e-16 7.710252e-36 -0.0026761447
-0.0064570666 4.6178208e-10 1.682205e-25 0.0 0.0012951585 -0.002908129 -3.522327e-17 -0.0028270162
3.852177e-11 -3.9483023e-30 0.0015491712 -9.090774e-15 0.0 0.0 -0.0030965055 -0.0025747805
-1.0515158e-05 -0.0016847913 1.4758078e-26 0.002682866 5.2849838e-21 0.0014449592 -0.0025781062 3.2964188e-05
-0.0039841826 0.0007911113 0.0019553122 -0.0031077017 1.2793279e-28 0.0 -0.0018435427 0.0
-0.0030200523 0.0026392331 0.0013874035 3.0629736e-20 -0.0017901753 -0.002746555 -0.0023219131 0.0024231966
-0.0029052228 0.0 -0.0028058523 -2.6305254e-15 -0.0030318918 0.0025070922 -0.0030749212 -0.00084264734
0.00063723075 0.00037501025 -6.308895e-11 6.9635895e-35 0.0 -0.0028899694 0.0017196747 0.0024271861
0.0009876773 0.0012536998 0.0 7.793764e-29 0.0028053995 0.002357787 0.0029175556 0.0
0.0010416189 -0.0030702662 0.0 0.002890032 0.0 0.0 -0.00568025 0.00067028706

network_body._body_endoder.seq_layers.2.weight f4 [128, 128]
00000000: 684c 623c 9a6e 283c acd6 353e eec9 cf37
00000010: 0d92 8dbc f70c 24bd b4df c13d 54ae 72bd
00000020: 3e28 6ebe 96c3 c0bd 9967 0abe ceaa 2f3e
00000030: 1f83 1c3e 60d7 59bc 0756 853d 2fc2 2ebe
00000040: 2593 b23c b51a 46bd 07b2 8d3d 941b 2a3d
00000050: dba7 f5bd c58c 88bd cdf1 bdbd ceea 1e3e
00000060: aff6 b93c 4d4a 85bc 171f 12bc 5569 3bbe
00000070: 45d6 f73d 5fca 8aba eb6b 08be 1591 f5bb
00000080: bdad 023d bddd a93d c164 e93c 1bc9 afbd
00000090: 72fa a63c 2d98 16bd 5b2e 423d 2354 b73d
000000a0: 4f0f f5bd c41e b3bd 2fc1 b1bd 505f 1bbd
000000b0: 5a12 ee3c d7ee 263e 0db8 113e aa35 f73c
000000c0: 7a11 03bd b94a 1cbe 9bb1 7bbd bb4f 2ebe
000000d0: 77a9 b03d 9f2d 863d a0ac 65bd 2050 213d
000000e0: b5f9 24be 8604 99bc 5c17 79bb 0dcd cd3c
000000f0: 663e 403d 7f95 ea3d 00cf 2f3d f60c 22bd
00000100: 5100 573d 65c1 67bd 0198 5f3b 0c45 21bd
00000110: af97 423d f9d8 0cbd a4a2 ab3b 9ab1 c7bc
00000120: a4b5 91bd 2023 61bc 2bc5 e9bd e113 243e
00000130: 3e31 5cbe 84bf 563d 7113 8b3d 487d d4bb
00000140: 31f4 103d 4a0d 1ebe 7a01 42be 1147 d2bc
00000150: be11 5dbe 746e 2ebd d533 943b c2fd 9e3b
00000160: 8119 0fbb 3d6f 47bb 0a61 2d3e 696f eebc
00000170: adac 953d 1120 34bd 1f7f f23b 8ba5 74bd
00000180: e548 22be ef75 b8bd 3793 dc3c e7c9 4c3e
00000190: 9b87 01bd 9aa1 06bc 3803 75bc ad4a 063e
000001a0: aa56 273e 4f53 383d 4379 463d 34b8 e63b
000001b0: 3bcc 453d bf6e 313e 0cfd 93bd 87aa 6cbd
000001c0: dda4 cfbd de9a 4ebd 44bb 253e 969f b93d
000001d0: d81d d53d 7fde ba39 04f2 0b3d f991 5c3d
000001e0: 18ab 953d a1b5 e4bc 1aa0 5a3c 71b0 00be
000001f0: 6b85 2e3e 109a c13d 72a2 31bd 571f 0fbe
00000200: eed9 583d a24e a4bd 6773 843d 160e 97bc
00000210: 4502 5e3d 9916 41be 0c27 6b3d c77b 9c3d
00000220: 9336 153d caf9 09be 4e88 163d c595 68bd
00000230: 871f 31bd d4b1 56bd 2a1a d5bd 5840 febd
00000240: b2a1 a0bd 8ea5 1dbd 8ce6 c13d d335 49bc
00000250: 1269 2a3d 8e2b 4cbd a0f2 d5bd 19ed 2abc
00000260: 6b84 353e 5f74 fbbd 9728 8bbd d63e 073d
00000270: 2128 0cbe 534d 97bc c297 d1bc 07aa 0fbe
00000280: b7cc ed3b cf85 073d 622b 8bbd cceb febd
00000290: c8f2 b2bd e8bd dcbb 610b e2bd c9ca 08be
000002a0: 1d71 d6bd f258 f5bd 74db 603d fa9e c6bd
000002b0: 34b4 3b3d b6e9 bf3d 8380 abbc 7b7d ecbd
000002c0: 1b59 89bd 4418 1e3d dc7a 4ebc 1476 08bb
000002d0: 321a 263e 9e59 1a3e 328a a0bb c748 1abe
000002e0: e2b8 813d 028b ef3d 3279 56be b0ca d6bd
000002f0: 59ce 13bd 7575 60bd 40cb 743d 04c1 41bc
00000300: 62d7 10bd 2c67 2f3e a1ee 643d 48dc 4d3e
00000310: 5bfc 3dbd 37c2 6ebe 3293 2abe 8f1d d9bd
00000320: d291 fb3d 4988 adbc 05c8 3d3e 5f0f 293d
00000330: 9fcb 913d 6746 de3c 2f12 9ebd 9d42 873e
00000340: 3db4 c3bc f56f 043d 6fe1 573c b147 413d
00000350: e4a3 ecbd d27d 15bd 482f 8c3d cdec 87bd
00000360: ab62 ebbd 2e78 d63c d327 9dbd 4d81 5abd
00000370: 9a93 18bc 3802 da3c 618c 043e d22f 9abd
00000380: ab12 f33c 3f09 433d ce7f 87bd 2d95 2abe
00000390: 669d 1fbd 73f5 1dbe 45e6 953c 0b18 243a
000003a0: 106e 11bc b7e6 5d3e bf64 883e 8326 8c3d
000003b0: ac71 debd 4c0c bcbd d481 083d 087f 50bd
000003c0: b37d 1fbd 0a6d 553d 6d6a a4bd cbad c3ba
000003d0: a036 5d3c 2b3b a3bd 29c1 2fbd 78f2 3fbd
000003e0: 834b 793d b059 5dbd 3b81 3bbe 6dc9 2a3d
000003f0: ed73 24be c957 15bd 31ec d1bd e023 083d
0.013812162 0.010280276 0.17757672 2.4770354e-05 -0.017281557 -0.040051427 0.09466496 -0.059248284
-0.23257539 -0.09412305 -0.13516082 0.17155 0.15284394 -0.013295978 0.06510549 -0.17066263
0.02179868 -0.048365314 0.06918722 0.041530207 -0.119949065 -0.06667475 -0.092746355 0.15519258
0.022700636 -0.016270781 -0.008918545 -0.183019 0.121014155 -0.0010588876 -0.13322417 -0.0074941018
0.03190397 0.08294246 0.028490426 -0.0858328 0.020383094 -0.03676622 0.04740749 0.08951595
-0.119658105 -0.087461025 -0.08679425 -0.037932694 0.029061485 0.16302048 0.14230366 0.030176956
-0.03199909 -0.1526288 -0.061448675 -0.17022602 0.08626073 0.0655167 -0.05607283 0.039383054
-0.1611088 -0.018678915 -0.0038008308 0.02512219 0.046934508 0.11454295 0.04292202 -0.03956314
0.052490536 -0.05658092 0.00341177 -0.03937249 0.047507938 -0.03438661 0.005237894 -0.02437668
-0.07114723 -0.013741285 -0.1141456 0.16023208 -0.2150316 0.052428737 0.067908175 -0.0064846613
0.03538913 -0.15434757 -0.18945876 -0.025668653 -0.215888 -0.042585805 0.0045227804 0.0048520276
-0.002183527 -0.0030431293 0.16931549 -0.029105859 0.07308326 -0.043975893 0.007400408 -0.059728187
-0.1584812 -0.09006869 0.026925666 0.19998895 -0.031623464 -0.00821724 -0.014954381 0.13114424
0.16341653 0.045001324 0.048455488 0.0070410017 0.048290472 0.17327403 -0.07225999 -0.057779815
-0.10138867 -0.05044066 0.16184717 0.09063642 0.10406083 0.00035642457 0.03416635 0.053850148
0.07308024 -0.027918639 0.013343835 -0.12567307 0.17043082 0.09453213 -0.04336781 -0.13976799
0.05294221 -0.080228105 0.06467324 -0.018439334 0.054201383 -0.18856277 0.057410285 0.07640796
0.036429 -0.13474193 0.036751084 -0.056783456 -0.043242957 -0.052415684 -0.10405381 -0.12414616
-0.07843341 -0.038487963 0.094678015 -0.012280899 0.04160411 -0.049846224 -0.10446668 -0.010432505
0.17726295 -0.122780554 -0.06794851 0.03301891 -0.13687183 -0.018469488 -0.02558506 -0.14029704
0.00725707 0.033086594 -0.06795384 -0.124473184 -0.08737713 -0.006736506 -0.110373266 -0.13358606
-0.104707934 -0.119798556 0.054896787 -0.09698291 0.045826152 0.09370749 -0.020935303 -0.11547371
-0.06706449 0.03859736 -0.012602534 -0.0020822333 0.1622093 0.15073249 -0.0048992867 -0.15066825
0.06334092 0.116964355 -0.2094467 -0.10487878 -0.03608546 -0.054799516 0.059764147 -0.011825804
-0.035361655 0.171292 0.055891637 0.20103562 -0.046383243 -0.23316275 -0.16657713 -0.10601341
0.122836724 -0.02118315 0.18533333 0.041274425 0.07118916 0.02713318 -0.07718312 0.2641801
-0.023889655 0.032333333 0.013176306 0.04718751 -0.11554697 -0.036496945 0.06844956 -0.06636963
-0.11493429 0.026180353 -0.076736115 -0.053345967 -0.009312535 0.026612386 0.12944175 -0.07528652
0.029671988 0.04761624 -0.06616174 -0.16658469 -0.038968466 -0.15425663 0.018298278 0.0006259686
-0.008876339 0.21670042 0.26639363 0.06843283 -0.10861525 -0.09182033 0.03332694 -0.050902396
-0.038938235 0.05210594 -0.080281116 -0.0014929114 0.013501793 -0.0797027 -0.04290882 -0.046862096
0.06086303 -0.05404061 -0.18311016 0.041696 -0.16059847 -0.03646067 -0.10250128 0.033237338

network_body._body_endoder.seq_layers.2.bias f4 [128]
00000000: e4b2 0b2f 0000 0000 04e4 35bb 3a08 959a
00000010: da4d 0cbb 2233 0e3b dd58 15b4 0000 0000
00000020: 5e3d 313b 9265 023b 0000 0000 0304 98a0
00000030: ecb3 363b ce4f df3a db79 06bb 1526 44bb
00000040: 7f42 2f3b 158e 2d3b cdb3 333b 0000 0000
00000050: 0712 4ebb f318 2c3b a98e ec87 1d75 9a3a
00000060: d434 1819 a79b 28bb 08f5 fa8c dcd9 9521
00000070: 926b 363b 0000 0000 0ad0 fd1e b238 77ba
00000080: 918b 273b a9e3 443a ca8c 38bb 43ca fc97
00000090: 8620 25bb 7138 433b e8e0 5a94 50c4 153b
000000a0: 445a 383b 7d67 1cbb 0000 0000 4ae5 0f3a
000000b0: ba8d 50b3 6efc 3bbb bf6d 083b 885d 1b25
000000c0: 6d1d 2a3b f5dc 49bb 5754 203b 5bae 9e3a
000000d0: 332f 57bb 0000 0000 83f0 4ebb 0000 0000
000000e0: 0000 0000 42c7 be3a 88b2 1f3b bc91 2e3b
000000f0: 6d51 8815 2278 2eb6 b73b 293b 8cd1 1d3b
00000100: e3f3 08bb bac6 1e3b fb0c 2bbb 846a 07ba
00000110: b835 e9b2 8275 8ca5 8b04 50b5 3dfb e63a
00000120: 4f66 16bb ff50 58ab 33f1 17b5 5949 de31
00000130: f246 0387 a276 39bb ed99 353b fcf7 85b8
00000140: 25bf bc8a a87d 363b 095f 0a3b 0000 0000
00000150: b1a1 353b 27d8 a6b5 f513 363b 4f0e 43bb
00000160: d985 2a3b 77f9 a6b8 01db 0c3b 4255 3ebb
00000170: 2745 97ba 77df 3995 4f17 273b fc62 cf1f
00000180: 6381 5934 acb3 6916 d074 e0ad 3c48 133b
00000190: c496 12ac 8a77 353b 9b2f e0ba 6c5a 303b
000001a0: 08b5 60a4 18e1 213b 0000 0000 2e4a 8584
000001b0: 42e1 9c8a ff49 e3ba 8424 aeba bf44 a1ba
000001c0: b8db 263b 7a56 1d3b 7101 1f3b 38b7 3fbb
000001d0: 5f93 feba 5917 0faa 2ef4 44bb 1548 723a
000001e0: b39d 303b 576c 4913 40f0 263b e670 53bb
000001f0: a1a6 28bb 0000 0000 00f5 47bb e623 a93a
1.2705531e-10 0.0 -0.0027754316 -6.1638246e-23 -0.0021408708 0.0021697958 -1.3909035e-07 0.0
0.0027044634 0.0019896966 0.0 -2.5752456e-19 0.0027878238 0.0017037333 -0.002051941 -0.0029929925
0.0026742516 0.0026482393 0.0027420402 0.0 -0.003144385 0.0026259988 -3.5593181e-34 0.001178417
7.868884e-24 -0.0025727542 -3.8666072e-31 1.01543e-18 0.0027835113 0.0 2.687346e-20 -0.00094307505
0.0025565366 0.00075107306 -0.0028160089 -1.6336176e-24 -0.0025196387 0.002978828 -1.1050542e-26 0.0022852607
0.0028129974 -0.0023865395 0.0 0.0005489184 -4.8557673e-08 -0.0028684395 0.0020817367 1.3475797e-16
0.002595748 -0.0030801867 0.0024464333 0.0012106405 -0.003283453 0.0 -0.0031576462 0.0
0.0 0.0014555233 0.0024367888 0.0026637157 5.505843e-26 -2.5997947e-06 0.0025822946 0.0024081198
-0.002089732 0.0024227337 -0.0026100266 -0.00051657134 -2.7149198e-08 -2.4365755e-16 -7.749265e-07 0.0017622482
-0.0022949164 -7.685102e-13 -5.6602875e-07 6.469389e-09 -9.876194e-35 -0.002829947 0.0027710155 -6.388125e-05
-1.8175642e-32 0.0027845893 0.0021113774 0.0 0.0027714784 -1.2430872e-06 0.0027782891 -0.0029763167
0.002601972 -7.961963e-05 0.0021492841 -0.0029042517 -0.0011540995 -3.7536735e-26 0.002549607 8.7831666e-20
2.025677e-07 1.8878285e-25 -2.5517727e-11 0.0022473475 -2.083154e-12 0.002768966 -0.0017104031 0.0026909364
-4.8725597e-17 0.0024700817 0.0 -3.1336273e-36 -1.5106986e-32 -0.0017340778 -0.0013286029 -0.0012303813
0.0025460552 0.0024007843 0.0024262334 -0.0029253494 -0.0019422582 -1.2709052e-13 -0.003005277 0.00092423084
0.0026949465 2.5423182e-27 0.002547279 -0.0032263338 -0.0025734084 0.0 -0.0030511022 0.0012904375

action_model._continuous_distribution.log_sigma f4 [1, 2]
00000000: 2cac d93b b8ee 183b
0.006642839 0.0023335647

action_model._continuous_distribution.mu.weight f4 [2, 128]
00000000: 7a48 9fbb 9a9b 83bc 2149 073d 3f1d a53c
00000010: 0e5d 52bc ce28 653b a830 98bb 928c 293c
00000020: bf49 5dbc 8596 b5bc f5fb 8eb9 6fb3 f3bb
00000030: 7563 84bc 474c 12ba a48f 703c 77e9 7c3c
00000040: 7dc2 1ebc 428d b4bb 43eb 25bc 33b3 60bc
00000050: 3d53 b23b c8d4 61bc f064 9c3c 2824 6c3b
00000060: 713d 3cbc f9a3 1d3d d70b 643c a244 13bc
00000070: 2d34 a8bc 6a9d 873b ec65 393d 9198 5dbc
00000080: e31b 96bc c9b5 a8bc 4a8e 4d39 7058 a5bc
00000090: c406 e13c 8cd1 30bc c2f6 83bc a783 d8bb
000000a0: 585b abbc ea6e e6bb 2288 72bb 2292 27bc
000000b0: a74b e7bc 1b1b 5a3c d40e ddbc cac2 57bb
000000c0: 8246 b7bc 1d76 093c 779c edbc 467e 0a3c
000000d0: d418 79b8 88e4 633b a866 ae3b d70a 2dbb
000000e0: bcd6 1fbd 8202 fc3b 6aa0 38bb 0edd fbbc
000000f0: 730f ce3c 7c39 02bc bdae a2bc a583 383a
00000100: f6a6 85bb 4f4f cbbc 2fe5 c6bb 26c3 1cbc
00000110: 3ee7 8a3c e32c 3b3c e43b e7bc 1848 b3bc
00000120: 9312 ca3b be71 3bba 27f4 36bc 80bb 303b
00000130: 5c2e 24bc bca6 3aba b606 3ebc f089 233c
00000140: 0fd4 a3bc 76ba 04bd bf7f 38bc 80e5 833c
00000150: 756e 8fbc 40cb a13c 3769 68bc 10fc 5e3c
00000160: 2b2f 20bb 83ec e03c 07ed bc3b e630 963c
00000170: b504 f43b 0dbf 713c 2b91 54bb f688 98bb
00000180: c5fe c23c ff4f bb3b 38e4 433c 8afd 57bd
00000190: e0bc 423b 230f 39bc 0a76 2c3d 0fea 0abd
000001a0: 769b b1bb d9d6 65bc f5dc 59bc f26b 6b3a
000001b0: b94b a53a c576 913c 7249 8e3c e758 283c
000001c0: 506b 80bc e747 93ba 5de8 12bd c0f7 033d
000001d0: fb13 de3b 0819 dc3c 1ff9 3ab9 76cc 403c
000001e0: d4c7 0fbc 724b 673c d0b1 12bd 96b7 233c
000001f0: 7f84 03bc b4e5 9b3c 94c4 7e3b 3f02 5dbc
00000200: 1d53 1abd 13b5 1cbc 3463 1fbb 107f 813c
00000210: b83f dbbc 4957 bb3c a986 873c e610 a7bc
00000220: 3028 793c 54a9 43bb a3e7 59bb 9b26 0a3d
00000230: bdfa c33c f7bc dd3b adfb 5e3b 7035 b0bc
00000240: ab7e d93c cfc6 833c 9a33 b33c 426a d73b
00000250: 40ad e03a 6e2b 433c 93c6 2c3a 38c7 323c
00000260: fd8b d13b 9fee a93b 0d81 473a feee 93bc
00000270: 8a25 d63c b65b 8dbb ea4b 083c c6d2 17bc
00000280: 5a6b ad3b 92a5 1fbc 8d01 c0bc 7f68 a33b
00000290: 0d26 3c3c 298e d43c 0826 553b 53b5 263b
000002a0: 72fe 013d c5f8 4abc d3a3 d0bc 1efb 43bb
000002b0: d227 093d 69bd 7a3a 7c71 71bb 6309 28bc
000002c0: 01fa e23b ef10 20bc 286a 973a f679 8e3c
000002d0: d013 bbbb 1e2b 933c 6bc2 19bc 1913 bdbc
000002e0: e560 06bc 607b 963c bb0c 1e3c b79f 943c
000002f0: c35e 1ebc d50a 37bc c598 143c 89ee d43c
00000300: 3da4 d23b 2c45 b03a b164 06bd a450 b83c
00000310: 1f03 20bb 087c 6ebc 58ff b1bc c8a8 97bb
00000320: cb54 dc3c 33e8 903c de7f 003d 690a 9fbc
00000330: 23bb 803b 11e1 afbc 512f be3c bb72 62bc
00000340: f863 923c 9e37 143d b1b2 523a ab72 a53c
00000350: 5d06 893b 47e2 9eba 02bb d53c 7650 52bc
00000360: f0e2 5f3d 336a fd3c 03fd e63c c96f d3bb
00000370: 02df 0a3c 1270 b4bc 386a e03c 34f9 2e3c
00000380: 990b 49bc 27af 363d aefa 75ba 5d1b efbb
00000390: b769 0bbc e478 bc3c 9230 b03c 0cf3 cb3c
000003a0: aa52 c2bb f2db 853b 3054 19bc f279 ec38
000003b0: 63b0 163b 3f3d 383c 4dfb b53b 1b67 ad3c
000003c0: 4abc af3b 6615 883c 81fa 5fb9 e9ea 08bb
000003d0: 385b 503d a205 dbbb ee01 34bc 6f0b 9c3c
000003e0: b742 453c 058e da3b 6a1b 7e3b 2243 b63b
000003f0: d54b 36bd c09d 94bb 63b2 65bc 4956 42bb
-0.004860935 -0.016065408 0.033028726 0.020155547 -0.012839569 0.0034966948 -0.004644472 0.010348456
-0.013506352 -0.0221665 -0.00027272073 -0.0074371616 -0.016160706 -0.0005580824 0.014682684 0.015436522
-0.009689924 -0.0055100033 -0.010126892 -0.013714599 0.0054420517 -0.013783641 0.0190911 0.0036032293
-0.011489258 0.038486455 0.013918838 -0.008988531 -0.020532692 0.0041386383 0.045263216 -0.013525144
-0.018323844 -0.020594494 0.0001960333 -0.020183772 0.027469046 -0.010792147 -0.016108874 -0.006607491
-0.02091758 -0.007032265 -0.003700741 -0.010227712 -0.028234316 0.0133121265 -0.02698461 -0.00329225
-0.022372488 0.008389977 -0.029005272 0.0084529575 -5.938935e-05 0.0034773666 0.005322296 -0.0026404166
-0.039023146 0.0076907286 -0.0028171786 -0.030745056 0.025153851 -0.007948276 -0.019858712 0.00070386595
-0.004078741 -0.02481809 -0.0060698013 -0.009568011 0.016955968 0.011424276 -0.0282268 -0.021884963
0.006166765 -0.0007150433 -0.011166609 0.0026967227 -0.010020819 -0.0007120182 -0.01159828 0.009981617
-0.019998578 -0.032404386 -0.011260926 0.016100645 -0.017508725 0.019750237 -0.014185241 0.013609901
-0.0024442177 0.027456528 0.0057655605 0.018333863 0.00744685 0.014755023 -0.003243516 -0.004654999
0.023803124 0.0057163234 0.011956267 -0.052732028 0.002971463 -0.011295113 0.04210476 -0.033914622
-0.0054201437 -0.014028274 -0.013297309 0.00089806237 0.0012611068 0.017756829 0.017369006 0.010275102
-0.01567617 -0.0011236639 -0.03586613 0.032218695 0.006777284 0.026867405 -0.00017831147 0.011767497
-0.00877567 0.014117109 -0.035814106 0.009992501 -0.008027195 0.01903043 0.0038874494 -0.013489305
-0.03767692 -0.009564656 -0.0024320604 0.015807658 -0.026763782 0.02286877 0.016543703 -0.0203938
0.015207335 -0.0029855566 -0.0033249639 0.033728223 0.023923272 0.006766911 0.0034024522 -0.021509856
0.026549658 0.01608601 0.021875191 0.006573946 0.0017141476 0.01191221 0.0006590869 0.010911755
0.0063948617 0.0051859166 0.00076104776 -0.018058296 0.026140947 -0.0043139113 0.008318881 -0.009266561
0.0052923383 -0.009744065 -0.02343824 0.004986822 0.011483681 0.025946693 0.003252389 0.0025437668
0.0317368 -0.012388413 -0.025468742 -0.0029904316 0.03348524 0.00095649675 -0.0036841324 -0.010256144
0.0069267754 -0.009769662 0.0011552023 0.01739214 -0.005709149 0.017964896 -0.009384732 -0.023080396
-0.008201812 0.018369377 0.00964659 0.018142564 -0.009666148 -0.011172016 0.009069626 0.025992649
0.00642827 0.0013448349 -0.03281087 0.02249939 -0.0024415923 -0.014555939 -0.021728203 -0.0046282746
0.026895901 0.017688846 0.031371944 -0.019414144 0.0039285584 -0.021469625 0.023215922 -0.013821299
0.017869934 0.036185853 0.00080374914 0.02019628 0.0041816668 -0.0012121879 0.026090149 -0.012836566
0.054659784 0.030934429 0.028196817 -0.006452535 0.008476021 -0.022026096 0.027394399 0.010679532
-0.0122708315 0.044600632 -0.00093833625 -0.007296963 -0.008509091 0.023006864 0.021507535 0.024896167
-0.0059302645 0.0040850574 -0.009358451 0.00011276071 0.0022993318 0.011245071 0.005553639 0.021167329
0.005363022 0.016611766 -0.00021360257 -0.002089197 0.050868243 -0.006684021 -0.010986788 0.01904842
0.012039832 0.006669762 0.0038773664 0.005562202 -0.044505913 -0.004535407 -0.0140195815 -0.002965348

action_model._continuous_distribution.mu.bias f4 [2]
00000000: 5fd0 29bb 6b9b 2d3b
-0.0025911552 0.0026490341

exp_avg f4 [128, 6]
00000000: 0000 0000 0000 0000 0000 0000 0000 0000
00000010: 0000 0000 0000 0000 a808 11bc d2cf ae3b
00000020: 0509 453c 9480 3aba 0ac1 5a3a 0dc1 bc3a
00000030: 0000 0000 0000 0000 0000 0000 0000 0000
00000040: 0000 0000 0000 0000 a49d 5abb a533 413b
00000050: 94ed a13b 14bc c8b9 9472 eb39 9d28 4b3a
00000060: 0000 0000 0000 0000 0000 0000 0000 0000
00000070: 0000 0000 0000 0000 bce9 913b a40b 1cbb
00000080: 9586 c1bb a430 a839 7646 c5b9 9138 2aba
00000090: fe20 1ebb e9b6 c73a 5ce2 583b 104b 54b9
000000a0: 5b01 7939 4fdb d639 fd89 1cb3 ca5d 0a33
000000b0: 3c3e 6d33 8062 8eb1 e201 a731 9f1a 1032
000000c0: f693 cd3b 55b1 a9bb ee66 15bc 3800 313a
000000d0: 0a9c 4fba 5f23 b3ba bea2 48bb db29 d13a
000000e0: 16c7 843b ba0a 62b9 bb90 8439 5cc5 e439
000000f0: 0000 0000 0000 0000 0000 0000 0000 0000
00000100: 0000 0000 0000 0000 7343 1c3c 273f ecbb
00000110: f876 5ebc acd1 773a 5556 91ba c3cf faba
00000120: 08aa 123c a4fb e7bb aaf9 52bc c49f 723a
00000130: 5e4a 8eba c98d f5ba a02d b1bb 66ca 813b
00000140: b1b3 fa3b e772 08ba 820b 203a b618 8a3a
00000150: 0000 0000 0000 0000 0000 0000 0000 0000
00000160: 0000 0000 0000 0000 132f daa9 ac99 bc29
00000170: 410d 252a 267f 42a8 8a21 6428 68d8 c428
00000180: 5508 8a2e 8672 5bae 95ce c6ae 626f e42c
00000190: 19f8 05ad 9531 67ad c9d8 ac3a 345c 72ba
000001a0: 019f f1ba a483 ff38 a4d9 15b9 c44c 81b9
000001b0: fcb6 6806 cb40 6186 6a69 b986 3b99 ea04
000001c0: 7495 0985 746e 6d85 b07d 25b0 21b9 be30
000001d0: 3c0a e62f 419f 32af b882 512f 46c7 b42f
000001e0: a565 c43b 2a59 95bb 4a0d 0cbc 2d9b 1c3a
000001f0: 24b0 37ba 4b7f 9eba fd8a ac87 2321 f007
00000200: b4c4 1508 1743 7586 8fd6 8f06 6f39 f806
00000210: 3a2f a132 7d01 5ab2 cd96 e9b2 76a2 e530
00000220: 38ac 06b1 5668 68b1 5475 69bb 1111 5d3b
00000230: 9e05 b03b 0fcb e4b9 ea2d 063a 628e 673a
00000240: 37dc 803b 50d6 37bb dade b4bb 8599 c139
00000250: 2b14 e3b9 f8ef 43ba bccf 923b 00ec 7cbb
00000260: 0881 d7bb 508f 033a 844f 1aba 0d26 85ba
00000270: 9a0b 0e3b 0cf1 d0ba f8a1 4abb 48df 5b39
00000280: 85f2 80b9 0187 deb9 924d 323b 7221 3cbb
00000290: b26a 8abb b39b c139 be16 e3b9 2df2 43ba
000002a0: ad0e febb 5ec5 b13b 1ec0 313c 5f79 3bba
000002b0: e2e4 5b3a e3bc bd3a 3ea5 e5b6 8cf2 a336
000002c0: e2d0 2537 d06f 2cb5 a941 4a35 e784 ae35
000002d0: af11 f3bb 6624 a03b cd20 283c 0da8 29ba
000002e0: c6fe 463a 90b4 ab3a 7ed1 873b d1b4 81bb
000002f0: e3ec ccbb 5729 063a b05c 1dba 14c8 87ba
00000300: 03c2 34bc b337 f63b ee9c 7b3c bf17 82ba
00000310: 0097 983a eca9 033b df74 923b 98d0 33bb
00000320: f444 c7bb 9287 bf39 92a6 e0b9 90d7 41ba
00000330: ca58 203c 2113 03bc e990 68bc 44ce 883a
00000340: b176 a0ba 3075 0abb 825e 4a3b 7737 41bb
00000350: 0efc 9abb 17e5 c739 8476 eab9 0f4f 4aba
00000360: 0000 0000 0000 0000 0000 0000 0000 0000
00000370: 0000 0000 0000 0000 873d 88ba ba77 363a
00000380: 24b0 bd3a 8b1c c1b8 a481 e238 8571 4339
00000390: 4d16 20bb b81e 943a d2ab 4f3b 67f5 21b9
000003a0: 6cf7 3d39 05ea a339 20ae 8d3a df9c dbba
000003b0: 1221 faba 2e78 5e39 9378 82b9 0f28 e1b9
000003c0: 0000 0000 0000 0000 0000 0000 0000 0000
000003d0: 0000 0000 0000 0000 90b6 b592 501b 9912
000003e0: 052e 0913 4ce6 1e91 d060 3a11 85d1 a011
000003f0: feec 243b be79 feba 4190 6bbb 0747 8539
0.0 0.0 0.0 0.0 0.0 0.0 -0.0088521615 0.0053348327
0.012026076 -0.00071144965 0.0008344805 0.0014400795 0.0 0.0 0.0 0.0
0.0 0.0 -0.0033358121 0.0029480245 0.0049416516 -0.00038287102 0.0004490806 0.00077498873
0.0 0.0 0.0 0.0 0.0 0.0 0.004452912 -0.002381065
-0.005905936 0.00032079697 -0.00037627266 -0.00064934144 -0.0024128552 0.0015237007 0.0033093905 -0.00020245858
0.00023746995 0.00040980658 -3.644708e-08 3.221593e-08 5.5237464e-08 -4.143942e-09 4.8605537e-09 8.387956e-09
0.006273742 -0.0051786103 -0.009118779 0.0006752047 -0.0007919675 -0.0013667158 -0.003061458 0.0015957908
0.004052053 -0.00021557036 0.00025284835 0.00043634593 0.0 0.0 0.0 0.0
0.0 0.0 0.0095375655 -0.007209677 -0.013578169 0.0009453546 -0.0011088351 -0.0019135404
0.008951671 -0.0070795584 -0.012876907 0.00092553743 -0.0010855903 -0.0018734272 -0.0054070503 0.0039608954
0.0076508154 -0.000520511 0.00061052304 0.0010535929 0.0 0.0 0.0 0.0
0.0 0.0 -9.689311e-14 8.375535e-14 1.4659542e-13 -1.0796734e-14 1.2663815e-14 2.1854223e-14
6.2769935e-11 -4.9896552e-11 -9.040694e-11 6.4925157e-12 -7.6152635e-12 -1.3141839e-11 0.0013187166 -0.0009245307
-0.0018434228 0.000121838675 -0.00014290825 -0.00024661992 4.3768786e-35 -4.23654e-35 -6.974416e-35 5.5153856e-36
-6.469159e-36 -1.11639735e-35 -6.0205263e-10 1.3876936e-09 4.1844028e-10 -1.6245584e-10 1.905488e-10 3.2883402e-10
0.0059935623 -0.0045577483 -0.00854809 0.0005974051 -0.0007007143 -0.001209238 -2.5961374e-34 3.6130662e-34
4.506928e-34 -4.6128668e-35 5.4105887e-35 9.337162e-35 1.8764343e-08 -1.26896085e-08 -2.7193346e-08 1.6708117e-09
-1.9597461e-09 -3.3819751e-09 -0.0035622912 0.0033732096 0.0053717634 -0.0004363884 0.0005118536 0.00088331674
0.0039325017 -0.0028051324 -0.00551973 0.0003692621 -0.0004331184 -0.0007474418 0.0044803303 -0.0038592815
-0.006576661 0.00050186086 -0.00058864825 -0.0010158435 0.0021674396 -0.0015940978 -0.0030919295 0.00020968646
-0.00024594754 -0.00042443725 0.002720688 -0.0028706458 -0.004224145 0.00036927834 -0.00043313758 -0.00074747467
-0.0077532143 0.0054251393 0.010849027 -0.00071515696 0.0008388293 0.0014475848 -6.8439685e-06 4.8860147e-06
9.883401e-06 -6.42377e-07 7.534641e-07 1.300269e-06 -0.0074178795 0.0048871515 0.010261727 -0.000647188
0.0007591065 0.0013100076 0.0041448465 -0.0039583226 -0.006253825 0.00051178545 -0.0006002886 -0.001035931
-0.011032584 0.007513964 0.015357239 -0.000992529 0.0011641681 0.0020090295 0.0044694985 -0.0027437564
-0.006081218 0.00036531367 -0.00042848714 -0.0007394487 0.009786794 -0.008000166 -0.0141947055 0.0010437449
-0.0012242404 -0.0021126978 0.0030879085 -0.0029482523 -0.0047297543 0.00038126923 -0.0004472026 -0.0007717469
0.0 0.0 0.0 0.0 0.0 0.0 -0.0010394313 0.00069605897
0.001447205 -9.208274e-05 0.00010800667 0.00018638938 -0.0024427355 0.0011300659 0.0031688106 -0.00015445576
0.00018116616 0.0003126414 0.001080934 -0.0016755125 -0.0019083342 0.0002121634 -0.00024885367 -0.0004294519
0.0 0.0 0.0 0.0 0.0 0.0 -1.1467711e-27 9.662391e-28
1.731452e-27 -1.2534968e-28 1.4702645e-28 2.5372675e-28 0.0025165672 -0.0019414944 -0.0035944136 0.00025420656

exp_avg_sq f4 [128, 6]
00000000: 0000 0000 0000 0000 0000 0000 0000 0000
00000010: 0000 0000 0000 0000 9cfa 863c 09c7 213c
00000020: b9e4 103d 3b19 3239 9505 7539 0c6d 363a
00000030: 0000 0000 0000 0000 0000 0000 0000 0000
00000040: 0000 0000 0000 0000 bc22 0f3b 71df ab3a
00000050: c4d0 993b ec39 bd37 5e2a 0238 ead2 c138
00000060: 0000 0000 0000 0000 0000 0000 0000 0000
00000070: 0000 0000 0000 0000 38df 023c 54e7 9c3b
00000080: b582 8c3c 79bb ac38 a0a3 ed38 d0ed b039
00000090: 6042 673a 65b5 0a3a a34c f83a d4b0 1837
000000a0: 0c11 5237 9466 1c38 4131 072b 28f2 ba2a
000000b0: 7d1c 982b 33fc cb27 5b51 0c28 fef0 d028
000000c0: a630 8f3b e5da 2b3b 88d4 193c 5134 3d38
000000d0: 8726 8238 42cd 4139 89ce 853b ac85 203b
000000e0: 81b0 0f3c 13b5 3038 9c1b 7338 2f00 3539
000000f0: 0000 0000 0000 0000 0000 0000 0000 0000
00000100: 0000 0000 0000 0000 b15d b73b 7a9d 5b3b
00000110: 92cc 443c 88cd 7138 fb54 a638 93ad 7739
00000120: 289e c83b 4679 703b b767 573c f861 8438
00000130: a620 b638 6999 8739 8814 d33a d974 7c3a
00000140: ff65 623b 6dfc 8a37 5236 bf37 f75c 8e38
00000150: 0000 0000 0000 0000 0000 0000 0000 0000
00000160: 0000 0000 0000 0000 7923 6016 936c 2416
00000170: e578 fe16 3a6c 3013 66b7 7213 92b5 3414
00000180: 3908 7321 1e6b 1c21 aa8d 0522 6896 2b1e
00000190: 7310 6c1e bbc1 2f1f e031 1439 aa41 b138
000001a0: 60f5 9e39 f52a c335 ae40 0636 ede8 c736
000001b0: 0000 0000 0000 0000 0000 0000 0000 0000
000001c0: 0000 0000 0000 0000 582c 132a 02f7 ba29
000001d0: 8fd6 a12a ad61 cd26 4447 0d27 225f d227
000001e0: afb8 093b 7bdc a43a 31c8 933b 0086 b537
000001f0: e0bb f937 1eef b938 0000 0000 0000 0000
00000200: 0000 0000 0000 0000 0000 0000 0000 0000
00000210: 42ec b729 8a29 4d29 4d66 412a 24af 6226
00000220: 8dee 9b26 1f31 6827 ba35 973b 6f9a 353b
00000230: 427f 223c ffed 4738 3887 8938 97c9 4c39
00000240: a573 973a b73b 353a 9a7a 223b f789 4737
00000250: 6042 8937 1863 4c38 fcb0 5e3b a0ba 053b
00000260: aa4c ef3b 0039 1338 368b 4a38 b1cc 1639
00000270: 9d71 5a38 eae2 0c38 a72c ef38 5350 1a35
00000280: af4c 5435 2e10 1e36 48c9 c33b 093c 6b3b
00000290: 5b6c 523c 017b 8138 8922 b238 62a0 8439
000002a0: b612 963b 9089 333b b9f8 203c 96ab 4538
000002b0: 4ef9 8738 1079 4a39 35b1 5131 9bb9 ed30
000002c0: c3d9 de31 d34d 032e b5a4 342e 927e 062f
000002d0: 7260 c83b e9fc 6f3b 3a05 573c 6f1a 8438
000002e0: 37be b538 2550 8739 7622 e23b 99db 873b
000002f0: 050c 733c cf8f 9538 08c3 cd38 1732 9939
00000300: fe97 2f3c 4e34 d23b d563 bc3c b26c e738
00000310: 6b31 1f39 2b0c ed39 5a35 7e3b f43b 183b
00000320: a267 083c 2698 2738 0592 6638 9baa 2b39
00000330: 0fe4 1c3c cc4b bc3b 1a8d a83c 7e4f cf38
00000340: f39a 0e39 fb58 d439 96ac 503b 7214 fd3a
00000350: 7de1 e03b ff43 0b38 b998 3f38 37a6 0e39
00000360: 0000 0000 0000 0000 0000 0000 0000 0000
00000370: 0000 0000 0000 0000 dcbf d238 d829 7c38
00000380: 4914 6239 33d0 8a35 77f9 be35 a42f 8e36
00000390: 24c3 823b 29e1 1c3b b26e 0c3c 90b3 2c38
000003a0: b998 6d38 c2e5 3039 84ae bc3b e09e 623b
000003b0: 2dbe 4a3c 8a78 7938 519b ab38 4c88 7f39
000003c0: 0000 0000 0000 0000 0000 0000 0000 0000
000003d0: 0000 0000 0000 0000 0000 0000 0000 0000
000003e0: 0000 0000 0000 0000 0000 0000 0000 0000
000003f0: 9d8f f639 c6ce 9339 6660 843a 60bc a236
0.0 0.0 0.0 0.0 0.0 0.0 0.016476922 0.009874114
0.035374377 0.00016984802 0.000233671 0.0006958998 0.0 0.0 0.0 0.0
0.0 0.0 0.0021840772 0.0013112855 0.0046940763 2.2557528e-05 3.1033873e-05 9.242243e-05
0.0 0.0 0.0 0.0 0.0 0.0 0.00798779 0.0047883186
0.01715217 8.2365186e-05 0.00011331518 0.0003374652 0.00088218413 0.0005291312 0.0018943738 9.101077e-06
1.2520944e-05 3.728883e-05 4.802999e-13 3.3208267e-13 1.0808157e-12 5.6617253e-15 7.789202e-15 2.3197153e-14
0.004369813 0.0026223 0.00938905 4.5109835e-05 6.206059e-05 0.00018482379 0.004083459 0.0024493737
0.008770109 4.213031e-05 5.7961428e-05 0.00017261574 0.0 0.0 0.0 0.0
0.0 0.0 0.0055958857 0.0033510611 0.012011664 5.7650293e-05 7.931326e-05 0.00023620417
0.0061223693 0.0036693378 0.013147286 6.3124986e-05 8.6845175e-05 0.00025863506 0.0016104141 0.0009630449
0.0034545658 1.6568427e-05 2.279427e-05 6.788404e-05 0.0 0.0 0.0 0.0
0.0 0.0 1.8105769e-25 1.3282074e-25 4.1112208e-25 2.2267683e-27 3.0635117e-27 9.123486e-27
8.2342485e-19 5.2996624e-19 1.8099857e-18 9.083768e-21 1.24971376e-20 3.721794e-20 0.0001413296 8.4522486e-05
0.00030318927 1.4541134e-06 2.0005205e-06 5.9577783e-06 0.0 0.0 0.0 0.0
0.0 0.0 1.3071608e-13 8.302908e-14 2.8748225e-13 1.4251208e-15 1.9606314e-15 5.838985e-15
0.002101462 0.0012577915 0.0045099487 2.163928e-05 2.97706e-05 8.8660265e-05 0.0 0.0
0.0 0.0 0.0 0.0 8.167817e-14 4.5555173e-14 1.7177336e-13 7.864686e-16
1.0819945e-15 3.2223096e-15 0.004614559 0.0027710458 0.009918036 4.766695e-05 6.5578555e-05 0.00019530054
0.001155485 0.00069135 0.0024792315 1.1893447e-05 1.6362581e-05 4.872968e-05 0.0033980003 0.0020405427
0.0073028402 3.5100617e-05 4.8290203e-05 0.00014381368 5.208106e-05 3.358993e-05 0.00011404725 5.748636e-07
7.9087744e-07 2.3553253e-06 0.0059749223 0.0035893938 0.012843217 6.1741106e-05 8.494134e-05 0.00025296496
0.0045798672 0.0027395226 0.009824925 4.7128262e-05 6.483738e-05 0.0001930932 3.0514233e-09 1.7296772e-09
6.485807e-09 2.9855073e-11 4.107355e-11 1.2232196e-10 0.006115013 0.0036619252 0.013123805 6.299174e-05
8.666183e-05 0.0002580892 0.0069010807 0.004146051 0.014834409 7.13166e-05 9.811489e-05 0.00029219754
0.01071739 0.0064149266 0.022996822 0.000110351844 0.00015181831 0.00045213228 0.0038789124 0.0023229094
0.008325489 3.9957602e-05 5.4972264e-05 0.00016371386 0.009575858 0.0057463404 0.020575095 9.885336e-05
0.00013599898 0.00040502087 0.003184115 0.0019308461 0.006862818 3.320351e-05 4.5680183e-05 0.00013604095
0.0 0.0 0.0 0.0 0.0 0.0 0.00010049317 6.0120452e-05
0.00021560596 1.0342395e-06 1.4228707e-06 4.237476e-06 0.0039905477 0.0023937917 0.008571314 4.1175226e-05
5.6647437e-05 0.0001687026 0.0057581086 0.003457956 0.012374443 5.9478487e-05 8.182845e-05 0.0002436947
0.0 0.0 0.0 0.0 0.0 0.0 0.0 0.0
0.0 0.0 0.0 0.0 0.00047027777 0.00028192083 0.001009953 4.849906e-06

exp_avg f4 [128]
00000000: 0000 0000 b6a9 6538 0000 0000 6830 f737
00000010: 0000 0000 f31c cfb7 20b6 8237 ec55 af2f
00000020: 7df6 59b8 212d 8b37 0000 0000 c495 98b8
00000030: eb62 95b8 b906 2838 0000 0000 f081 6f26
00000040: 6ca6 0cab b352 1db7 ee71 1083 83f5 5b2d
00000050: 30d9 40b8 d102 9704 8163 0daf e5de 0c38
00000060: 2967 eeb7 8501 22b8 b860 87b7 ca69 eeb7
00000070: 1ddc 6638 b857 5433 3aeb 5038 a035 25b8
00000080: 0633 a038 80da ebb7 3977 a8b8 b527 f6b7
00000090: 0000 0000 4ccd ed36 9070 4737 38fa 88b7
000000a0: 0000 0000 2dac 430f f31e a4b7 fabd 0b38
000000b0: 39c8 1515 1ac3 2338 adc2 8e0a 64ae 7436
000000c0: 0000 0000 274c 0eb7 ffa9 adb7 800a 8cb7
000000d0: 4c2a 0000 19f9 9b9a c80c 0000 bfb4 4fb8
000000e0: 270e 18b4 5731 7ea6 19a8 a80c 0000 0000
000000f0: c76a 86b8 5662 2f38 9b63 eb98 6be1 bb38
00000100: 685a ac22 2f11 f083 ee5c a8b6 e51d 4d9d
00000110: 0000 0000 0000 0000 cd65 3338 1cba 5738
00000120: 52a9 0dad 20ad 5fb8 ae53 2a09 e060 44b7
00000130: ebbf 9a92 3726 8bb8 dc4b cdb8 b552 9c38
00000140: 66bf 0137 c3a3 6cb8 9326 60b8 537c b637
00000150: 30bb 6e86 0000 0000 3068 8838 0000 0000
00000160: a82c b1b7 1444 bb35 0e67 2238 9f4e 2114
00000170: 5900 be38 a876 9eb8 22a9 8e38 b28c 00b8
00000180: 97b7 b237 0000 0000 87dc 50b8 e06a 681b
00000190: f6e4 85b7 e71d afb6 125f fdb7 40ac 5c38
000001a0: 83e5 90b5 81fb 8838 ad9a c923 25c4 0200
000001b0: 0000 0000 f828 7a38 488c 0139 a25d 29b7
000001c0: 1bba 6037 fa31 2138 0000 0000 f233 0705
000001d0: adb1 bb37 88fb 0138 fca8 2538 0000 0000
000001e0: 5293 12b8 0630 ff36 0000 0000 fb6e ba37
000001f0: 0000 0000 0000 0000 eaf1 f536 7c8b d537
0.0 5.475591e-05 0.0 2.9467235e-05 0.0 -2.4689803e-05 1.5582016e-05 3.1893366e-10
-5.196639e-05 1.6591106e-05 0.0 -7.275821e-05 -7.1232986e-05 4.0060582e-05 0.0 8.309588e-16
-4.996895e-13 -9.377184e-06 -4.244858e-37 1.2503223e-11 -4.597864e-05 3.5502516e-36 -1.2859226e-10 3.3586188e-05
-2.8419849e-05 -3.8625225e-05 -1.6138292e-05 -2.8421073e-05 5.504127e-05 4.9439876e-08 4.9810136e-05 -3.9389008e-05
7.6388984e-05 -2.811593e-05 -8.033071e-05 -2.9343975e-05 0.0 7.08705e-06 1.1887532e-05 -1.632898e-05
0.0 9.647402e-30 -1.9564735e-05 3.3317112e-05 3.0248258e-26 3.904393e-05 1.3747331e-32 3.6460342e-06
0.0 -8.48159e-06 -2.0702368e-05 -1.669419e-05 1.5173e-41 -6.4508936e-23 4.585e-42 -4.952098e-05
-1.4161252e-07 -8.819082e-16 2.5985669e-31 0.0 -6.409507e-05 4.1814834e-05 -6.0846652e-24 8.958842e-05
4.6716415e-18 -1.4109877e-36 -5.0176086e-06 -2.714698e-21 0.0 0.0 4.2771735e-05 5.1433322e-05
-8.052519e-12 -5.332858e-05 2.0502352e-33 -1.1705066e-05 -9.766078e-28 -6.6351546e-05 -9.789292e-05 7.454065e-05
7.733563e-06 -5.64193e-05 -5.3441687e-05 2.1753984e-05 -4.4900349e-35 0.0 6.504392e-05 0.0
-2.1120839e-05 1.3952399e-06 3.8719787e-05 8.143928e-27 9.059971e-05 -7.5561285e-05 6.802591e-05 -3.064861e-05
2.1304744e-05 0.0 -4.9796447e-05 1.9225123e-22 -1.5961454e-05 -5.2188875e-06 -3.020422e-05 5.2612508e-05
-1.0795633e-06 6.5318316e-05 2.1857971e-17 2.54034e-40 0.0 5.96428e-05 0.00012354658 -1.0094986e-05
1.33947715e-05 3.8431936e-05 0.0 6.35721e-36 2.2374874e-05 3.0990253e-05 3.9496445e-05 0.0
-3.4946315e-05 7.605183e-06 0.0 2.2224607e-05 0.0 0.0 7.3297315e-06 2.5456531e-05

exp_avg_sq f4 [128]
00000000: 0000 0000 d608 8735 0000 0000 b378 0f34
00000010: 0000 0000 3af7 0235 5f8a 6733 68a9 1a24
00000020: 8274 8f34 cdfa 8534 0000 0000 d255 b734
00000030: d6be c834 2dc2 d233 0000 0000 8fc3 850f
00000040: 1419 821a fcf9 1332 0000 0000 6eb8 1b23
00000050: a5a1 0934 0000 0000 3cdf ab22 4396 9734
00000060: 5d4a 9733 a63f 5f34 7800 6a31 3c58 c434
00000070: b7df 9534 111c 472a 5b52 c834 b3cb e234
00000080: 6477 2f35 ef23 7e34 d52e 1d35 b22e 5334
00000090: 0000 0000 297f d231 40f1 8234 2926 bd34
000000a0: 0000 0000 0000 0000 d5c5 f632 72a4 3a34
000000b0: 0000 0000 6056 ed34 0000 0000 4362 e735
000000c0: 0000 0000 e711 5f33 2e1b 9533 04e3 6833
000000d0: 0000 0000 3d00 0000 0000 0000 3209 3d34
000000e0: 4ad0 eb2f 4d2a b30f 0000 0000 0000 0000
000000f0: 24e3 8634 51cf f733 0400 0000 2dca 7a35
00000100: 22a1 160b 0000 0000 4c0f ca33 7e01 0200
00000110: 0000 0000 0000 0000 dbb4 5834 42e4 4534
00000120: 66e6 151d 6b67 4734 0000 0000 a25a 5c34
00000130: 0000 0000 b381 2d35 94ef 2c35 036c c934
00000140: 5cab b232 e2a2 ad34 bd03 a534 3a47 fc32
00000150: 0000 0000 0000 0000 fa6d 8834 0000 0000
00000160: d4fd c533 145d 1b35 5bf6 b033 0000 0000
00000170: 0209 1535 50ec 0b35 fdb1 9b34 a368 5d35
00000180: 7c4a 1e33 0000 0000 782a 4034 7cff 0100
00000190: 1540 c332 7366 6135 f0b7 8833 d1ac 5434
000001a0: e089 0c31 7276 8434 df74 130c 0000 0000
000001b0: 0000 0000 5470 5835 41ce 8d35 5b4a 2535
000001c0: 2d4d 1332 0fd2 0b34 0000 0000 0000 0000
000001d0: a3b1 ee34 14b5 1334 eddd a332 0000 0000
000001e0: 07c7 a134 14c9 d52f 0000 0000 d505 a333
000001f0: 0000 0000 0000 0000 fcd8 e831 f990 1d33
0.0 1.0060855e-06 0.0 1.3361823e-07 0.0 4.8788536e-07 5.3909726e-08 3.353692e-17
2.6720596e-07 2.4955662e-07 0.0 3.414885e-07 3.7391754e-07 9.8142074e-08 0.0 1.3190139e-29
5.3807256e-23 8.613366e-09 0.0 8.441621e-18 1.2817925e-07 0.0 4.6586e-18 2.8235272e-07
7.045012e-08 2.0791649e-07 3.4051748e-09 3.6572044e-07 2.7916187e-07 1.7684488e-13 3.7312824e-07 4.224399e-07
6.5366316e-07 2.3668666e-07 5.855521e-07 1.9667894e-07 0.0 6.126261e-09 2.438992e-07 3.5231758e-07
0.0 0.0 2.8728133e-08 1.7382425e-07 0.0 4.4207536e-07 0.0 1.7239439e-06
0.0 5.1937516e-08 6.943297e-08 5.422318e-08 0.0 8.5e-44 0.0 1.7605342e-07
4.289425e-10 1.7667056e-29 0.0 0.0 2.5124712e-07 1.15395444e-07 6e-45 9.342646e-07
2.9010172e-32 0.0 9.4091405e-08 1.84206e-40 0.0 0.0 2.0182362e-07 1.8430094e-07
1.98391e-21 1.8570942e-07 0.0 2.0522069e-07 0.0 6.463626e-07 6.4423625e-07 3.7517756e-07
2.0799853e-08 3.2342274e-07 3.0736365e-07 2.9369051e-08 0.0 0.0 2.5411993e-07 0.0
9.2196984e-08 5.7877446e-07 8.2404505e-08 0.0 5.5519934e-07 5.2125415e-07 2.9000503e-07 8.248118e-07
3.6854985e-08 0.0 1.7896843e-07 1.83486e-40 2.2730129e-08 8.3968115e-07 6.3664515e-08 1.9806909e-07
2.0451054e-09 2.4673096e-07 1.1359638e-31 0.0 0.0 8.062973e-07 1.0565346e-06 6.157549e-07
8.574074e-09 1.3021803e-07 0.0 0.0 4.4460202e-07 1.3756318e-07 1.9076618e-08 0.0
3.0133398e-07 3.888735e-10 0.0 7.59134e-08 0.0 0.0 6.776757e-09 3.6686263e-08

exp_avg f4 [128, 128]
00000000: 0000 0000 352b cf29 0000 0000 ce9e d828
00000010: 0000 0000 81e3 7f29 93af a929 8a19 1d9f
00000020: 239a e728 5edb 8729 0000 0000 e6cd f128
00000030: 175d 7328 7e26 8728 0000 0000 15a9 f594
00000040: 74a9 2b9a 4a8c 7629 0000 0000 536b f69d
00000050: ad30 cd28 0000 0000 019f 749b 119c 8429
00000060: a1c3 9128 7336 2e29 510d eea4 7b36 c928
00000070: 623d db27 cfb9 9c9f ca11 5629 4904 a829
00000080: 8d39 1729 2d36 8629 f3af d828 16d9 b227
00000090: 0000 0000 6250 5129 837d a028 9544 9a29
000000a0: 0000 0000 73cb 0100 875a a428 2b4a c128
000000b0: 3b8d 9d82 e137 b528 0800 0080 0a06 c829
000000c0: 0000 0000 00ff f928 8a34 6729 987f a229
000000d0: 0000 0000 baf9 c989 0000 0000 6b3b 4e29
000000e0: 7d30 ce28 eb9a 1292 ce0a 0080 0000 0000
000000f0: 2a26 a627 894b 0f29 48ef e98a d100 ba28
00000100: ab49 1d91 0000 0000 1d8a c026 c15d 1c8c
00000110: 0000 0000 0000 0000 7ed9 f729 7c73 3529
00000120: b57b f69b dfd3 dc28 ab00 0080 4648 2f29
00000130: 5c36 ab81 d71e 0b29 f7cd 0228 f631 3a29
00000140: 285c 5929 f114 3729 bc5f 4529 8734 8d26
00000150: 0100 0080 0000 0000 0293 0329 0000 0000
00000160: 29a9 3229 d617 8029 650e 0928 f9a1 4684
00000170: a769 3329 d1cf 2528 da15 bc29 0e93 7329
00000180: 825b 4129 0000 0000 7e10 7928 e625 988b
00000190: f8b0 a027 642d b029 a651 fd29 adaa 0429
000001a0: 1750 56a3 0a02 d229 fb0b 9191 0000 0000
000001b0: 0000 0000 8ffd 4128 fd32 b828 5ed9 aa26
000001c0: 20cf 99a4 13ab b528 0000 0000 0b00 0080
000001d0: 6ae4 a729 4fa2 4629 0ee9 fa26 0000 0000
000001e0: 947b 8f29 87b9 f0a4 0000 0000 86be 6229
000001f0: 0000 0000 0000 0000 54d1 fb28 266b 1e29
00000200: 0000 0000 0000 0000 0000 0000 0000 0000
00000210: 0000 0000 0000 0000 0000 0000 0000 0000
00000220: 0000 0000 0000 0000 0000 0000 0000 0000
00000230: 0000 0000 0000 0000 0000 0000 0000 0000
00000240: 0000 0000 0000 0000 0000 0000 0000 0000
00000250: 0000 0000 0000 0000 0000 0000 0000 0000
00000260: 0000 0000 0000 0000 0000 0000 0000 0000
00000270: 0000 0000 0000 0000 0000 0000 0000 0000
00000280: 0000 0000 0000 0000 0000 0000 0000 0000
00000290: 0000 0000 0000 0000 0000 0000 0000 0000
000002a0: 0000 0000 0000 0000 0000 0000 0000 0000
000002b0: 0000 0000 0000 0000 0000 0000 0000 0000
000002c0: 0000 0000 0000 0000 0000 0000 0000 0000
000002d0: 0000 0000 0000 0000 0000 0000 0000 0000
000002e0: 0000 0000 0000 0000 0000 0000 0000 0000
000002f0: 0000 0000 0000 0000 0000 0000 0000 0000
00000300: 0000 0000 0000 0000 0000 0000 0000 0000
00000310: 0000 0000 0000 0000 0000 0000 0000 0000
00000320: 0000 0000 0000 0000 0000 0000 0000 0000
00000330: 0000 0000 0000 0000 0000 0000 0000 0000
00000340: 0000 0000 0000 0000 0000 0000 0000 0000
00000350: 0000 0000 0000 0000 0000 0000 0000 0000
00000360: 0000 0000 0000 0000 0000 0000 0000 0000
00000370: 0000 0000 0000 0000 0000 0000 0000 0000
00000380: 0000 0000 0000 0000 0000 0000 0000 0000
00000390: 0000 0000 0000 0000 0000 0000 0000 0000
000003a0: 0000 0000 0000 0000 0000 0000 0000 0000
000003b0: 0000 0000 0000 0000 0000 0000 0000 0000
000003c0: 0000 0000 0000 0000 0000 0000 0000 0000
000003d0: 0000 0000 0000 0000 0000 0000 0000 0000
000003e0: 0000 0000 0000 0000 0000 0000 0000 0000
000003f0: 0000 0000 0000 0000 0000 0000 0000 0000
0.0 9.200142e-14 0.0 2.4049688e-14 0.0 5.6818702e-14 7.535565e-14 -3.326717e-20
2.5712998e-14 6.0332585e-14 0.0 2.6845669e-14 1.3509395e-14 1.5004704e-14 0.0 -2.4805369e-26
-3.5498854e-23 5.4744654e-14 0.0 -6.522663e-21 2.2780682e-14 0.0 -2.0234584e-22 5.889051e-14
1.6183074e-14 3.868299e-14 -1.03238606e-16 2.233911e-14 6.085126e-15 -6.6375964e-20 4.7532975e-14 7.461442e-14
3.3578653e-14 5.9601934e-14 2.4057123e-14 4.964029e-15 0.0 4.6477043e-14 1.7818e-14 6.850871e-14
0.0 1.6482e-40 1.8246918e-14 2.145947e-14 -2.315014e-37 2.011927e-14 -1.1e-44 8.882832e-14
0.0 2.7755142e-14 5.1337874e-14 7.216379e-14 0.0 -4.862383e-33 0.0 4.5792725e-14
2.2891623e-14 -4.626043e-28 -3.876e-42 0.0 4.6115633e-15 3.1817895e-14 -2.2527091e-32 2.0650502e-14
-1.2407817e-28 0.0 1.3360112e-15 -1.2046016e-31 0.0 0.0 1.10067324e-13 4.029024e-14
-4.077723e-22 2.4516791e-14 -2.4e-43 3.8920493e-14 -6.289348e-38 3.089095e-14 7.261111e-15 4.134363e-14
4.8263612e-14 4.0652326e-14 4.3825824e-14 9.798078e-16 -1e-45 0.0 2.9215352e-14 0.0
3.9670663e-14 5.688477e-14 7.608149e-15 -2.3349162e-36 3.9837623e-14 9.204403e-15 8.352668e-14 5.408439e-14
4.293398e-14 0.0 1.3825853e-14 -5.8605294e-32 4.460079e-15 7.823844e-14 1.1249621e-13 2.9457925e-14
-1.1617923e-17 9.326227e-14 -2.288435e-28 0.0 0.0 1.0768634e-14 2.0450216e-14 1.1855037e-15
-6.6704056e-17 2.0169228e-14 0.0 -1.5e-44 7.455913e-14 4.4105612e-14 1.7410404e-15 0.0
6.371913e-14 -1.04397704e-16 0.0 5.0347333e-14 0.0 0.0 2.795738e-14 3.5175984e-14
0.0 0.0 0.0 0.0 0.0 0.0 0.0 0.0
0.0 0.0 0.0 0.0 0.0 0.0 0.0 0.0
0.0 0.0 0.0 0.0 0.0 0.0 0.0 0.0
0.0 0.0 0.0 0.0 0.0 0.0 0.0 0.0
0.0 0.0 0.0 0.0 0.0 0.0 0.0 0.0
0.0 0.0 0.0 0.0 0.0 0.0 0.0 0.0
0.0 0.0 0.0 0.0 0.0 0.0 0.0 0.0
0.0 0.0 0.0 0.0 0.0 0.0 0.0 0.0
0.0 0.0 0.0 0.0 0.0 0.0 0.0 0.0
0.0 0.0 0.0 0.0 0.0 0.0 0.0 0.0
0.0 0.0 0.0 0.0 0.0 0.0 0.0 0.0
0.0 0.0 0.0 0.0 0.0 0.0 0.0 0.0
0.0 0.0 0.0 0.0 0.0 0.0 0.0 0.0
0.0 0.0 0.0 0.0 0.0 0.0 0.0 0.0
0.0 0.0 0.0 0.0 0.0 0.0 0.0 0.0
0.0 0.0 0.0 0.0 0.0 0.0 0.0 0.0
