results/ppo/My Behavior/My Behavior-102201.onnx (onnx, 75098 bytes, 7 tensors)

network_body._body_endoder.seq_layers.0.weight f4 [128, 6]
00000000: a2f5 223e e58b 573e 9458 8c3e 5528 d0be
00000010: d186 533e 1286 b7be 28d0 9cbd cc10 1d3d
00000020: a2d9 073f 5b85 9abe 2daa 7abd 31af 4cbe
00000030: 4d7f 3fbe 31a6 243f 3c18 0b3f 4b76 7abe
00000040: 954c 08bf 398e a13d f604 7ebe e2f6 29bf
00000050: 67ff ecbd 75be 363d 99c3 50be 6718 1ebf
00000060: 66ea 723d f3fe 133f 2b48 663e 9e41 d7be
00000070: 4b86 c23e 389c 15be 4565 44bd ff7d 91be
00000080: 39bd 883c d1e4 26bf d657 283f 94ed 9bbe
00000090: 50d7 3bbf a254 9abe b48d cd3d b96f f53e
000000a0: 384d fa3e 4c17 f93d b527 f93c 6b6f 07bf
000000b0: dcfc f6be dc9e 0d3e cd5d 203f a2a1 eebe
000000c0: fd51 803d 4d5c 5ebf 4c8b ac3d b57e bdbd
000000d0: 5fa0 813c dc4d f0bd dc8b 63be 683a 87bf
000000e0: 09ca 49be 5552 8a3d 67b9 683f 6b54 b13e
000000f0: 3da7 bf3e 77fd 06bd 7c49 5ebe c633 1c3f
00000100: d0ed b4bc 5ae1 823f 479a cdbe baaf 4b3e
00000110: 3d55 b83d 0e4f 2bbe 217e 7c3d f388 913e
00000120: 4d64 87bf b375 033f 3b80 de3c d85b 51be
00000130: b88b 743e 9c6a 6a3e 8a81 093c 9c90 813c
00000140: e3fd 36bc ad29 803e 3fe0 53be 524c 583a
00000150: 0dcf bfbd 4db8 4abe 0d26 b23e 45cc dc3d
00000160: 8977 d23e 922d 9fbe 0896 373f 9e1b aebe
00000170: de7b afbe 3379 083e 776a bb3e c1f0 6a3d
00000180: 0aaf 6ebd a275 53bc 2c08 bdbc c6e7 203f
00000190: 7aef 873d 8c51 76bf b837 c5be 95e6 c23e
000001a0: 6dca d23e f5c2 97be 3e36 bf3e 36c9 8cbf
000001b0: e5b5 983d ead3 71be a584 01bf 664f 0f3e
000001c0: 2d74 b23e 6abd b4be a819 d13c ac34 22bf
000001d0: c31a 473d 8ba4 cc3c 5244 0dbe 2551 27be
000001e0: 7083 683f 25ae 6fbe e849 8f3e a9c2 ddbd
000001f0: 9261 863e 6595 613e 0812 afbe 7e9a a6be
00000200: e661 483e b3fa ebbe 1de2 343f 544f 173e
00000210: 8418 80bf 918f 4b3d c6ab 4ebd 4588 57be
00000220: 7c85 aebd 1e3a 8d3f 8d55 e33e 06e6 18bf
00000230: 8701 90be 9da4 d2be 9a30 a83d d86e 5a3e
00000240: 4c09 3abe 6c29 153d 2bd5 b33e 2822 943e
00000250: 3c04 1b3f 3493 59bf 80be 5d3d b0f3 1a3f
00000260: d6a2 c6bb 7e5d 0abf 0659 efbe 3304 99be
00000270: 738a 453d 2a91 1e3c e3d0 17be 10a8 69be
00000280: 652e 663d f7db b6be 282f 0c3e 85b5 bbbe
00000290: a50c 613f f6df abbe 844e 113f 2705 60bf
000002a0: 959c b03e a508 913e c8d1 3dbe 1aa7 b2bf
000002b0: 340b 433f 45f8 9c3e f9c8 433e 66db 083d
000002c0: e13d 2d3e fbbd 353f 7a18 98be 3dcc ae3e
000002d0: b8ee 1fbe ee56 d73e dc9f 883e 86f7 eebe
000002e0: f073 083f f816 0fbe f321 3f3e 9883 32be
000002f0: cd46 00be 9c1d 9c3e bd44 6ebe 2ddc 9c3d
00000300: bcbd 033f 3836 55bd edab e8bd 5b07 4abf
00000310: 2dc5 9a3e 0089 61be 3d26 4fbd dd57 72bd
00000320: 3678 103e 4b8d f23d f6e1 31be a8db f8be
00000330: e893 533c 39cf a9be 216b 863e 0711 e7be
00000340: 71bd ca3e f6e6 2e3e 14b7 aebe 95f1 79bd
00000350: 94d9 323e 5710 713d 2fba cebd bb4b 2a3e
00000360: a1c3 3bbd 0ca0 c43e 0829 95be 9a4a bfbe
00000370: 5745 4b3e d278 fe3d 70c2 6ebe 8798 93be
00000380: ecc9 813d ace7 f5be 29df e63d 3997 a63d
00000390: 0dbf 933e d318 5cbe e0b7 97be c513 963e
000003a0: 2513 5d3e 9f37 583f 7dee 05bf 9949 373e
000003b0: 97df 38bf 94b2 39be 76fe e6be acf7 a53f
000003c0: a576 f83d 9cb5 e73d 8a73 7c3d 0e27 2abd
000003d0: d340 953e c9a5 fdbe 81e6 e73e dbf4 d83e
000003e0: f99f b6be 7b68 38be d6f2 82be 70ab 70bf
000003f0: d429 393f 621d ff3e 640c f93e 5b07 7cbe
0.15914014 0.2104946 0.2741133 -0.4065577 0.20656897 -0.35844475 -0.0765689 0.038346097
0.53066456 -0.30179867 -0.06119745 -0.19988705 -0.18700905 0.6431609 0.54333854 -0.24459188
-0.53241855 0.07888455 -0.2480658 -0.6639234 -0.11572152 0.044615228 -0.20387115 -0.61755985
0.05930557 0.57810897 0.22488467 -0.4204225 0.37993082 -0.14610374 -0.04794814 -0.2841644
0.01669179 -0.65192896 0.65759027 -0.30454695 -0.73375416 -0.30142695 0.10036793 0.479368
0.48887038 0.12162647 0.030414442 -0.52904385 -0.4823979 0.13830131 0.6264313 -0.4660769
0.06265638 -0.8685959 0.08425006 -0.09252683 0.015823541 -0.117336005 -0.22221321 -1.0564699
-0.19705977 0.06753985 0.909079 0.34634718 0.3743228 -0.032956567 -0.2170772 0.610165
-0.022086054 1.0225022 -0.40156767 0.19891253 0.09000633 -0.16729376 0.061643723 0.28424796
-1.0577484 0.5135147 0.027160754 -0.20445192 0.23881423 0.22892231 0.008392701 0.015816025
-0.01116893 0.25031796 -0.20691012 0.00082511187 -0.09365664 -0.19796868 0.34794655 0.10781149
0.41106823 -0.31089455 0.71713305 -0.34005445 -0.3427419 0.13327484 0.36604664 0.057358507
-0.0582724 -0.012906464 -0.023075186 0.6285366 0.066374734 -0.9621818 -0.38519073 0.38066545
0.41170064 -0.29640928 0.3734607 -1.0998905 0.07456569 -0.23615995 -0.50593024 0.13995132
0.3485426 -0.3530076 0.02552493 -0.6336162 0.048609506 0.024980804 -0.13795593 -0.16339548
0.9082556 -0.23406275 0.27986073 -0.10828144 0.26246315 0.22029646 -0.34193444 -0.32539743
0.19568595 -0.46089706 0.7065752 0.14776355 -1.0007482 0.049697462 -0.050456785 -0.21048076
-0.08521554 1.1033361 0.44401208 -0.5972599 -0.28126165 -0.41141215 0.08212395 0.21331346
-0.18167609 0.036416456 0.35123572 0.2893231 0.60553336 -0.8499024 0.054136753 0.6052809
-0.006061892 -0.5404891 -0.46747607 -0.29886016 0.04822774 0.0096781645 -0.14825778 -0.22818017
0.05619659 -0.35714695 0.13689864 -0.36661926 0.8790992 -0.33569306 0.5676043 -0.8750786
0.34494463 0.28326908 -0.18537056 -1.3957245 0.7618897 0.30658165 0.19119634 0.03341236
0.16918136 0.7099301 -0.29706174 0.34140196 -0.15618408 0.4205851 0.26684463 -0.4667322
0.53301907 -0.13973606 0.18665294 -0.17433012 -0.12527008 0.3049134 -0.23268409 0.07659183
0.51461387 -0.05205366 -0.11360917 -0.78917474 0.30228558 -0.22024918 -0.050573576 -0.059165824
0.14108357 0.11843356 -0.17371354 -0.48605084 0.012913682 -0.3316591 0.26253608 -0.45130178
0.39597657 0.17080292 -0.34124053 -0.061021406 0.17465812 0.058853474 -0.100941055 0.16630451
-0.045840863 0.38403356 -0.29132867 -0.37361604 0.1985067 0.124253884 -0.2331636 -0.28827307
0.06337342 -0.48028314 0.11273033 0.08134312 0.28856698 -0.21493845 -0.29632473 0.29311958
0.21589334 0.8445987 -0.5231703 0.17899169 -0.7221617 -0.18134528 -0.45116013 1.2966208
0.12132005 0.11313936 0.061633624 -0.04154115 0.2915102 -0.49540547 0.45293048 0.4237431
-0.35668924 -0.18008606 -0.25575894 -0.9401159 0.7232945 0.49827105 0.48642266 -0.24612181

network_body._body_endoder.seq_layers.0.bias f4 [128]
00000000: 8708 55bb c5c4 553b ea71 573b 0000 0000
00000010: a89f 3dbb 0000 0000 dd05 9dbb 0000 0000
00000020: 0000 0000 0000 0000 0000 0000 0bc7 d23a
00000030: c072 2cbb 4e01 b2b8 06d0 ffba 0000 0000
00000040: 5d01 f9bb 7278 dd3b 0000 0000 0000 0000
00000050: 0000 0000 fbfd f6bb a031 5cbc 0000 0000
00000060: c4f3 aa3b cb87 823a 0000 0000 0054 203b
00000070: 0000 0000 732d 58bb 4804 5b3a 0000 0000
00000080: 0000 0000 4d89 12bb 1bc3 f7ba 1110 a33b
00000090: 79e9 7318 d126 1bbc 0000 0000 0000 0000
000000a0: 53a3 ca39 0000 0000 7228 713b af92 700d
000000b0: 0ae5 62ba 0000 0000 03bc bf3b 0000 0000
000000c0: 672b a917 07f2 b23a a52b 993a f4b8 debb
000000d0: 0000 0000 0000 0000 d6b3 f13b 0000 0000
000000e0: d52c e13b a26a 8d3b 0000 0000 67f9 fd3b
000000f0: d654 323b c0e3 903a 0000 0000 0000 0000
00000100: 0000 0000 0000 0000 0000 0000 fed1 2f3b
00000110: 42d3 263b 48f0 803b 0000 0000 0000 0000
00000120: 0000 0000 0000 0000 0000 0000 b49d 433b
00000130: 0000 0000 9cd3 fbbb 0000 0000 8199 d739
00000140: 0000 0000 0000 0000 0000 0000 f09d a73b
00000150: 0000 0000 ddcb 5abb 0000 0000 3abc edbb
00000160: 0000 0000 a88d f6bb f047 043a 0000 0000
00000170: 0000 0000 0000 0000 3f96 cf3b ce22 bebb
00000180: 5688 323a 0000 0000 ab43 bfba 0000 0000
00000190: 7e55 ca3b beb7 ce3b a169 02bc 93a9 813b
000001a0: 380b 2cbb 7c23 69bb 0000 0000 0000 0000
000001b0: d0a3 cfbb 0041 abba 7817 683a 0000 0000
000001c0: 617c a5bb 0000 0000 5275 473b 0000 0000
000001d0: 70a1 aeb9 0000 0000 0000 0000 4406 dd3b
000001e0: 0000 0000 0000 0000 b3e3 c6bb 0000 0000
000001f0: 0000 0000 e438 453b 0000 0000 ddb3 4b3b
-0.0032506303 0.0032618504 0.0032874295 0.0 -0.0028934274 0.0 -0.0047919587 0.0
0.0 0.0 0.0 0.0016081048 -0.0026313514 -8.4879444e-05 -0.0019516952 0.0
-0.0075990395 0.006758743 0.0 0.0 0.0 -0.007537601 -0.013439566 0.0
0.0052170474 0.0009958682 0.0 0.002446413 0.0 -0.0032986074 0.0008354825 0.0
0.0 -0.002235967 -0.001890275 0.0049762805 3.1524887e-24 -0.009469704 0.0 0.0
0.00038650128 0.0 0.003679779 7.4132274e-31 -0.00086553453 0.0 0.00585127 0.0
1.0932325e-24 0.0013652452 0.0011685981 -0.0067969505 0.0 0.0 0.0073761744 0.0
0.0068717995 0.00431569 0.0 0.0077506783 0.002721121 0.0011054203 0.0 0.0
0.0 0.0 0.0 0.0026828046 0.002545551 0.0039348938 0.0 0.0
0.0 0.0 0.0 0.0029848637 0.0 -0.007685138 0.0 0.00041122365
0.0 0.0 0.0 0.005115263 0.0 -0.0033385672 0.0 -0.0072551044
0.0 -0.007524211 0.000504612 0.0 0.0 0.0 0.0063350494 -0.005802489
0.0006810477 0.0 -0.001459231 0.0 0.0061747422 0.006308525 -0.007959754 0.0039569824
-0.0026251804 -0.003557413 0.0 0.0 -0.0063366666 -0.0013065636 0.0008853595 0.0
-0.0050502275 0.0 0.0030434919 0.0 -0.00033308147 0.0 0.0 0.0067451317
0.0 0.0 -0.0060696243 0.0 0.0 0.0030093724 0.0 0.0031082549

network_body._body_endoder.seq_layers.2.weight f4 [128, 128]
00000000: 3ee3 313d f561 86bd df39 b13d 0a0a 11be
00000010: 94ff b23d e57e 103c f4a7 ac3d a14e 05be
00000020: c644 7cbd 5431 443e 0701 77bd b565 dfbb
00000030: 54ac 663e 5a11 90bd 5834 2c3d e1c3 29bd
00000040: aaa9 393d 8e0c 01bc 909e f2bc b123 a6bd
00000050: e71e 763c aaf8 e9bc f1b9 e5bc e6ac 11bd
00000060: 3a3f 05bd 8713 fc3c ffb5 373d ebc1 bf3d
00000070: 3d43 13be f570 103e a6dd 9d3d db1a e33d
00000080: e8df 6b3b 1003 9dbd e1f8 433d b452 e03c
00000090: 8340 cd3b 1d48 2b3d 7edb fbbd 8daa 87bb
000000a0: c062 febd df2b 94bd 58bb bb3d f731 efbc
000000b0: 044a 6dbd 90b4 7ebd 0352 e43d a754 2abe
000000c0: d9f8 cc3d 5b17 dc3c efdd d13d 5d3f 5ebe
000000d0: ab30 383c cee3 f7bc d5c2 b5bc 2b13 1abd
000000e0: 40a1 173e ce3c 5c3e 23be 403b ac80 6b3d
000000f0: 130f 90bd dd4f bb3d e130 0a3e 4aa7 13bd
00000100: 6e7b 3c3e fcb8 97bc bc4c 3c3d ad85 adbd
00000110: 74c5 0e3e c0c5 0abc 31ae 933e ad9f 67bc
00000120: 7609 703d f0a0 00bd a287 a0bc 4598 133e
00000130: a4c7 da3b ae3e 213e 90b9 a5bd 22f7 7dbd
00000140: b2d3 acbc 3e7c fdbc 8d4c ae3d 6ab9 f8bd
00000150: 07e1 babd 59d0 11bc 5cff 873d 0ceb 2d3c
00000160: 9709 23be 0a24 1bbe 6147 04bd f72f 013d
00000170: c766 223d 12df d3ba 2491 983d b44a 053e
00000180: 9566 94bd 5575 d0bd 067e 8f3c 90f2 a5bd
00000190: 26a4 713d dd72 e6bc 5b7f 233d 41d3 b0bd
000001a0: 98c3 323c 0dfb aabd ff8f 303d 126b 843c
000001b0: 05c0 32be 3620 0ebe dc5b f13c 30cd a63d
000001c0: d342 16bd 3ec5 d8bc 9841 163d da36 993b
000001d0: a656 553e 8c02 ce3d e842 8cbc cc21 203a
000001e0: 7147 37bd 6783 44bc 7b1d 93bd 4cda ed3d
000001f0: c1ce 9d3b aa26 ddbd cc0e b13c 3550 45bd
00000200: d66c 8dbc a6c3 d73d c1ba b9bd 20af 173e
00000210: a61a 053c 406e 3bbe d173 db3b 4434 9dbd
00000220: e34c 443d 54ab 0cbe 9e4d 20bd f554 ad3e
00000230: baf4 b5bd 11ac 953d 240f a93d 6a31 0e3c
00000240: e9dd 313d 45ef a1bd a3f8 5fbd 4134 123c
00000250: 6cd0 76ba 2e8d 60bd 0e96 553d 23b3 52bd
00000260: 6c41 9abd c16c 173d f63d 15be 98b7 b839
00000270: 3827 9c3d 31b6 053c 7dc8 cc3d c690 1b3e
00000280: a123 063d e59a a93b bb05 ef3d 8e6f e4bd
00000290: 2720 36bd 8f7e 23bc a224 e83c 019b 13bd
000002a0: 43cc 283e b6b0 8cbd d281 28bd ad98 173d
000002b0: 3511 45be 0ed0 083d bdc2 293b 017d c8bd
000002c0: e6cc e93d b8db 033e 6338 8fbc 6ebd 773c
000002d0: 6a5c b5bd 4e45 c5bb 71ca 673d 4b00 27bd
000002e0: 676d 593d daa9 c73d a4a1 4fbd 903e 12be
000002f0: 8aff 8c3d 59af f93c 5944 b6bd 2b53 b1bd
00000300: 1f9f c9bd 8cc0 97bd 15a8 1a3d 06e3 c33d
00000310: 3033 963d 455f 673d 6508 d7bd 07f8 403d
00000320: f01e 313c 082d 88bd b10f 403d 7bc7 233e
00000330: 96d5 a13d 280a 5e3d 9a65 1abd b6ed 013d
00000340: bb7b a8bc 7142 fa3c fd0b bebc 1164 273e
00000350: df80 f43c 1057 f03d a223 f83d 74d8 a1bd
00000360: a4cd 71bb cadd 70bc 35d4 2fbe ccb3 a23d
00000370: b6b0 b23c 2dda f8bd 2ebb 753d 7aac 50bd
00000380: 3368 343c dc92 0f3d 538a d5bd b1f9 93bd
00000390: 2178 04be 2a60 bb3c 1b42 0bbd 7ca4 25bb
000003a0: 9887 a2bc 79a9 513d 05bd d0bd 7a9b 043e
000003b0: 9b26 1fbe fd0c 04bc c5d7 ca3d 427a 183d
000003c0: c803 e7bc ab47 9c3d 2a6c 84bc b793 53bd
000003d0: 1d7a 1f3e dd0d 54bc 5fd9 18bd 2070 6c3d
000003e0: d06d 523b 2770 81bd 9fb2 c6bd 6674 eb3a
000003f0: 9f57 163e 2f18 9e3d 8d74 91bd 8bee 5abd
0.043429606 -0.065616526 0.08653616 -0.14163986 0.08740154 0.0088193165 0.08430472 -0.13018276
-0.061589025 0.19159442 -0.060303714 -0.0068175443 0.22526675 -0.070345595 0.042042106 -0.04144657
0.04532782 -0.007876528 -0.029616624 -0.08112276 0.015022016 -0.028560955 -0.028042765 -0.03556528
-0.032531 0.03077103 0.0448513 0.09363159 -0.14381118 0.1410559 0.07708292 0.11089107
0.0035991613 -0.076666 0.04784477 0.027383186 0.006263794 0.04181682 -0.12297724 -0.0041402043
-0.12421179 -0.0723493 0.09166592 -0.02919863 -0.057931915 -0.062183917 0.11148455 -0.16633855
0.100084014 0.026866606 0.102474086 -0.21703859 0.011242072 -0.030259993 -0.02218763 -0.037615936
0.14807606 0.2150757 0.0029410205 0.057495758 -0.07034125 0.09146092 0.13495208 -0.03604821
0.1840646 -0.018520825 0.045971617 -0.08472762 0.1394251 -0.008469999 0.28843835 -0.014137191
0.058602773 -0.031403482 -0.019595925 0.14413555 0.006676631 0.15746567 -0.08092034 -0.062003262
-0.021097038 -0.030943032 0.08510695 -0.1214474 -0.09124952 -0.008899772 0.06640503 0.010615122
-0.15921627 -0.15150467 -0.032294635 0.031539883 0.039648797 -0.0016164503 0.074495584 0.13016778
-0.072461285 -0.10178629 0.017516147 -0.08102906 0.058994435 -0.028130943 0.039916378 -0.086340435
0.010910891 -0.083486654 0.043106075 0.016164336 -0.17456062 -0.13879475 0.029462747 0.08144605
-0.036684822 -0.02646124 0.03668365 0.0046757283 0.20833835 0.100590795 -0.017121747 0.0006108552
-0.044745866 -0.011994219 -0.07183357 0.116139024 0.0048159068 -0.1079839 0.021613501 -0.048172195
-0.017263811 0.10535364 -0.090688236 0.14812899 0.008124029 -0.18303776 0.006697156 -0.076759845
0.047924887 -0.13737231 -0.03913652 0.3385388 -0.088845685 0.0730821 0.08254841 0.008678773
0.04342452 -0.07906965 -0.054680478 0.008923591 -0.00094152126 -0.05482214 0.052145056 -0.05144037
-0.075320095 0.03696895 -0.14574417 0.00035232003 0.07624668 0.008161114 0.099991776 0.15191945
0.032748822 0.0051759356 0.11671015 -0.1115409 -0.044464257 -0.009978904 0.02833778 -0.036036495
0.1648417 -0.068696424 -0.04113943 0.037010837 -0.19244845 0.03340154 0.0025903427 -0.097894676
0.114160344 0.12876785 -0.017482942 0.015120847 -0.08855517 -0.0060202247 0.056589548 -0.040771764
0.05308285 0.097491935 -0.050691262 -0.14281678 0.06884678 0.03047912 -0.08899755 -0.08658441
-0.09844803 -0.07409772 0.03775795 0.09564786 0.07333982 0.05648734 -0.10499648 0.047111537
0.010810599 -0.06649214 0.046889964 0.15994065 0.079020664 0.054208905 -0.03769455 0.03172084
-0.020566812 0.03054926 -0.023199076 0.16346766 0.029846607 0.11735356 0.121161714 -0.07902613
-0.0036896253 -0.014701316 -0.17170794 0.0794445 0.021812778 -0.12150989 0.05999296 -0.050945736
0.011011171 0.035052165 -0.10426774 -0.07225359 -0.1293645 0.022873003 -0.03399859 -0.0025275042
-0.019840047 0.051187012 -0.101923026 0.12949935 -0.1554207 -0.008059737 0.09904436 0.03722597
-0.028200045 0.07630857 -0.016164858 -0.051654544 0.15573926 -0.012942758 -0.037316676 0.05772412
0.003210891 -0.063202195 -0.09702038 0.0017963767 0.14681862 0.077194564 -0.071023084 -0.05345015

network_body._body_endoder.seq_layers.2.bias f4 [128]
00000000: 5e40 f5ba bb8b 973b 0000 0000 0000 0000
00000010: 0000 0000 0000 0000 3475 b83b 0000 0000
00000020: 8aa9 163b 12f3 f5bb fd7a a53b 0000 0000
00000030: 88f4 f5bb 8b4e 029d 0000 0000 b544 123b
00000040: 0000 0000 0000 0000 ad38 4abb 0000 0000
00000050: de19 f6bb cd73 023b b136 99bb 0000 0000
00000060: 0000 0000 0000 0000 e512 b03b 0000 0000
00000070: 0000 0000 d7da 0cb9 0000 0000 3efc 923b
00000080: 0000 0000 8470 f93b 1a0a e7ba c9f2 9c3a
00000090: ac11 43ba 0000 0000 87b1 ed3b b0e0 483b
000000a0: 13ca 933b 45bf b6b8 0000 0000 0000 0000
000000b0: 0000 0000 0000 0000 8bbe 2b3b 9880 cdbb
000000c0: 3e0f e7ba e114 7cbb 941c 4b22 93ab 273b
000000d0: 2a23 463b 0000 0000 0000 0000 0000 0000
000000e0: d87a ca3b f546 d4bb 833a a1bb c339 9fbb
000000f0: 0b1b 289a 0000 0000 ce5b 253b ca00 d43a
00000100: 3193 c63b 0000 0000 c70f 8d38 0000 0000
00000110: 0000 0000 0000 0000 0000 0000 0000 0000
00000120: 0000 0000 7e8b 0abb 0000 0000 0000 0000
00000130: 0000 0000 0000 0000 57b5 30bb 0000 0000
00000140: 0000 0000 570f e7ba 0000 0000 b36b aa3a
00000150: 0000 0000 7fd2 a83a b638 66b1 0000 0000
00000160: cea8 56bb ca37 4b3b 0000 0000 088a b33b
00000170: 0000 0000 5112 f63b d264 a5bb 4ded 1bbc
00000180: 0000 0000 0000 0000 0000 0000 f491 e2ba
00000190: 34c3 aa38 5495 f8bb 0000 0000 0000 0000
000001a0: 9246 dabb 0000 0000 b717 562f 6d81 4d3b
000001b0: 65ea 6a3b d1de e5ba 0000 0000 efdf e4ba
000001c0: e42c a53b 0000 0000 0000 0000 00ac 5c3b
000001d0: 0000 0000 0000 0000 5d79 8bba 0915 0dbb
000001e0: 0000 0000 0000 0000 0000 0000 b210 e7ba
000001f0: 3b66 1bbb 5da5 59bb 1543 07bb e3cd 393b
-0.00187112 0.0046248115 0.0 0.0 0.0 0.0 0.005629206 0.0
0.0022989237 -0.007505783 0.0050500617 0.0 -0.007505957 -1.7245963e-21 0.0 0.0022318785
0.0 0.0 -0.0030856535 0.0 -0.007510408 0.0019905448 -0.004675709 0.0
0.0 0.0 0.005373346 0.0 0.0 -0.00013432965 0.0 0.004485636
0.0 0.00761229 -0.0017626912 0.0011974211 -0.0007441293 0.0 0.007253829 0.0030651502
0.004510173 -8.714063e-05 0.0 0.0 0.0 0.0 0.0026206102 -0.006271433
-0.0017628444 -0.0038464593 2.752676e-18 0.0025584444 0.0030233362 0.0 0.0 0.0
0.006179195 -0.0064781853 -0.004920305 -0.0048591807 -3.476343e-23 0.0 0.0025231722 0.0016174552
0.006060027 0.0 6.726343e-05 0.0 0.0 0.0 0.0 0.0
0.0 -0.0021140273 0.0 0.0 0.0 0.0 -0.0026963556 0.0
0.0 -0.0017628473 0.0 0.0013002068 0.0 0.0012880116 -3.3501641e-09 0.0
-0.0032754424 0.0031008595 0.0 0.005479101 0.0 0.0075095077 -0.005047419 -0.009517026
0.0 0.0 0.0 -0.0017285929 8.142591e-05 -0.0075861607 0.0 0.0
-0.0066612447 0.0 1.9471612e-10 0.0031357661 0.0035845276 -0.0017537718 0.0 -0.0017461757
0.005040752 0.0 0.0 0.0033671856 0.0 0.0 -0.0010641027 -0.002152743
0.0 0.0 0.0 -0.0017628877 -0.0023712057 -0.0033210136 -0.002063935 0.0028351478

action_model._continuous_distribution.log_sigma f4 [1, 2]
00000000: d797 c43c 3f78 3a3d
0.023998184 0.04552483

action_model._continuous_distribution.mu.weight f4 [2, 128]
00000000: 7623 033d 6654 73bd ea91 fa3c 3dfa e93a
00000010: 27c1 3a3d 170a b3bc b3cd 15bc 0b2b 9ebc
00000020: 4e55 423a c090 053c 52f2 42bc 881d 58bc
00000030: 239d cfb8 4db0 90bc 4f21 98bb 05dd 4ebc
00000040: 76c7 07bc ce5c 20bc a60c 403c 2c18 8ebc
00000050: e110 fa3b 2d18 2bbd b67a 513c 2a98 58bb
00000060: 1a7f 7dbb 399a a73c fa0d 83bd 676d 213c
00000070: 0d8f 1c3d 460f b0b9 2dd0 bbbc 33ca b0bc
00000080: 1847 db3c e92d 65bc d43a 7e3b b591 17bd
00000090: a71f 803c 6722 263b 243a 99bc d2ba 9abc
000000a0: 9d0d f2bc 40f8 87bc 9bce 85bc 5b17 86bc
000000b0: 83b1 fabc 5080 163c 9a64 b6bb 46c1 ec3b
000000c0: b737 fd3b 9cfa 023d 81c5 813c 1f31 a3bc
000000d0: 3582 b3bc 2784 783c cbb6 a13b d467 183d
000000e0: 37d6 6ebc a721 173c 2b37 7c3b 9de1 2e3d
000000f0: da0e 5abb 1d2f 843c 7e82 32bc cc67 92bc
00000100: 5bce 16bd 6617 033d 9baf 98ba eab1 dcbc
00000110: 0be2 023d 0cba bbbb 3149 33bc 87d6 283c
00000120: 0b4e 8a3b e239 9f3b 9fbc c2ba 0756 0fbc
00000130: 370e 423b d076 f2bc 6dd3 9c3c a72b 5f3c
00000140: 2711 84bb 3192 8d3c 0086 d2bc c571 52bc
00000150: 59e6 0d3b 6f68 7c3b 9dde 073c 281b 853c
00000160: 5163 e53c cf78 4abd b742 06bc 63a3 c6bc
00000170: d062 d9bc 912a 08bd b87a df3c ff9c 783c
00000180: e972 10bc f0a0 4d3b 0ff8 b2bc 4ac0 15bb
00000190: bd7e 133c d6e7 ac3c c23c 5d3c 35ee c9bc
000001a0: 264d 933b 83bf fcbb 6a01 35bd 086a dfb8
000001b0: 103f 2bbc 5855 853a bf25 ccbc ebc7 563c
000001c0: 8197 bebc e35b 323b 30c3 cabb a228 1fbd
000001d0: 3365 063d 330f 16bd 6b03 48bc 1894 5abc
000001e0: 4b46 553c 3723 2cbc 0bfb b8ba 82df e33c
000001f0: b38c 303b 89f1 28ba 56c3 a1b7 e22e 1f3b
00000200: e891 ccbc 0cdd a9bc e5eb 0d3d 958f af3a
00000210: b4e1 06bc f761 94bb a47f 31bc 2085 96bb
00000220: 9396 babc 2472 a33b 7d4f fcbc 6f5c e83b
00000230: eba7 e03a 6ba9 523c cbed 973c df9d b9ba
00000240: d0a9 f93b 64b7 4cbc f6ab 17bc 38ac 0a3c
00000250: f5de 323b 0ec6 5a3c 5bc3 2e3b 5702 353b
00000260: 1684 a93b 288a a73c ab27 0fbd 3873 523a
00000270: 3b77 8d3b 7bfb 24bc f528 d7b9 656d 2ebc
00000280: b3dc c6bb 1277 c5bc f0b5 2a3b 5de8 a03c
00000290: 6fe2 c4bc fc36 a1bc d983 dabc 82a2 56bb
000002a0: 82a6 4cbc 7211 3f3c 3828 313c 9d8e 6b3a
000002b0: 177c c0bc ea6f 14bc 51a4 9abb b532 6fba
000002c0: b55e fbbb 1816 b3bb 9f32 5d3b 7935 26ba
000002d0: bc49 2cbb 6326 6bbb eac5 f63b 0eb2 c93c
000002e0: 5c95 84bc b595 9b3a 8e24 98bb 6d6f 5f3c
000002f0: 507e 753b 3875 ca3b 1e97 51bb 74f2 4f3b
00000300: 1246 f3bc 4cad b13c e04f 23bc 7a6b b1bc
00000310: cf57 a63c 836e 0cbd 30c3 ea3c ffe2 a43c
00000320: 37a8 c6bb c504 473c 930b e6bc 6fb6 d8bb
00000330: eae1 cabc 8de2 6c3b 9734 53bc 61cd b03b
00000340: 518e 383c 336d 923c 0819 f1bb b0e2 ac3a
00000350: 8910 ad39 f9c7 b5bc cb93 e53c 9bee 41bb
00000360: f9ae 28bc 74f4 aa3a 2bcb 1a3d ba42 8fbc
00000370: 7aef 3bbc 7cac 38bd 7044 703b 6f76 c93c
00000380: bb0d eabb 5be8 4abc 0b29 983c 1543 3f3b
00000390: 7b3f b9bc 404c a73c 3fe3 b0bc fd28 79ba
000003a0: 9a4d b83c db03 8d3c 6547 933c d2bc f8bc
000003b0: dcb3 c2bb 0458 143c 2f6f 9dbc d651 7dbc
000003c0: bf38 6ebc 84a7 3b3c 99d5 8cbc f1ad 4abb
000003d0: 1652 26bc 5fe1 e1bb bf3f 313c 0441 b93c
000003e0: 23b7 f0bc 08e1 073c 350d 79bc 3d37 1f3c
000003f0: 03e7 083d 314e d23c 03c9 8f3c 1e25 07bd
0.03201624 -0.05940666 0.030587155 0.0017851066 0.04559436 -0.021855397 -0.009143281 -0.019307634
0.0007413224 0.008152187 -0.011898594 -0.013190635 -9.899798e-05 -0.017662192 -0.0046426426 -0.012625937
-0.008287301 -0.009787751 0.011721766 -0.01734551 0.0076314067 -0.041771103 0.012785604 -0.0033049681
-0.0038680495 0.020459281 -0.0639915 0.009852744 0.03822236 -0.00033580716 -0.022926414 -0.021580791
0.026767299 -0.013987997 0.0038792389 -0.03700419 0.015640093 0.0025350095 -0.018704481 -0.018887911
-0.029547507 -0.016597867 -0.016333869 -0.016368559 -0.030602222 0.0091858655 -0.005566192 0.0072251884
0.007727589 0.03197728 0.015841248 -0.019920884 -0.021912673 0.015168226 0.0049351207 0.037208393
-0.01457744 0.009224332 0.003848503 0.04269563 -0.0033273012 0.016135747 -0.01089537 -0.01787176
-0.03681789 0.032004736 -0.0011649014 -0.026940305 0.031953853 -0.0057289656 -0.010942743 0.010305054
0.004220729 0.004859195 -0.0014857239 -0.008748538 0.0029610523 -0.02959767 0.019143784 0.013621247
-0.004030365 0.017281624 -0.025698662 -0.012844508 0.002165219 0.0038514396 0.008292821 0.0162483
0.02800146 -0.04943162 -0.008194617 -0.02424783 -0.026536375 -0.03324372 0.027280197 0.01517415
-0.008816459 0.0031376444 -0.0218468 -0.002285021 0.009002385 0.021106642 0.013503255 -0.024649719
0.004495281 -0.0077132597 -0.0441908 -0.000106532185 -0.010452047 0.0010172529 -0.024920342 0.013109188
-0.023265602 0.0027215413 -0.006187819 -0.03885711 0.032811355 -0.03663559 -0.012207846 -0.013340972
0.013017247 -0.010506443 -0.0014112903 0.027816538 0.0026939332 -0.0006444683 -1.9283656e-05 0.002428942
-0.024971917 -0.020735286 0.034648795 0.0013394231 -0.008232523 -0.00452828 -0.010833655 -0.0045935065
-0.022776878 0.004987972 -0.030799622 0.007091097 0.0017139887 0.012857775 0.018546006 -0.0014161429
0.00761912 -0.012494896 -0.009257307 0.008463912 0.0027293537 0.013352884 0.0026666734 0.0027619803
0.0051732166 0.02045162 -0.03494994 0.0008028033 0.004317192 -0.010069723 -0.0004103851 -0.010646199
-0.00606879 -0.024104629 0.0026048385 0.01964205 -0.024033753 -0.019679539 -0.026674198 -0.003275067
-0.01249087 0.011661874 0.010812812 0.00089857896 -0.02349667 -0.0090598855 -0.004719295 -0.00091246824
-0.007671202 -0.0054652803 0.0033752096 -0.00063403655 -0.0026289066 -0.0035881035 0.0075309174 0.024621036
-0.016184501 0.0011870178 -0.0046430295 0.013637406 0.0037459321 0.0061785243 -0.0031980942 0.0031730207
-0.029696498 0.02168908 -0.009967774 -0.021657694 0.020305542 -0.03428508 0.028657526 0.020127771
-0.0060625332 0.012147133 -0.02808169 -0.0066135447 -0.024765927 0.0036145777 -0.012890956 0.005395577
0.0112644 0.017874336 -0.0073577203 0.0013190117 0.0003300945 -0.022190081 0.028024575 -0.0029591683
-0.010295623 0.0013042823 0.037791412 -0.017487872 -0.01147067 -0.04508637 0.0036661886 0.024592606
-0.00714275 -0.012384499 0.018574258 0.002918427 -0.022613278 0.020422101 -0.021592734 -0.0009504704
0.02249794 0.017213752 0.01797838 -0.030363474 -0.005941851 0.009054188 -0.019218056 -0.015461406
-0.0145398965 0.011453513 -0.017191695 -0.003092643 -0.010151407 -0.0068933214 0.010818421 0.02261401
-0.029384201 0.008293398 -0.015200903 0.00971776 0.033423435 0.02567205 0.017551905 -0.032994382

action_model._continuous_distribution.mu.bias f4 [2]
00000000: 2e4b 73bb 8b6f a3bb
-0.0037123668 -0.004987662
