results/ppo/My Behavior/My Behavior-1864.onnx (onnx, 74645 bytes, 6 tensors)

network_body._body_endoder.seq_layers.0.weight f4 [128, 6]
000000 b4 82 e2 3d 83 59 21 be 86 62 44 3e f9 20 f9 3e
       0.11060086 -0.15756802 0.19178209 0.4865797
000010 a1 83 c0 3e 5b 09 18 bf e9 2a 14 bd 4b d6 7f 3e
       0.37600425 -0.59389275 -0.036173735 0.2498409
000020 b4 6a 69 3d 62 6e c2 bd d5 5c 1b bf de bf a8 be
       0.056986526 -0.0949371 -0.60688525 -0.32958883
000030 18 59 2d bf 26 c8 01 bf 74 6a 3e be b6 18 91 3e
       -0.6771407 -0.5069603 -0.18595296 0.28339165
000040 b4 2f 9c 3e 2a ef 90 be a2 fb cc be 85 1d cc 3e
       0.30505145 -0.28307468 -0.4003573 0.39866272
000050 f4 76 d9 3e 6f 16 0a be 21 0b 2f 3f 85 69 21 3f
       0.42473567 -0.1348512 0.68376356 0.63051635
000060 9d 61 00 bf fc f2 50 be a6 70 dc be 21 8c 98 be
       -0.50148946 -0.20405191 -0.43054694 -0.2979441
000070 dc ee df 3d a8 5c 46 3e d3 dc ad 3e 50 27 eb 3c
       0.10934231 0.19371283 0.33957538 0.02870527
000080 2e 32 e3 3c 36 6a b5 3d fb d2 67 be 68 62 e4 3d
       0.027733888 0.08858149 -0.22639076 0.11151582
000090 39 61 da 3e 15 f4 06 3f 12 6a d8 bd 3e 28 6e be
       0.426523 0.5271619 -0.10567106 -0.23257539
0000a0 56 5a bb be 74 31 c5 3e 10 1b d1 bc 4d ca 85 bd
       -0.36592358 0.38514292 -0.0255256 -0.065327264
0000b0 ef 16 d6 bd 26 6a b6 3d 65 a4 99 3e 35 f6 a4 3e
       -0.10453593 0.08906965 0.30008236 0.3221909
0000c0 66 c2 55 be 61 2d 27 bf 51 4c 45 be 1e 25 1a be
       -0.20874938 -0.6530362 -0.19267394 -0.15053222
0000d0 c7 ab f4 3e 81 84 1e bf ef ad e4 be c9 6a 66 be
       0.47787306 -0.61920935 -0.4466395 -0.22501673
0000e0 e0 d6 5d bf c0 0a 1a be e0 41 9e 3e 8c 69 87 be
       -0.86656 -0.15043163 0.30909634 -0.26447713
0000f0 f3 80 c8 bd 31 19 1c 3e 28 8d f9 3d 38 44 05 be
       -0.0979022 0.15243985 0.121851265 -0.13014305
000100 1f aa b4 be 5d c3 c5 be ff e9 9e be 0c ee 2e be
       -0.35286042 -0.38625613 -0.310379 -0.17082995
000110 e0 2e 40 3f 37 e4 53 3e ee bf 6f bd 99 6e 0d 3e
       0.75071526 0.20692526 -0.058532648 0.13811721
000120 c3 a4 b9 3e 84 36 12 bd 9f 08 17 39 6c 7f fc be
       0.36258516 -0.03569652 0.00014403694 -0.49315965
000130 3d 03 fa 3d 24 51 c1 3e e1 5d 90 be 6e 7f cb bd
       0.12207649 0.37757218 -0.28196624 -0.09936415
000140 06 59 83 3f 2c ee 73 bf b6 18 ac 3e 05 0d a1 3e
       1.0261543 -0.95285296 0.33612603 0.31455246
000150 dc d8 89 bd 58 ea de bd 8e fc b3 3e f9 cb 56 3f
       -0.06730816 -0.10884541 0.3515362 0.8390499
000160 2f 03 db bd 9e 9b f7 3e 5f 93 86 3e 3f 7c ee 3e
       -0.106939666 0.48360914 0.2628431 0.46579167
000170 68 f7 da be d9 c5 af be 99 d9 03 bf be da e1 be
       -0.4276688 -0.34330633 -0.515039 -0.441122
000180 59 48 16 be 05 b6 08 3f 73 55 02 bf 6c 88 a7 3e
       -0.14676036 0.5340274 -0.50911635 0.3272127
000190 58 9f 60 bf 1b ef 9a 3d 97 3f e2 bd 67 33 9b 3e
       -0.8774314 0.07565137 -0.11047285 0.30312654
0001a0 82 13 90 3e b9 09 9f 3e 4d 5c 1b bf 57 29 bf bd
       0.28139883 0.31062105 -0.60687715 -0.09334057
0001b0 a8 a5 5a 3f 08 07 8a 3e fb c1 a9 be 3e f6 70 be
       0.8540902 0.2695849 -0.33155808 -0.23531434
0001c0 eb 19 c6 3e d3 26 dc bb 33 b2 e9 3d 70 3d 15 bf
       0.3869165 -0.0067184954 0.11410942 -0.5829687
0001d0 b1 42 24 3e 4a 4c ee 3e 93 6d 5a bf fb 67 65 be
       0.16041066 0.4654258 -0.85323447 -0.22402947
0001e0 32 dc 51 3e 4b 25 d8 3e e3 82 69 3f ee 6e bb 3e
       0.20494154 0.42215952 0.9121534 0.3660807
0001f0 05 f0 97 be 31 50 cc 3e b1 9e f3 bd 36 13 6e 3c
       -0.29675308 0.3990493 -0.11895502 0.014530947
000200 73 5c 27 be 6a bd 77 bf db 18 89 bd e6 5c 40 3e
       -0.1634386 -0.967734 -0.06694194 0.18785438
000210 60 ac 3c 3f 10 4d 18 3f 86 0d 0f 3f 5e a7 02 be
       0.73700523 0.5949259 0.5588001 -0.12759158
000220 3a 0b 5f 3e 23 91 02 3f 12 4b c2 bc 3b bc 55 3e
       0.21781626 0.5100271 -0.023717437 0.20872585
000230 75 42 4c be 7e d7 91 be 1a 6a 51 3f 42 ff 83 3e
       -0.19947226 -0.2848472 0.81802523 0.25780684
000240 0b 84 95 be 14 78 fe be 43 43 d3 bd ca 45 40 3f
       -0.29202303 -0.49700987 -0.103155635 0.7510649
000250 6c ed 17 3e c9 ed ed 3d 8f 2b 88 3e b7 34 28 3e
       0.14836663 0.116176195 0.26595733 0.16426359
000260 f3 06 a6 bd a4 1a 3e be 59 19 c7 be 85 1b 20 bf
       -0.08106794 -0.1856485 -0.38886526 -0.6254199
000270 ba 7a 23 bd 2c 67 2b bf 83 98 3a 3f 2a b7 88 3e
       -0.039911963 -0.669543 0.72888964 0.26702243
000280 c9 23 2f 3e 3f fb c8 3d b2 46 3a bf 95 11 3f be
       0.17103495 0.098135464 -0.7276412 -0.18659051
000290 ce b2 c5 3c a7 ca 32 bd bd 5a ed 3e 15 a2 bf be
       0.024133112 -0.043650296 0.4635829 -0.37428346
0002a0 43 04 9e 3e 6d 15 db 3e 10 21 b1 bd 1e 31 8b be
       0.30862626 0.42789784 -0.08648884 -0.2718591
0002b0 5a 3c a1 bd 0a e1 c8 be f0 80 0b 3b 62 bf 3e 3f
       -0.07872839 -0.3923419 0.002128657 0.74510777
0002c0 60 54 6b be ae 42 bd 3f 96 3a 97 3d 20 82 25 be
       -0.22981405 1.4785974 0.07384221 -0.1616292
0002d0 e8 65 68 3e 3d de f5 3e 7e 15 c3 be 85 86 13 3e
       0.22695124 0.48021117 -0.38102335 0.14406784
0002e0 84 20 9d be c6 b8 b7 be 80 2d 80 be 3e ef 8c 3d
       -0.3068887 -0.35883158 -0.25034714 0.06881569
0002f0 d0 f1 8d be cc e5 c1 3e d9 7c 9f bd 29 3b 3d be
       -0.2772355 0.37870634 -0.07787485 -0.18479599
000300 11 f0 6c bd 7a 17 34 be 2f c5 ef be 5c f2 01 3f
       -0.057846133 -0.1758708 -0.46830127 0.50760436
000310 5f c7 f2 3e 52 cb aa be 14 34 d2 3d f2 27 28 3f
       0.47417733 -0.33358246 0.10263839 0.6568595
000320 b2 3c f4 3e 28 b0 8e bf fb 15 ee 3d f0 01 75 be
       0.47702557 -1.1147509 0.11625286 -0.2392652
000330 e0 a7 36 bd 75 e8 07 bf ef 21 f0 be 7a 47 a4 3b
       -0.04459369 -0.53089076 -0.4690089 0.0050134035
000340 1e d8 02 3f 9b 37 a8 3d 59 71 ca be 69 63 6c 3f
       0.5111102 0.08213731 -0.39539602 0.9233919
000350 f6 79 1d bf 13 19 0e 3f 96 4e 41 3d 88 0f 14 3f
       -0.6151422 0.5550701 0.047194086 0.578362
000360 21 0d 64 be 1b 1f 4f 3e 7d d2 a2 3d e8 f8 53 bf
       -0.22270633 0.2022671 0.07950304 -0.82801676
000370 7a 50 28 bd 32 a6 8b be 7a a9 1b bf 3f 0b 3f bf
       -0.041092373 -0.27275234 -0.60805476 -0.74626535
000380 a7 51 84 3d 25 a1 93 3e 35 2c 85 3d bf a8 04 bf
       0.064608864 0.2883388 0.065025724 -0.51819986
000390 95 63 38 3e 97 a2 96 bd e2 c6 96 be dc 5a 9a 3d
       0.18006738 -0.0735523 -0.2944861 0.07536861
0003a0 cc 89 81 3e 11 2f 1b 3e e5 d4 91 be 2f e1 5a 3f
       0.25300443 0.15154673 -0.28482738 0.8549985
0003b0 42 0c 02 3f fe e6 f9 be 0a 2c 6d bf bd b0 f2 3d
       0.50799954 -0.48809046 -0.92645323 0.118501164
0003c0 d3 2a 98 be fd 68 55 be 79 e0 cf be 62 23 34 3e
       -0.29720172 -0.20840831 -0.40600947 0.17591622
0003d0 30 f5 45 be c5 88 c4 3e 2b 0e c9 3d bc 4a 04 bf
       -0.19331813 0.38385597 0.098171555 -0.51676536
0003e0 29 a8 44 be 12 b7 ad 3e 33 bb fc bd 5d 66 32 3d
       -0.19204773 0.33928734 -0.12340393 0.043554652
0003f0 f8 e8 cd bd 6a 98 28 be dd c1 c0 3e b8 4f dd 3d
       -0.10054201 -0.16464391 0.37647906 0.10806221

network_body._body_endoder.seq_layers.0.bias f4 [128]
000000 00 00 00 00 00 00 00 00 00 00 00 00 00 00 00 00
       0.0 0.0 0.0 0.0
000010 00 00 00 00 00 00 00 00 00 00 00 00 00 00 00 00
       0.0 0.0 0.0 0.0
000020 00 00 00 00 00 00 00 00 00 00 00 00 00 00 00 00
       0.0 0.0 0.0 0.0
000030 00 00 00 00 00 00 00 00 00 00 00 00 00 00 00 00
       0.0 0.0 0.0 0.0
000040 00 00 00 00 00 00 00 00 00 00 00 00 00 00 00 00
       0.0 0.0 0.0 0.0
000050 00 00 00 00 00 00 00 00 00 00 00 00 00 00 00 00
       0.0 0.0 0.0 0.0
000060 00 00 00 00 00 00 00 00 00 00 00 00 00 00 00 00
       0.0 0.0 0.0 0.0
000070 00 00 00 00 00 00 00 00 00 00 00 00 00 00 00 00
       0.0 0.0 0.0 0.0
000080 00 00 00 00 00 00 00 00 00 00 00 00 00 00 00 00
       0.0 0.0 0.0 0.0
000090 00 00 00 00 00 00 00 00 00 00 00 00 00 00 00 00
       0.0 0.0 0.0 0.0
0000a0 00 00 00 00 00 00 00 00 00 00 00 00 00 00 00 00
       0.0 0.0 0.0 0.0
0000b0 00 00 00 00 00 00 00 00 00 00 00 00 00 00 00 00
       0.0 0.0 0.0 0.0
0000c0 00 00 00 00 00 00 00 00 00 00 00 00 00 00 00 00
       0.0 0.0 0.0 0.0
0000d0 00 00 00 00 00 00 00 00 00 00 00 00 00 00 00 00
       0.0 0.0 0.0 0.0
0000e0 00 00 00 00 00 00 00 00 00 00 00 00 00 00 00 00
       0.0 0.0 0.0 0.0
0000f0 00 00 00 00 00 00 00 00 00 00 00 00 00 00 00 00
       0.0 0.0 0.0 0.0
000100 00 00 00 00 00 00 00 00 00 00 00 00 00 00 00 00
       0.0 0.0 0.0 0.0
000110 00 00 00 00 00 00 00 00 00 00 00 00 00 00 00 00
       0.0 0.0 0.0 0.0
000120 00 00 00 00 00 00 00 00 00 00 00 00 00 00 00 00
       0.0 0.0 0.0 0.0
000130 00 00 00 00 00 00 00 00 00 00 00 00 00 00 00 00
       0.0 0.0 0.0 0.0
000140 00 00 00 00 00 00 00 00 00 00 00 00 00 00 00 00
       0.0 0.0 0.0 0.0
000150 00 00 00 00 00 00 00 00 00 00 00 00 00 00 00 00
       0.0 0.0 0.0 0.0
000160 00 00 00 00 00 00 00 00 00 00 00 00 00 00 00 00
       0.0 0.0 0.0 0.0
000170 00 00 00 00 00 00 00 00 00 00 00 00 00 00 00 00
       0.0 0.0 0.0 0.0
000180 00 00 00 00 00 00 00 00 00 00 00 00 00 00 00 00
       0.0 0.0 0.0 0.0
000190 00 00 00 00 00 00 00 00 00 00 00 00 00 00 00 00
       0.0 0.0 0.0 0.0
0001a0 00 00 00 00 00 00 00 00 00 00 00 00 00 00 00 00
       0.0 0.0 0.0 0.0
0001b0 00 00 00 00 00 00 00 00 00 00 00 00 00 00 00 00
       0.0 0.0 0.0 0.0
0001c0 00 00 00 00 00 00 00 00 00 00 00 00 00 00 00 00
       0.0 0.0 0.0 0.0
0001d0 00 00 00 00 00 00 00 00 00 00 00 00 00 00 00 00
       0.0 0.0 0.0 0.0
0001e0 00 00 00 00 00 00 00 00 00 00 00 00 00 00 00 00
       0.0 0.0 0.0 0.0
0001f0 00 00 00 00 00 00 00 00 00 00 00 00 00 00 00 00
       0.0 0.0 0.0 0.0

network_body._body_endoder.seq_layers.2.weight f4 [128, 128]
000000 a4 58 ec bd fb d8 8e bd 7d 37 f9 3d 46 8b 0a be
       -0.11540344 -0.069749795 0.12168787 -0.13529691
000010 1f 82 0d be 9e d2 6c 3d 94 92 56 3a 67 ae 95 bc
       -0.13819169 0.057818048 0.0008185294 -0.018271638
000020 73 9e 8e bd 70 3a 7b bd e7 df a0 ba b4 65 98 3d
       -0.069638155 -0.061335027 -0.0012273759 0.07441273
000030 45 b4 e1 3d 1f 98 c3 3d 46 0b c0 3d 10 a3 bf bb
       0.11020712 0.09550499 0.0937715 -0.005848296
000040 48 db 86 3d 3f 1a 0a 3d 2b 13 49 3d f6 23 c3 3b
       0.06584793 0.033716436 0.049090546 0.0059552146
000050 28 b2 0c bd ae e2 24 be bb 12 33 be 7f 3c 14 be
       -0.03434959 -0.16102096 -0.17487614 -0.14476202
000060 79 06 16 be ca 05 af 3d 95 92 b4 3c 73 7d 36 bd
       -0.14650907 0.08546026 0.022042552 -0.04455323
000070 b9 1b e4 bd 40 ac ef 3c 84 69 a6 bd 00 0a 22 bc
       -0.111381 0.02925694 -0.08125594 -0.0098900795
000080 ca 82 88 3d 1c b1 4a bd 0a c8 ae 3c 56 b9 d0 bd
       0.06665571 -0.04948531 0.02133562 -0.101916
000090 72 36 49 bd f2 74 e2 3d 41 69 2a 3d 3c 79 6d 3d
       -0.04912419 0.11057462 0.041604284 0.057976946
0000a0 83 6e 15 3d aa d8 8e bd 6a fd 6d bd 5a 34 43 bd
       0.036482345 -0.06974919 -0.058103003 -0.04765735
0000b0 1a 08 aa bc 5f 3d 76 3e bc ff 86 bd e5 60 b6 3d
       -0.020755816 0.24046849 -0.06591746 0.089052
0000c0 78 56 2f 3c 91 ae ac bd 00 63 65 3b ee 1b 08 be
       0.010701768 -0.084317334 0.0035001636 -0.13291904
0000d0 c3 98 37 bd c4 76 92 3d 70 e9 f0 3d c6 8d 0d bd
       -0.04482342 0.07151559 0.11763275 -0.034559034
0000e0 42 ec 0b bd bb 81 ec bd d1 40 9e 3c 11 79 a2 bc
       -0.03416086 -0.115481816 0.019318016 -0.01983312
0000f0 25 19 83 bd 2b 33 9b 3d a9 f8 0e 3e 5b 59 e1 bc
       -0.0640128 0.07578119 0.13962044 -0.027508428
000100 7b 2c 44 bc 6e 21 1b 3d 82 9a 92 3d 84 8f 17 3d
       -0.011973496 0.037873678 0.07158376 0.0370021
000110 5d a2 46 bd 0e b2 85 3c 03 78 7b bd 90 4c 29 3d
       -0.048494685 0.016320255 -0.06139375 0.04133278
000120 96 19 29 bd 17 79 1b 3e 68 95 2f 3c ba f9 f6 3c
       -0.041284166 0.15182911 0.010716774 0.030148376
000130 7a ba b9 bd 17 63 df bd e0 54 03 3d f7 61 e9 bd
       -0.09068771 -0.10907572 0.032063365 -0.113956384
000140 b1 2d f4 bd 2a 06 58 be c5 cb 01 bd 2c a0 ea bc
       -0.119227774 -0.21096101 -0.03168847 -0.028640829
000150 70 ca 8f 3d 7b 73 72 be 24 dc ee 3c 52 47 23 3d
       0.07021034 -0.23676865 0.029157706 0.03986294
000160 f7 a6 af bd 7f ba e6 bc 30 83 0d bb ac 29 40 be
       -0.08576768 -0.0281651 -0.0021593086 -0.18765897
000170 e4 a6 92 3d 1c b3 e7 3d 81 a2 78 3a 83 27 7f 3d
       0.07160738 0.11313459 0.0009484664 0.06229354
000180 11 53 01 be 86 a1 ae bd 52 53 eb bc 31 11 81 bd
       -0.12629344 -0.08526902 -0.028726254 -0.06302107
000190 78 0f 18 be 43 ce 7b 3d 9d a7 bc 3d e5 81 7f 3c
       -0.14849651 0.061476003 0.09211657 0.015594934
0001a0 28 51 5d 3d 85 25 45 bd 10 dd dd 3d df 79 78 3d
       0.054032475 -0.048131485 0.1083318 0.0606631
0001b0 d6 93 99 3d c6 c5 a2 bc e9 f1 0a bd d4 9a cc ba
       0.074989006 -0.019869696 -0.03392211 -0.0015610107
0001c0 68 50 f4 bc 5f d5 be 3a bf e6 86 3d 35 c5 81 3d
       -0.029823497 0.0014559439 0.0658698 0.063364424
0001d0 2e ec dc bd eb d1 d0 3c 4e 61 23 be 4d 47 b8 3c
       -0.10787235 0.025490722 -0.15955088 0.022494936
0001e0 ff 72 3e bd 67 b8 9c bc c8 8c 9d 3d fa ee eb bc
       -0.046496388 -0.019130899 0.076928675 -0.028800476
0001f0 70 d7 34 3b 06 9f 40 bc a0 dd 04 bd 14 35 dc bd
       0.002759423 -0.011756664 -0.03243792 -0.10752311
000200 1d 8e 40 bd 8a e6 04 bd 18 b4 c4 3c b5 2c b8 3d
       -0.04701053 -0.03244642 0.024011657 0.08992902
000210 5b 0b 7f be 86 16 d0 3d c5 6a eb bc 6f db 18 3d
       -0.24906676 0.10160546 -0.028737435 0.037318643
000220 a9 a5 2e 3d e9 02 33 bd 95 39 02 3e cd af 9c bc
       0.042638455 -0.043703947 0.12717278 -0.019126797
000230 b1 03 98 bc e0 8a 83 3d 04 9b ba 3d 5c ed c1 bc
       -0.018556448 0.06422973 0.09111598 -0.023672752
000240 e8 2c 76 3d 7a a2 8c 3c 4a 56 74 3d fc b8 a3 bd
       0.06010142 0.017167319 0.059652604 -0.07994267
000250 ae 03 b8 3d d1 ba cc bd 12 a5 b7 bd 1b 67 3f 3d
       0.08985077 -0.0999657 -0.089670315 0.04672919
000260 99 b1 83 3c df 3f 9d 3d 50 4e 17 3e 1d ee ad bd
       0.016075896 0.07678198 0.14775968 -0.08492682
000270 a1 2b ad 3d 5f 11 b0 bd 6c ad 97 bc 23 8b 80 3d
       0.08455587 -0.08597063 -0.018515311 0.06276538
000280 81 74 8d bb 5e b6 14 3e 13 f6 7b bd e0 86 c8 bd
       -0.004316867 0.14522693 -0.06151397 -0.0979135
000290 14 b2 d4 3b a5 4d 00 3e 9d 10 22 3e a8 76 b1 bc
       0.006490955 0.12529619 0.1582665 -0.021663025
0002a0 a5 2f 8b bd 6e 79 e7 b9 16 f5 cd bd 19 e6 8e bd
       -0.06796197 -0.00044150226 -0.10056512 -0.069774814
0002b0 41 3f 08 bd 69 a3 a4 bb 99 6d 9a 3d f9 94 9b 3d
       -0.03326345 -0.005024363 0.07540435 0.07596774
0002c0 93 ca 77 39 d9 dd 30 bd 31 bc a4 bd 42 ee 10 3e
       0.0002363122 -0.04318032 -0.08043707 0.14153388
0002d0 ea 06 57 bd 33 f3 83 bd 4f 35 92 3d 18 24 af 3d
       -0.05249683 -0.06442871 0.07139074 0.08551806
0002e0 01 72 cf bd 2c ef fc bc 32 0a 52 3e 26 c8 38 bd
       -0.101291664 -0.030875765 0.20511702 -0.04511275
0002f0 09 a9 36 3b 79 79 91 3d 99 87 33 bd a6 46 04 3d
       0.002787175 0.07103247 -0.043830488 0.032293938
000300 79 7f f0 bd a2 95 b1 bd 5a 92 45 3d 81 90 5a 3d
       -0.117430635 -0.08671118 0.048235275 0.053360466
000310 67 fb 27 3e 17 da 7b bc 43 d9 54 3d 71 3e 35 bd
       0.16404496 -0.015371821 0.05196501 -0.044249002
000320 d2 75 86 3c 6e c3 db 3d c0 f4 1e bd b1 da 67 bb
       0.016413603 0.10730635 -0.03880763 -0.0035378153
000330 f9 e3 8c 3b 26 e9 55 bc 59 85 3d be 5a 12 1a 3d
       0.0042996374 -0.013056075 -0.185079 0.037615158
000340 43 1c 1f 3b 36 5a 90 3d d6 cd 10 be c9 3c d2 bd
       0.002427832 0.07048456 -0.1414102 -0.102655
000350 3b 06 c2 3c 31 7e 31 bd 48 0f 8b bd f8 8a 32 bd
       0.023684612 -0.043333236 -0.06790024 -0.043589562
000360 f1 1c a7 bd a6 35 54 3e 12 18 42 3d 09 4a 17 be
       -0.08159817 0.2072359 0.047386236 -0.14774336
000370 ea 39 1a bd e1 b4 82 3d 61 0c 03 be aa 8a 9d bd
       -0.037652887 0.06382156 -0.12797691 -0.07692464
000380 3f 5b 4e 3d 5d 13 63 bc 5d 66 7c bd 36 04 4a 3e
       0.050379988 -0.013859597 -0.06162106 0.19728169
000390 4a 46 00 3c 85 f8 83 3d 40 f6 a5 ba 51 d3 6b 3d
       0.007829258 0.06443886 -0.0012661889 0.057574574
0003a0 45 17 6b bd be 6b e8 bd 63 dc 85 bd 0b 30 c2 bd
       -0.05739524 -0.11348675 -0.06536176 -0.0948182
0003b0 52 e0 e5 3d e4 82 81 bb d5 f2 00 bc d6 e6 61 3c
       0.11224426 -0.003952371 -0.007870396 0.013787946
0003c0 c6 95 42 bd ca 46 02 3e bc ac 7d bd e6 52 2e 3d
       -0.047506116 0.12722316 -0.06193231 0.042559527
0003d0 11 0d 1f 3d 72 2b eb 3c e3 44 21 bd 70 e7 99 bd
       0.03883082 0.02870724 -0.039372336 -0.07514846
0003e0 91 7b e2 bd 71 22 c7 3d ba d5 d3 3c 02 b5 b9 bd
       -0.11058725 0.09723366 0.025858749 -0.090677276
0003f0 74 a8 f8 bd e5 8e db bc 95 d2 11 bd 82 c3 17 be
       -0.12141505 -0.026801536 -0.035601217 -0.14820674

action_model._continuous_distribution.log_sigma f4 [1, 2]
000000 00 00 00 00 00 00 00 00
       0.0 0.0

action_model._continuous_distribution.mu.weight f4 [2, 128]
000000 38 31 e9 3b a7 e7 82 bc a3 9d c4 3c 93 7a 88 bc
       0.007116463 -0.015979601 0.024000948 -0.01666001
000010 42 44 d7 bc 2b 81 a7 bc 7d 4a 95 bb ad e4 d9 3b
       -0.026277665 -0.020447334 -0.004555999 0.0066495747
000020 3d 53 d3 3a a5 09 bd bc fd 73 74 bc 18 d2 77 3c
       0.0016122829 -0.023075888 -0.014920232 0.015125774
000030 e2 fe ba ba db 45 b5 3c c0 00 f4 bc 5b 2f ce bc
       -0.0014266635 0.022128036 -0.029785514 -0.025169065
000040 05 11 f8 bc a7 3a 23 3b fa 3b 52 bc 2b 5f 2d 3c
       -0.030281553 0.0024906786 -0.012831682 0.010581772
000050 b3 6e ac bc 60 76 6a bd c2 4c 48 bc 64 4f 15 3c
       -0.02104888 -0.057241797 -0.012225332 0.0091131665
000060 19 f2 1a bb ea b0 54 3b 8a 61 7c 3c 82 b3 e0 bb
       -0.0023642837 0.0032454082 0.0154041145 -0.0068573365
000070 77 8b 8b bc 85 df 74 bc d0 4a ff bb 93 48 af 3a
       -0.017034275 -0.014945869 -0.0077909008 0.0013373069
000080 49 c4 02 bd 2b 33 e9 bc 37 08 26 3c b0 92 2b 3c
       -0.031925473 -0.028466782 0.0101337945 0.010471985
000090 f8 cc 44 3c 32 54 85 bc 53 99 30 ba 65 24 24 3c
       0.012011759 -0.016275499 -0.0006736714 0.010018443
0000a0 52 10 d4 bc fa 4e 8d 3b f1 04 ba bb 15 65 80 3c
       -0.025886688 0.0043123933 -0.0056768586 0.0156732
0000b0 dd 2a b2 3c 8d 91 44 3c 67 74 09 3c 2f 63 9a 3b
       0.021748954 0.011997593 0.008389569 0.0047115306
0000c0 17 38 65 3c d3 f4 af 3a 16 3d 1f ba f3 3e 64 bc
       0.013990424 0.0013424404 -0.0006074471 -0.013931024
0000d0 6f 5b aa 3a 1a 0c 0f 3c 99 45 a9 3b c2 e6 7a 3c
       0.001299722 0.008730913 0.0051657674 0.015313806
0000e0 e7 08 52 bc cd 74 65 bc 2f 48 8e bb 63 1e 8e bc
       -0.012819505 -0.014004898 -0.004342101 -0.017348474
0000f0 ad 01 8e bc da d7 69 3c 2f 70 dd bb b0 a2 95 bc
       -0.017334783 0.014272654 -0.006757758 -0.018266052
000100 07 99 64 3c 55 11 63 bc af 19 9f 3c e2 4c 4f 3c
       0.0139525 -0.013859113 0.019421427 0.012652608
000110 eb e1 b0 3c d5 74 51 3c 8d e1 ad bc f7 3e e8 3a
       0.021592101 0.012784203 -0.021225715 0.001771896
000120 e2 95 65 3c bb 24 8a 3c 25 8b 85 bc 9f 21 45 bc
       0.014012786 0.016863218 -0.0163017 -0.012031942
000130 4f 24 6b ba 3b 48 9d bb 98 ec 70 3d 53 50 09 3d
       -0.0008969949 -0.0047998703 0.058819383 0.03352387
000140 83 b1 3b 3c 0b f5 40 b9 75 e1 e1 bc bb f1 6a 3b
       0.011455896 -0.00018401832 -0.027573327 0.003584965
000150 5d f2 da bb 63 b7 d3 bc 48 fe 49 3c 09 37 8f 3c
       -0.006681724 -0.025844282 0.012328692 0.017482297
000160 93 b9 ee bc 9d 23 39 3c 9e a1 a1 3b f7 43 75 3c
       -0.029141223 0.011299995 0.0049325963 0.014969817
000170 7a b6 37 3d ae 40 1a bc 5c 33 94 bc 5f 1d 0a bc
       0.044851758 -0.009414835 -0.018090896 -0.008429854
000180 1f 93 cb 3c f0 b4 e5 bc 40 a5 5d bc 30 56 b3 3c
       0.024850426 -0.02804038 -0.013528168 0.021891683
000190 2e 12 07 bc fc 52 3e 3c 66 f8 05 bd 17 6c 67 3c
       -0.0082440805 0.011616465 -0.032707594 0.014124892
0001a0 4d cd bb 3c 4d 77 7f 3c 23 71 90 bc 4b d0 83 bb
       0.022925043 0.015592408 -0.017632073 -0.004022633
0001b0 42 25 a8 ba d0 d2 48 3c 00 95 fc 3c 27 0d 13 bd
       -0.0012828487 0.012257293 0.030832767 -0.035901215
0001c0 2f 44 0a bd 0b 76 f5 bc da ed 6f bc 22 37 b7 bb
       -0.03375643 -0.029963514 -0.014644111 -0.005591289
0001d0 37 b3 cd bc 21 65 0a ba 92 7c c0 bc 50 3a ca 3b
       -0.02510987 -0.00052793516 -0.0234969 0.006171502
0001e0 ef d2 ad bc b2 b0 d0 bb 1d 69 68 3c 15 66 b4 3c
       -0.021218745 -0.00636872 0.014185217 0.022021333
0001f0 4b 4c d9 3b 4f 28 77 bc bf 71 20 3c 0f 00 45 bc
       0.0066314093 -0.015085294 0.009792744 -0.01202394
000200 52 3f 23 bb 83 57 a0 39 6b 1d 1c 3c af 47 91 bc
       -0.0024909568 0.0003058278 0.009528498 -0.017734377
000210 00 d8 c2 bc 59 6e 48 bb 4a 48 6e ba ea 3f a5 3b
       -0.023784637 -0.003058335 -0.00090897514 0.0050430195
000220 98 f2 8f 3c f6 38 3d bc a3 9b 1f 3c ff 25 67 3c
       0.017571732 -0.011549225 0.0097416965 0.01410818
000230 8f 3d b1 bc f2 a3 90 3c d0 36 c6 3c 2d 45 61 3c
       -0.021635799 0.0176563 0.024196059 0.013749403
000240 ba 71 f0 3c 00 02 f8 3b a5 4a 78 3c 43 74 dc bc
       0.029351104 0.007568598 0.015154515 -0.026910907
000250 ce 31 a9 3c 83 fe 2a bd 88 b2 1f 3c 76 cd 42 3c
       0.020653632 -0.041746628 0.009747155 0.011889806
000260 08 5c 49 3c 4e 16 a7 bc 50 b5 ec 3b ba 4e 99 3c
       0.012290008 -0.020396378 0.0072237626 0.018714298
000270 14 f4 33 bc ee 29 80 3b 60 9f 84 bc 76 08 88 bc
       -0.010983486 0.0039112484 -0.016189277 -0.016605597
000280 fa 37 9f 3c ea ce 36 3b 4c 0c 8f bb cd ad 5a 3c
       0.019435871 0.0027894326 -0.0043654796 0.013347101
000290 3b ba 8b 3c 23 3e e0 bb 7f eb e7 bc 87 d2 7b 3c
       0.017056575 -0.006843345 -0.028310535 0.015370018
0002a0 7b 78 d3 bc ee 16 30 bc 0f 10 34 3c 5c f3 85 bc
       -0.025814286 -0.010747654 0.010990157 -0.016351394
0002b0 ba 67 e6 bb 1f 98 a1 bc a9 1f aa 3c db 59 1d 3d
       -0.007031408 -0.019725857 0.02076705 0.03841577
0002c0 1a 50 ac 3c 58 03 06 3c 2a cc 0d 3c fa 61 8c 3c
       0.02103429 0.008179508 0.008654634 0.017136563
0002d0 77 0e 28 bc c7 cf 16 b9 ff ac db 3c f4 3d 01 bc
       -0.010257355 -0.00014382518 0.02681589 -0.007888306
0002e0 b0 9b ad bb db fe 1d bd 5f 2e f9 bc 75 0b 8d 3b
       -0.0052981004 -0.038573127 -0.03041762 0.0043043443
0002f0 47 7c 35 bc ab 67 ab 3c af 1e 98 3b 8b f8 41 bc
       -0.011076993 0.020923456 0.0046423296 -0.011839042
000300 49 c6 2c bc 2b 3b c4 3b e5 27 91 bc 8c 7e 2d 3c
       -0.010545322 0.0059884987 -0.017719219 0.010589253
000310 16 45 c8 bb b7 21 63 bc 04 f8 17 3b c1 77 83 bc
       -0.0061117513 -0.013863019 0.00231886 -0.016048314
000320 40 52 ef bc 8f d3 e8 bb f2 0d c3 3b 33 9d 4f bb
       -0.029214025 -0.007105298 0.00595259 -0.0031679391
000330 80 d1 38 bc ef 5d e6 ba f2 23 c7 ba bd f4 bc bc
       -0.011280417 -0.0017575602 -0.0015193208 -0.023065919
000340 3b 8b 9d 3c d5 23 fe bc 92 97 a5 ba 5a 09 ed 3b
       0.01923143 -0.031022945 -0.0012633672 0.007233781
000350 3f c5 7c 3c 6e f3 1b 3c c3 8b 80 3c 18 f5 d7 3b
       0.0154278865 0.009518487 0.015691644 0.0065904967
000360 c4 ab 28 bc 0b 51 89 bc b2 d6 d6 3c 63 22 57 bc
       -0.010294858 -0.016762277 0.026225422 -0.013130757
000370 47 20 99 3b ed 10 01 b9 8a ca 26 bc 51 b6 a7 3c
       0.004673037 -0.00012308704 -0.010180125 0.020472677
000380 35 f2 15 bc f3 9e c5 39 e7 e1 f2 bb 41 17 b8 3c
       -0.009151985 0.00037693194 -0.0074121836 0.022472026
000390 37 00 d6 bc d1 6f 49 bc 2e 75 0a bc 2d 73 09 3c
       -0.02612315 -0.0122947255 -0.008450789 0.008389276
0003a0 c3 be ad 3c 09 5e c7 3b 22 4d 30 bd af 21 46 bc
       0.021209126 0.006084208 -0.04304231 -0.012092992
0003b0 10 21 f1 ba 6b 51 62 3c af dc 34 bc c2 11 df ba
       -0.0018396694 0.013813357 -0.011038943 -0.0017018842
0003c0 35 60 cb bc 1f 44 63 bc f0 42 95 bb 2c 3d a0 bc
       -0.024826149 -0.013871222 -0.0045550987 -0.019560419
0003d0 47 55 b4 bc 6c 4f 15 3c 85 d4 8b 3c ab ce f1 3c
       -0.02201332 0.009113174 0.01706911 0.029517492
0003e0 6b 98 96 ba 3d af 6e bd f3 e9 e2 bc 1e 0f a8 bb
       -0.0011489516 -0.05827259 -0.027699446 -0.0051287552
0003f0 d9 4d 3c 3c 6a 94 68 bc 27 46 b2 3a 27 e7 81 bc
       0.01149317 -0.014195541 0.0013601229 -0.015857292

action_model._continuous_distribution.mu.bias f4 [2]
000000 00 00 00 00 00 00 00 00
       0.0 0.0
