results/ppo/My Behavior/My Behavior-95423.onnx (onnx, 75098 bytes, 7 tensors)

network_body._body_endoder.seq_layers.0.weight f4 [128, 6]
000000 fa 71 0c 3f b9 e6 c7 be d0 4a 32 bc 01 cb c9 be
       0.54861414 -0.39043215 -0.0108820945 -0.39412692
000010 e1 34 03 be 57 71 f0 3e 9b f5 1c bf 81 60 e7 3e
       -0.1281314 0.4696147 -0.61312264 0.45190814
000020 0c 95 64 3e af 6e 34 3f 2d 3b 32 3f 7f cb 08 3e
       0.22322482 0.7048139 0.69621545 0.13358878
000030 91 0a f5 3d e0 bd 42 3e d7 3b e2 be 12 77 19 3f
       0.11964906 0.19017744 -0.4418628 0.5994731
000040 21 8d d6 3d 00 76 dc be a6 ce be be 36 17 6f 3e
       0.10476137 -0.43058777 -0.37267035 0.23348698
000050 9a f1 2b be 67 d9 2e 3e 35 5b 61 bd 9e bf a3 3e
       -0.16791382 0.1707512 -0.055018622 0.3198213
000060 c0 3b 05 be ac 65 3d bf 88 2a aa be dd b5 6c be
       -0.13011074 -0.73983264 -0.33235574 -0.2311625
000070 f0 eb fd 3d f2 b8 ea bd 5f 85 a4 bd 68 96 06 3f
       0.12398517 -0.11461057 -0.08033251 0.5257325
000080 af 98 97 3e 7a 08 a3 3e 9d 45 48 be 81 4c a2 be
       0.29608676 0.31842405 -0.19557805 -0.31698993
000090 be 16 36 3f 4e f3 86 3f 29 7c 16 3f 86 b8 5b be
       0.7112845 1.0543001 0.58783203 -0.21457109
0000a0 68 1b 3e 3c 6c 22 9d bb 96 f7 c4 3e cf b6 55 be
       0.011603214 -0.004795363 0.38470143 -0.20870517
0000b0 a8 b8 14 3e 21 37 ca be 53 d9 50 bd b6 88 5f 3f
       0.14523566 -0.39495185 -0.050988507 0.8731798
0000c0 ce 7b d6 be 36 23 80 bd 54 75 dd 3c 98 04 dd be
       -0.4189133 -0.06256716 0.027033485 -0.43167567
0000d0 5d 4e 3b 3e 79 60 c5 be 0c 7e 1f 3d 78 eb 81 bd
       0.18291612 -0.38550165 0.038938567 -0.0634374
0000e0 25 0d 45 3f 1e 18 6b 3d 23 f2 ae be 6a ef 0a bf
       0.7697318 0.057396047 -0.3416911 -0.54271567
0000f0 53 58 c4 3d b2 81 7f bf 13 1e 46 be 5f 04 8e 3c
       0.09587159 -0.99807274 -0.1934741 0.017336069
000100 da 94 00 be 2b 10 32 3f 2d 92 8b be 8a 3b cf 3e
       -0.12556782 0.6955592 -0.2725996 0.40475112
000110 af 98 0c be 4a 46 bb bc cf 0a 7a 3f 33 80 1c bf
       -0.13730119 -0.022860665 0.9767274 -0.61133116
000120 b3 e6 34 be 0d 5e 1a 3f 1f 78 65 be 3a 8c e7 3d
       -0.1766613 0.6029976 -0.22409104 0.11306043
000130 83 0a 2f 3f 29 bd 81 bf 65 22 7d bd ca d4 c6 3e
       0.68375415 -1.0135852 -0.06180038 0.3883422
000140 95 4f ff bc 58 8f a5 3d dd a3 df be cb 9f 84 be
       -0.031165877 0.08083981 -0.43679705 -0.25903162
000150 8a cc 1d 3e a0 a6 83 be 15 a7 b4 be 39 e8 9c be
       0.15410057 -0.25713062 -0.35283723 -0.30645922
000160 a0 79 5e 3e f0 9d fc bc e6 58 80 3e 81 71 0b 3f
       0.21726084 -0.03083703 0.25067824 0.5447007
000170 8b 80 86 be b3 01 9c 3e 72 4c 6a be 12 30 f8 3c
       -0.26269946 0.30470046 -0.22880724 0.03029636
000180 97 93 2a 3e 5a ec f3 bd a1 46 95 3d 60 14 ac be
       0.16657864 -0.11910315 0.07288862 -0.33609295
000190 3d 21 81 be ec 0f 91 bd e1 2d 73 bf bc a2 69 3e
       -0.2522067 -0.07083115 -0.9499188 0.22815984
0001a0 97 5a c2 bd 58 02 c8 bd 10 6e 7e 3e 93 4b 71 bf
       -0.09489935 -0.09766072 0.24846673 -0.9425594
0001b0 a3 af 54 3e 65 0c 51 bf 8b 36 ee 3d 94 91 27 be
       0.20770125 -0.8165954 0.11631497 -0.16364127
0001c0 18 67 c9 3e 99 80 d2 3b 87 6e cb 3e 18 5c 27 be
       0.39336467 0.0064240214 0.39732763 -0.16343725
0001d0 81 97 a3 3e 75 66 15 3f 4e 57 d6 3e a7 b9 8a be
       0.31951526 0.5835946 0.41863483 -0.27094766
0001e0 15 08 47 bd 3b c1 3c 3f f4 5a 2b be 30 31 db 3e
       -0.048591692 0.73732346 -0.16733915 0.42810965
0001f0 59 6c 35 3e 98 e1 92 be 93 59 50 be b6 51 02 bf
       0.17717113 -0.2868774 -0.2034667 -0.5090593
000200 18 93 68 be c8 b1 46 3e 2f 49 99 3d 1f f3 86 be
       -0.22712362 0.19403756 0.07484662 -0.26357362
000210 63 ee cf bd 4e d9 ce be e0 7d be 3c 99 ff 9b 3c
       -0.101528905 -0.40400165 0.023253381 0.019042777
000220 e1 8d bb 3e 33 7b 8b 3d 82 6a d6 3d f0 f0 79 3e
       0.36631683 0.06810608 0.104695335 0.24408317
000230 96 e1 f4 3e 45 65 44 3f 9e bf 52 3f e7 4d df 3d
       0.47828358 0.76717025 0.82323635 0.109035306
000240 73 65 1d 3e ad 77 d0 ba 81 9e 79 3e 60 20 51 be
       0.15370731 -0.0015904807 0.2437687 -0.20422506
000250 a1 3a bf bc 77 38 ba 3c f5 16 eb be 75 53 b5 3d
       -0.023343386 0.022732003 -0.45915952 0.08853809
000260 9b bb d1 bb 25 ae 12 3d e0 4e 40 3f 91 45 1d be
       -0.006400538 0.03581061 0.75120354 -0.15358569
000270 12 f4 09 3e 55 66 9b bd 91 8f 83 3d 03 75 db be
       0.13472012 -0.07587878 0.064238675 -0.4286271
000280 3b bd ee bc f2 ac 72 3e e2 9e d3 be e7 70 d9 bc
       -0.029142966 0.23698786 -0.41332155 -0.026543094
000290 4d 7a 99 3d c1 63 96 3e f2 ef 0b 3e 3c e9 28 bf
       0.0749403 0.2937298 0.1366575 -0.6598089
0002a0 0e 27 39 be 9f 39 fa be b7 15 f8 3d 0b 67 f4 bd
       -0.18081304 -0.48872086 0.12113517 -0.119337164
0002b0 07 77 53 3f 6a 4c 04 3e 4b 5f 90 3e 83 5d 11 bf
       0.82603496 0.12919775 0.28197703 -0.5678331
0002c0 bd e0 bb 3e 85 27 cb 3e a4 a7 43 3e 7a 0e 15 3f
       0.366949 0.39678589 0.19106919 0.58225214
0002d0 c2 54 fd be e5 f2 92 3c 87 7d 88 3d 88 28 2a bf
       -0.49478728 0.017938087 0.066645674 -0.66468096
0002e0 dc 2d 83 be 86 7c 95 3e 6d 68 01 bf cb b4 af 3d
       -0.25620925 0.29196566 -0.50549966 0.085794054
0002f0 43 90 a4 3e e9 a9 09 bf 24 87 75 be d8 bb f6 3d
       0.32141313 -0.5377489 -0.23977333 0.12047547
000300 47 86 26 be 09 c3 04 be 44 a5 9d 3e 09 6f d8 3e
       -0.1626216 -0.12965025 0.3079015 0.42272213
000310 de a5 59 be 74 6d 8a 3e 14 25 32 3f 6e ed 16 3f
       -0.2125468 0.2703663 0.69587827 0.5895604
000320 8c 3f 35 3f a9 8e 9b bd 5e cd 44 be 9e d4 2b 3d
       0.7080009 -0.0759557 -0.19218966 0.041950814
000330 80 34 1d bf 1d 1f 81 3e 06 9c d0 be 24 1f 92 be
       -0.61408234 0.2521905 -0.40744036 -0.28539383
000340 4e ff 8a bd a3 e6 16 3f 3e 2f 90 3e 76 b6 14 3f
       -0.06786977 0.58945674 0.28161043 0.58090913
000350 13 d4 a5 bd 98 1b fd bc 98 f5 cd bc 38 a0 f5 bd
       -0.080970906 -0.030896947 -0.025141522 -0.1199345
000360 ac 44 06 3e cf ba ff be c0 0e 82 be 38 90 21 bf
       0.13112134 -0.4994721 -0.25401878 -0.63110685
000370 64 48 91 3d 0c 16 5b be a9 6e ce be 5c a3 ad 3d
       0.070938855 -0.21395129 -0.40318802 0.08478424
000380 38 00 02 3e f6 f5 b7 3e 02 64 90 3f b5 ec ab be
       0.12695396 0.3592984 1.128052 -0.3357903
000390 91 54 18 bf 81 dc 0c 3f 69 ec 11 bf 09 5b 27 be
       -0.5950404 0.5502396 -0.5700136 -0.16343321
0003a0 45 03 cf 3e 18 45 c7 ba 6d b9 76 bd 11 02 3c be
       0.40432182 -0.0015203087 -0.06023543 -0.18360163
0003b0 9d 31 28 3f 53 6e 69 3e 41 60 29 be 34 1b 44 3f
       0.65700704 0.22795992 -0.16540624 0.7660401
0003c0 fa f7 6e 3f b8 cb b9 bc a7 ff 19 bf f5 7b 7c bf
       0.9334713 -0.022680148 -0.6015572 -0.98626643
0003d0 52 59 0e 3f 75 4a d7 bd 9c 2f cb be d1 a9 f5 3d
       0.5560504 -0.105122484 -0.3968476 0.119952805
0003e0 09 c0 35 bf 8f 34 85 3e 07 ae 9a be 09 18 13 3f
       -0.7099615 0.26016662 -0.30210897 0.5745855
0003f0 fb 7e 78 be f9 36 e8 3e 2f 31 8e be ad 55 11 3d
       -0.24267189 0.4535444 -0.277719 0.035482097

network_body._body_endoder.seq_layers.0.bias f4 [128]
000000 00 00 00 00 5e 01 33 3b 00 00 00 00 85 e2 57 bb
       0.0 0.0027314047 0.0 -0.0032941413
000010 00 00 00 00 61 ab 3d bb b2 8d 64 b9 f4 d7 77 ba
       0.0 -0.002894126 -0.0002179656 -0.0009454482
000020 78 8b 75 3a 01 21 21 3b 00 00 00 00 6c b3 4c ba
       0.0009366791 0.0024586322 0.0 -0.00078087184
000030 a1 c7 53 b9 9f e5 de b7 00 00 00 00 fd 5d 64 31
       -0.00020196896 -2.6571388e-05 0.0 3.3231793e-09
000040 d4 db 23 b4 83 40 2e bb 7d f7 9f 0c 0d ec 26 ba
       -1.5260531e-07 -0.0026588745 2.464678e-31 -0.0006367572
000050 30 1d ae 3a 11 d0 1a 90 eb 54 d3 ba b3 90 39 bb
       0.0013283845 -3.0531433e-29 -0.001612333 -0.0028315007
000060 cd a1 3f bb 16 8e d4 3a 81 80 ed ba 32 05 28 3b
       -0.0029240728 0.0016216661 -0.0018119962 0.0025637862
000070 5f 60 4b 3b 08 69 c2 3a 18 97 fd 3a ee 66 fd 3a
       0.0031032783 0.0014832327 0.0019347398 0.0019333044
000080 01 c1 1a 3b c4 0d 41 bb fd 76 17 3b 89 08 23 3a
       0.0023613574 -0.0029457668 0.0023111694 0.00062192284
000090 00 00 00 00 32 87 4f 39 e3 c8 36 3b 66 5f 23 3b
       0.0 0.00019791423 0.0027890734 0.0024928688
0000a0 00 00 00 00 d4 df a2 1a f3 64 5d bb 93 d1 03 3b
       0.0 6.7363243e-23 -0.0033782094 0.002011393
0000b0 41 80 b7 1e c4 48 27 bb 4b 90 30 15 e8 2c 31 3b
       1.9428923e-20 -0.002552555 3.5656744e-26 0.0027034823
0000c0 00 00 00 00 0d 17 69 bb 95 60 ee 3a b8 c5 61 39
       0.0 -0.0035566718 0.0018186743 0.00021531328
0000d0 9d 99 b7 06 89 76 9d a5 9b fa 23 05 42 62 2f bb
       6.9062664e-35 -2.731548e-16 7.710252e-36 -0.0026761447
0000e0 cd 95 d3 bb 0d de fd 2f 34 3f 50 16 00 00 00 00
       -0.0064570666 4.6178208e-10 1.682205e-25 0.0
0000f0 4f c2 a9 3a 4f 96 3e bb 4c 70 22 a4 76 45 39 bb
       0.0012951585 -0.002908129 -3.522327e-17 -0.0028270162
000100 a8 6b 29 2e 84 29 a0 8e 8f 0d cb 3a cc c3 23 a8
       3.852177e-11 -3.9483023e-30 0.0015491712 -9.090774e-15
000110 00 00 00 00 00 00 00 00 be ee 4a bb a6 bd 28 bb
       0.0 0.0 -0.0030965055 -0.0025747805
000120 42 6a 30 b7 37 d4 dc ba 2c 28 92 14 06 d3 2f 3b
       -1.0515158e-05 -0.0016847913 1.4758078e-26 0.002682866
000130 3a a9 c7 1d c9 64 bd 3a 72 f5 28 bb 07 43 0a 38
       5.2849838e-21 0.0014449592 -0.0025781062 3.2964188e-05
000140 bf 8d 82 bb 95 62 4f 3a b2 24 00 3b 95 aa 4b bb
       -0.0039841826 0.0007911113 0.0019553122 -0.0031077017
000150 90 2c 22 11 00 00 00 00 07 a3 f1 ba 00 00 00 00
       1.2793279e-28 0.0 -0.0018435427 0.0
000160 12 ec 45 bb fc f6 2c 3b 89 d9 b5 3a 14 a5 10 1f
       -0.0030200523 0.0026392331 0.0013874035 3.0629736e-20
000170 51 a4 ea ba 8c ff 33 bb 3d 2b 18 bb 7e ce 1e 3b
       -0.0017901753 -0.002746555 -0.0023219131 0.0024231966
000180 8d 65 3e bb 00 00 00 00 64 e2 37 bb a1 8c 3d a7
       -0.0029052228 0.0 -0.0028058523 -2.6305254e-15
000190 b4 b2 46 bb 07 4e 24 3b 9e 84 49 bb 1b e5 5c ba
       -0.0030318918 0.0025070922 -0.0030749212 -0.00084264734
0001a0 d5 0b 27 3a 06 9d c4 39 ec bb 8a ae bc 1f b9 06
       0.00063723075 0.00037501025 -6.308895e-11 6.9635895e-35
0001b0 00 00 00 00 a4 65 3d bb b5 66 e1 3a 6d 11 1f 3b
       0.0 -0.0028899694 0.0017196747 0.0024271861
0001c0 f3 74 81 3a 2f 53 a4 3a 00 00 00 00 6c 98 c5 10
       0.0009876773 0.0012536998 0.0 7.793764e-29
0001d0 cb da 37 3b 1a 85 1a 3b 76 34 3f 3b 00 00 00 00
       0.0028053995 0.002357787 0.0029175556 0.0
0001e0 ee 86 88 3a 85 36 49 bb 00 00 00 00 b1 66 3d 3b
       0.0010416189 -0.0030702662 0.0 0.002890032
0001f0 00 00 00 00 00 00 00 00 64 21 ba bb 34 b6 2f 3a
       0.0 0.0 -0.00568025 0.00067028706

network_body._body_endoder.seq_layers.2.weight f4 [128, 128]
000000 68 4c 62 3c 9a 6e 28 3c ac d6 35 3e ee c9 cf 37
       0.013812162 0.010280276 0.17757672 2.4770354e-05
000010 0d 92 8d bc f7 0c 24 bd b4 df c1 3d 54 ae 72 bd
       -0.017281557 -0.040051427 0.09466496 -0.059248284
000020 3e 28 6e be 96 c3 c0 bd 99 67 0a be ce aa 2f 3e
       -0.23257539 -0.09412305 -0.13516082 0.17155
000030 1f 83 1c 3e 60 d7 59 bc 07 56 85 3d 2f c2 2e be
       0.15284394 -0.013295978 0.06510549 -0.17066263
000040 25 93 b2 3c b5 1a 46 bd 07 b2 8d 3d 94 1b 2a 3d
       0.02179868 -0.048365314 0.06918722 0.041530207
000050 db a7 f5 bd c5 8c 88 bd cd f1 bd bd ce ea 1e 3e
       -0.119949065 -0.06667475 -0.092746355 0.15519258
000060 af f6 b9 3c 4d 4a 85 bc 17 1f 12 bc 55 69 3b be
       0.022700636 -0.016270781 -0.008918545 -0.183019
000070 45 d6 f7 3d 5f ca 8a ba eb 6b 08 be 15 91 f5 bb
       0.121014155 -0.0010588876 -0.13322417 -0.0074941018
000080 bd ad 02 3d bd dd a9 3d c1 64 e9 3c 1b c9 af bd
       0.03190397 0.08294246 0.028490426 -0.0858328
000090 72 fa a6 3c 2d 98 16 bd 5b 2e 42 3d 23 54 b7 3d
       0.020383094 -0.03676622 0.04740749 0.08951595
0000a0 4f 0f f5 bd c4 1e b3 bd 2f c1 b1 bd 50 5f 1b bd
       -0.119658105 -0.087461025 -0.08679425 -0.037932694
0000b0 5a 12 ee 3c d7 ee 26 3e 0d b8 11 3e aa 35 f7 3c
       0.029061485 0.16302048 0.14230366 0.030176956
0000c0 7a 11 03 bd b9 4a 1c be 9b b1 7b bd bb 4f 2e be
       -0.03199909 -0.1526288 -0.061448675 -0.17022602
0000d0 77 a9 b0 3d 9f 2d 86 3d a0 ac 65 bd 20 50 21 3d
       0.08626073 0.0655167 -0.05607283 0.039383054
0000e0 b5 f9 24 be 86 04 99 bc 5c 17 79 bb 0d cd cd 3c
       -0.1611088 -0.018678915 -0.0038008308 0.02512219
0000f0 66 3e 40 3d 7f 95 ea 3d 00 cf 2f 3d f6 0c 22 bd
       0.046934508 0.11454295 0.04292202 -0.03956314
000100 51 00 57 3d 65 c1 67 bd 01 98 5f 3b 0c 45 21 bd
       0.052490536 -0.05658092 0.00341177 -0.03937249
000110 af 97 42 3d f9 d8 0c bd a4 a2 ab 3b 9a b1 c7 bc
       0.047507938 -0.03438661 0.005237894 -0.02437668
000120 a4 b5 91 bd 20 23 61 bc 2b c5 e9 bd e1 13 24 3e
       -0.07114723 -0.013741285 -0.1141456 0.16023208
000130 3e 31 5c be 84 bf 56 3d 71 13 8b 3d 48 7d d4 bb
       -0.2150316 0.052428737 0.067908175 -0.0064846613
000140 31 f4 10 3d 4a 0d 1e be 7a 01 42 be 11 47 d2 bc
       0.03538913 -0.15434757 -0.18945876 -0.025668653
000150 be 11 5d be 74 6e 2e bd d5 33 94 3b c2 fd 9e 3b
       -0.215888 -0.042585805 0.0045227804 0.0048520276
000160 81 19 0f bb 3d 6f 47 bb 0a 61 2d 3e 69 6f ee bc
       -0.002183527 -0.0030431293 0.16931549 -0.029105859
000170 ad ac 95 3d 11 20 34 bd 1f 7f f2 3b 8b a5 74 bd
       0.07308326 -0.043975893 0.007400408 -0.059728187
000180 e5 48 22 be ef 75 b8 bd 37 93 dc 3c e7 c9 4c 3e
       -0.1584812 -0.09006869 0.026925666 0.19998895
000190 9b 87 01 bd 9a a1 06 bc 38 03 75 bc ad 4a 06 3e
       -0.031623464 -0.00821724 -0.014954381 0.13114424
0001a0 aa 56 27 3e 4f 53 38 3d 43 79 46 3d 34 b8 e6 3b
       0.16341653 0.045001324 0.048455488 0.0070410017
0001b0 3b cc 45 3d bf 6e 31 3e 0c fd 93 bd 87 aa 6c bd
       0.048290472 0.17327403 -0.07225999 -0.057779815
0001c0 dd a4 cf bd de 9a 4e bd 44 bb 25 3e 96 9f b9 3d
       -0.10138867 -0.05044066 0.16184717 0.09063642
0001d0 d8 1d d5 3d 7f de ba 39 04 f2 0b 3d f9 91 5c 3d
       0.10406083 0.00035642457 0.03416635 0.053850148
0001e0 18 ab 95 3d a1 b5 e4 bc 1a a0 5a 3c 71 b0 00 be
       0.07308024 -0.027918639 0.013343835 -0.12567307
0001f0 6b 85 2e 3e 10 9a c1 3d 72 a2 31 bd 57 1f 0f be
       0.17043082 0.09453213 -0.04336781 -0.13976799
000200 ee d9 58 3d a2 4e a4 bd 67 73 84 3d 16 0e 97 bc
       0.05294221 -0.080228105 0.06467324 -0.018439334
000210 45 02 5e 3d 99 16 41 be 0c 27 6b 3d c7 7b 9c 3d
       0.054201383 -0.18856277 0.057410285 0.07640796
000220 93 36 15 3d ca f9 09 be 4e 88 16 3d c5 95 68 bd
       0.036429 -0.13474193 0.036751084 -0.056783456
000230 87 1f 31 bd d4 b1 56 bd 2a 1a d5 bd 58 40 fe bd
       -0.043242957 -0.052415684 -0.10405381 -0.12414616
000240 b2 a1 a0 bd 8e a5 1d bd 8c e6 c1 3d d3 35 49 bc
       -0.07843341 -0.038487963 0.094678015 -0.012280899
000250 12 69 2a 3d 8e 2b 4c bd a0 f2 d5 bd 19 ed 2a bc
       0.04160411 -0.049846224 -0.10446668 -0.010432505
000260 6b 84 35 3e 5f 74 fb bd 97 28 8b bd d6 3e 07 3d
       0.17726295 -0.122780554 -0.06794851 0.03301891
000270 21 28 0c be 53 4d 97 bc c2 97 d1 bc 07 aa 0f be
       -0.13687183 -0.018469488 -0.02558506 -0.14029704
000280 b7 cc ed 3b cf 85 07 3d 62 2b 8b bd cc eb fe bd
       0.00725707 0.033086594 -0.06795384 -0.124473184
000290 c8 f2 b2 bd e8 bd dc bb 61 0b e2 bd c9 ca 08 be
       -0.08737713 -0.006736506 -0.110373266 -0.13358606
0002a0 1d 71 d6 bd f2 58 f5 bd 74 db 60 3d fa 9e c6 bd
       -0.104707934 -0.119798556 0.054896787 -0.09698291
0002b0 34 b4 3b 3d b6 e9 bf 3d 83 80 ab bc 7b 7d ec bd
       0.045826152 0.09370749 -0.020935303 -0.11547371
0002c0 1b 59 89 bd 44 18 1e 3d dc 7a 4e bc 14 76 08 bb
       -0.06706449 0.03859736 -0.012602534 -0.0020822333
0002d0 32 1a 26 3e 9e 59 1a 3e 32 8a a0 bb c7 48 1a be
       0.1622093 0.15073249 -0.0048992867 -0.15066825
0002e0 e2 b8 81 3d 02 8b ef 3d 32 79 56 be b0 ca d6 bd
       0.06334092 0.116964355 -0.2094467 -0.10487878
0002f0 59 ce 13 bd 75 75 60 bd 40 cb 74 3d 04 c1 41 bc
       -0.03608546 -0.054799516 0.059764147 -0.011825804
000300 62 d7 10 bd 2c 67 2f 3e a1 ee 64 3d 48 dc 4d 3e
       -0.035361655 0.171292 0.055891637 0.20103562
000310 5b fc 3d bd 37 c2 6e be 32 93 2a be 8f 1d d9 bd
       -0.046383243 -0.23316275 -0.16657713 -0.10601341
000320 d2 91 fb 3d 49 88 ad bc 05 c8 3d 3e 5f 0f 29 3d
       0.122836724 -0.02118315 0.18533333 0.041274425
000330 9f cb 91 3d 67 46 de 3c 2f 12 9e bd 9d 42 87 3e
       0.07118916 0.02713318 -0.07718312 0.2641801
000340 3d b4 c3 bc f5 6f 04 3d 6f e1 57 3c b1 47 41 3d
       -0.023889655 0.032333333 0.013176306 0.04718751
000350 e4 a3 ec bd d2 7d 15 bd 48 2f 8c 3d cd ec 87 bd
       -0.11554697 -0.036496945 0.06844956 -0.06636963
000360 ab 62 eb bd 2e 78 d6 3c d3 27 9d bd 4d 81 5a bd
       -0.11493429 0.026180353 -0.076736115 -0.053345967
000370 9a 93 18 bc 38 02 da 3c 61 8c 04 3e d2 2f 9a bd
       -0.009312535 0.026612386 0.12944175 -0.07528652
000380 ab 12 f3 3c 3f 09 43 3d ce 7f 87 bd 2d 95 2a be
       0.029671988 0.04761624 -0.06616174 -0.16658469
000390 66 9d 1f bd 73 f5 1d be 45 e6 95 3c 0b 18 24 3a
       -0.038968466 -0.15425663 0.018298278 0.0006259686
0003a0 10 6e 11 bc b7 e6 5d 3e bf 64 88 3e 83 26 8c 3d
       -0.008876339 0.21670042 0.26639363 0.06843283
0003b0 ac 71 de bd 4c 0c bc bd d4 81 08 3d 08 7f 50 bd
       -0.10861525 -0.09182033 0.03332694 -0.050902396
0003c0 b3 7d 1f bd 0a 6d 55 3d 6d 6a a4 bd cb ad c3 ba
       -0.038938235 0.05210594 -0.080281116 -0.0014929114
0003d0 a0 36 5d 3c 2b 3b a3 bd 29 c1 2f bd 78 f2 3f bd
       0.013501793 -0.0797027 -0.04290882 -0.046862096
0003e0 83 4b 79 3d b0 59 5d bd 3b 81 3b be 6d c9 2a 3d
       0.06086303 -0.05404061 -0.18311016 0.041696
0003f0 ed 73 24 be c9 57 15 bd 31 ec d1 bd e0 23 08 3d
       -0.16059847 -0.03646067 -0.10250128 0.033237338

network_body._body_endoder.seq_layers.2.bias f4 [128]
000000 e4 b2 0b 2f 00 00 00 00 04 e4 35 bb 3a 08 95 9a
       1.2705531e-10 0.0 -0.0027754316 -6.1638246e-23
000010 da 4d 0c bb 22 33 0e 3b dd 58 15 b4 00 00 00 00
       -0.0021408708 0.0021697958 -1.3909035e-07 0.0
000020 5e 3d 31 3b 92 65 02 3b 00 00 00 00 03 04 98 a0
       0.0027044634 0.0019896966 0.0 -2.5752456e-19
000030 ec b3 36 3b ce 4f df 3a db 79 06 bb 15 26 44 bb
       0.0027878238 0.0017037333 -0.002051941 -0.0029929925
000040 7f 42 2f 3b 15 8e 2d 3b cd b3 33 3b 00 00 00 00
       0.0026742516 0.0026482393 0.0027420402 0.0
000050 07 12 4e bb f3 18 2c 3b a9 8e ec 87 1d 75 9a 3a
       -0.003144385 0.0026259988 -3.5593181e-34 0.001178417
000060 d4 34 18 19 a7 9b 28 bb 08 f5 fa 8c dc d9 95 21
       7.868884e-24 -0.0025727542 -3.8666072e-31 1.01543e-18
000070 92 6b 36 3b 00 00 00 00 0a d0 fd 1e b2 38 77 ba
       0.0027835113 0.0 2.687346e-20 -0.00094307505
000080 91 8b 27 3b a9 e3 44 3a ca 8c 38 bb 43 ca fc 97
       0.0025565366 0.00075107306 -0.0028160089 -1.6336176e-24
000090 86 20 25 bb 71 38 43 3b e8 e0 5a 94 50 c4 15 3b
       -0.0025196387 0.002978828 -1.1050542e-26 0.0022852607
0000a0 44 5a 38 3b 7d 67 1c bb 00 00 00 00 4a e5 0f 3a
       0.0028129974 -0.0023865395 0.0 0.0005489184
0000b0 ba 8d 50 b3 6e fc 3b bb bf 6d 08 3b 88 5d 1b 25
       -4.8557673e-08 -0.0028684395 0.0020817367 1.3475797e-16
0000c0 6d 1d 2a 3b f5 dc 49 bb 57 54 20 3b 5b ae 9e 3a
       0.002595748 -0.0030801867 0.0024464333 0.0012106405
0000d0 33 2f 57 bb 00 00 00 00 83 f0 4e bb 00 00 00 00
       -0.003283453 0.0 -0.0031576462 0.0
0000e0 00 00 00 00 42 c7 be 3a 88 b2 1f 3b bc 91 2e 3b
       0.0 0.0014555233 0.0024367888 0.0026637157
0000f0 6d 51 88 15 22 78 2e b6 b7 3b 29 3b 8c d1 1d 3b
       5.505843e-26 -2.5997947e-06 0.0025822946 0.0024081198
000100 e3 f3 08 bb ba c6 1e 3b fb 0c 2b bb 84 6a 07 ba
       -0.002089732 0.0024227337 -0.0026100266 -0.00051657134
000110 b8 35 e9 b2 82 75 8c a5 8b 04 50 b5 3d fb e6 3a
       -2.7149198e-08 -2.4365755e-16 -7.749265e-07 0.0017622482
000120 4f 66 16 bb ff 50 58 ab 33 f1 17 b5 59 49 de 31
       -0.0022949164 -7.685102e-13 -5.6602875e-07 6.469389e-09
000130 f2 46 03 87 a2 76 39 bb ed 99 35 3b fc f7 85 b8
       -9.876194e-35 -0.002829947 0.0027710155 -6.388125e-05
000140 25 bf bc 8a a8 7d 36 3b 09 5f 0a 3b 00 00 00 00
       -1.8175642e-32 0.0027845893 0.0021113774 0.0
000150 b1 a1 35 3b 27 d8 a6 b5 f5 13 36 3b 4f 0e 43 bb
       0.0027714784 -1.2430872e-06 0.0027782891 -0.0029763167
000160 d9 85 2a 3b 77 f9 a6 b8 01 db 0c 3b 42 55 3e bb
       0.002601972 -7.961963e-05 0.0021492841 -0.0029042517
000170 27 45 97 ba 77 df 39 95 4f 17 27 3b fc 62 cf 1f
       -0.0011540995 -3.7536735e-26 0.002549607 8.7831666e-20
000180 63 81 59 34 ac b3 69 16 d0 74 e0 ad 3c 48 13 3b
       2.025677e-07 1.8878285e-25 -2.5517727e-11 0.0022473475
000190 c4 96 12 ac 8a 77 35 3b 9b 2f e0 ba 6c 5a 30 3b
       -2.083154e-12 0.002768966 -0.0017104031 0.0026909364
0001a0 08 b5 60 a4 18 e1 21 3b 00 00 00 00 2e 4a 85 84
       -4.8725597e-17 0.0024700817 0.0 -3.1336273e-36
0001b0 42 e1 9c 8a ff 49 e3 ba 84 24 ae ba bf 44 a1 ba
       -1.5106986e-32 -0.0017340778 -0.0013286029 -0.0012303813
0001c0 b8 db 26 3b 7a 56 1d 3b 71 01 1f 3b 38 b7 3f bb
       0.0025460552 0.0024007843 0.0024262334 -0.0029253494
0001d0 5f 93 fe ba 59 17 0f aa 2e f4 44 bb 15 48 72 3a
       -0.0019422582 -1.2709052e-13 -0.003005277 0.00092423084
0001e0 b3 9d 30 3b 57 6c 49 13 40 f0 26 3b e6 70 53 bb
       0.0026949465 2.5423182e-27 0.002547279 -0.0032263338
0001f0 a1 a6 28 bb 00 00 00 00 00 f5 47 bb e6 23 a9 3a
       -0.0025734084 0.0 -0.0030511022 0.0012904375

action_model._continuous_distribution.log_sigma f4 [1, 2]
000000 2c ac d9 3b b8 ee 18 3b
       0.006642839 0.0023335647

action_model._continuous_distribution.mu.weight f4 [2, 128]
000000 7a 48 9f bb 9a 9b 83 bc 21 49 07 3d 3f 1d a5 3c
       -0.004860935 -0.016065408 0.033028726 0.020155547
000010 0e 5d 52 bc ce 28 65 3b a8 30 98 bb 92 8c 29 3c
       -0.012839569 0.0034966948 -0.004644472 0.010348456
000020 bf 49 5d bc 85 96 b5 bc f5 fb 8e b9 6f b3 f3 bb
       -0.013506352 -0.0221665 -0.00027272073 -0.0074371616
000030 75 63 84 bc 47 4c 12 ba a4 8f 70 3c 77 e9 7c 3c
       -0.016160706 -0.0005580824 0.014682684 0.015436522
000040 7d c2 1e bc 42 8d b4 bb 43 eb 25 bc 33 b3 60 bc
       -0.009689924 -0.0055100033 -0.010126892 -0.013714599
000050 3d 53 b2 3b c8 d4 61 bc f0 64 9c 3c 28 24 6c 3b
       0.0054420517 -0.013783641 0.0190911 0.0036032293
000060 71 3d 3c bc f9 a3 1d 3d d7 0b 64 3c a2 44 13 bc
       -0.011489258 0.038486455 0.013918838 -0.008988531
000070 2d 34 a8 bc 6a 9d 87 3b ec 65 39 3d 91 98 5d bc
       -0.020532692 0.0041386383 0.045263216 -0.013525144
000080 e3 1b 96 bc c9 b5 a8 bc 4a 8e 4d 39 70 58 a5 bc
       -0.018323844 -0.020594494 0.0001960333 -0.020183772
000090 c4 06 e1 3c 8c d1 30 bc c2 f6 83 bc a7 83 d8 bb
       0.027469046 -0.010792147 -0.016108874 -0.006607491
0000a0 58 5b ab bc ea 6e e6 bb 22 88 72 bb 22 92 27 bc
       -0.02091758 -0.007032265 -0.003700741 -0.010227712
0000b0 a7 4b e7 bc 1b 1b 5a 3c d4 0e dd bc ca c2 57 bb
       -0.028234316 0.0133121265 -0.02698461 -0.00329225
0000c0 82 46 b7 bc 1d 76 09 3c 77 9c ed bc 46 7e 0a 3c
       -0.022372488 0.008389977 -0.029005272 0.0084529575
0000d0 d4 18 79 b8 88 e4 63 3b a8 66 ae 3b d7 0a 2d bb
       -5.938935e-05 0.0034773666 0.005322296 -0.0026404166
0000e0 bc d6 1f bd 82 02 fc 3b 6a a0 38 bb 0e dd fb bc
       -0.039023146 0.0076907286 -0.0028171786 -0.030745056
0000f0 73 0f ce 3c 7c 39 02 bc bd ae a2 bc a5 83 38 3a
       0.025153851 -0.007948276 -0.019858712 0.00070386595
000100 f6 a6 85 bb 4f 4f cb bc 2f e5 c6 bb 26 c3 1c bc
       -0.004078741 -0.02481809 -0.0060698013 -0.009568011
000110 3e e7 8a 3c e3 2c 3b 3c e4 3b e7 bc 18 48 b3 bc
       0.016955968 0.011424276 -0.0282268 -0.021884963
000120 93 12 ca 3b be 71 3b ba 27 f4 36 bc 80 bb 30 3b
       0.006166765 -0.0007150433 -0.011166609 0.0026967227
000130 5c 2e 24 bc bc a6 3a ba b6 06 3e bc f0 89 23 3c
       -0.010020819 -0.0007120182 -0.01159828 0.009981617
000140 0f d4 a3 bc 76 ba 04 bd bf 7f 38 bc 80 e5 83 3c
       -0.019998578 -0.032404386 -0.011260926 0.016100645
000150 75 6e 8f bc 40 cb a1 3c 37 69 68 bc 10 fc 5e 3c
       -0.017508725 0.019750237 -0.014185241 0.013609901
000160 2b 2f 20 bb 83 ec e0 3c 07 ed bc 3b e6 30 96 3c
       -0.0024442177 0.027456528 0.0057655605 0.018333863
000170 b5 04 f4 3b 0d bf 71 3c 2b 91 54 bb f6 88 98 bb
       0.00744685 0.014755023 -0.003243516 -0.004654999
000180 c5 fe c2 3c ff 4f bb 3b 38 e4 43 3c 8a fd 57 bd
       0.023803124 0.0057163234 0.011956267 -0.052732028
000190 e0 bc 42 3b 23 0f 39 bc 0a 76 2c 3d 0f ea 0a bd
       0.002971463 -0.011295113 0.04210476 -0.033914622
0001a0 76 9b b1 bb d9 d6 65 bc f5 dc 59 bc f2 6b 6b 3a
       -0.0054201437 -0.014028274 -0.013297309 0.00089806237
0001b0 b9 4b a5 3a c5 76 91 3c 72 49 8e 3c e7 58 28 3c
       0.0012611068 0.017756829 0.017369006 0.010275102
0001c0 50 6b 80 bc e7 47 93 ba 5d e8 12 bd c0 f7 03 3d
       -0.01567617 -0.0011236639 -0.03586613 0.032218695
0001d0 fb 13 de 3b 08 19 dc 3c 1f f9 3a b9 76 cc 40 3c
       0.006777284 0.026867405 -0.00017831147 0.011767497
0001e0 d4 c7 0f bc 72 4b 67 3c d0 b1 12 bd 96 b7 23 3c
       -0.00877567 0.014117109 -0.035814106 0.009992501
0001f0 7f 84 03 bc b4 e5 9b 3c 94 c4 7e 3b 3f 02 5d bc
       -0.008027195 0.01903043 0.0038874494 -0.013489305
000200 1d 53 1a bd 13 b5 1c bc 34 63 1f bb 10 7f 81 3c
       -0.03767692 -0.009564656 -0.0024320604 0.015807658
000210 b8 3f db bc 49 57 bb 3c a9 86 87 3c e6 10 a7 bc
       -0.026763782 0.02286877 0.016543703 -0.0203938
000220 30 28 79 3c 54 a9 43 bb a3 e7 59 bb 9b 26 0a 3d
       0.015207335 -0.0029855566 -0.0033249639 0.033728223
000230 bd fa c3 3c f7 bc dd 3b ad fb 5e 3b 70 35 b0 bc
       0.023923272 0.006766911 0.0034024522 -0.021509856
000240 ab 7e d9 3c cf c6 83 3c 9a 33 b3 3c 42 6a d7 3b
       0.026549658 0.01608601 0.021875191 0.006573946
000250 40 ad e0 3a 6e 2b 43 3c 93 c6 2c 3a 38 c7 32 3c
       0.0017141476 0.01191221 0.0006590869 0.010911755
000260 fd 8b d1 3b 9f ee a9 3b 0d 81 47 3a fe ee 93 bc
       0.0063948617 0.0051859166 0.00076104776 -0.018058296
000270 8a 25 d6 3c b6 5b 8d bb ea 4b 08 3c c6 d2 17 bc
       0.026140947 -0.0043139113 0.008318881 -0.009266561
000280 5a 6b ad 3b 92 a5 1f bc 8d 01 c0 bc 7f 68 a3 3b
       0.0052923383 -0.009744065 -0.02343824 0.004986822
000290 0d 26 3c 3c 29 8e d4 3c 08 26 55 3b 53 b5 26 3b
       0.011483681 0.025946693 0.003252389 0.0025437668
0002a0 72 fe 01 3d c5 f8 4a bc d3 a3 d0 bc 1e fb 43 bb
       0.0317368 -0.012388413 -0.025468742 -0.0029904316
0002b0 d2 27 09 3d 69 bd 7a 3a 7c 71 71 bb 63 09 28 bc
       0.03348524 0.00095649675 -0.0036841324 -0.010256144
0002c0 01 fa e2 3b ef 10 20 bc 28 6a 97 3a f6 79 8e 3c
       0.0069267754 -0.009769662 0.0011552023 0.01739214
0002d0 d0 13 bb bb 1e 2b 93 3c 6b c2 19 bc 19 13 bd bc
       -0.005709149 0.017964896 -0.009384732 -0.023080396
0002e0 e5 60 06 bc 60 7b 96 3c bb 0c 1e 3c b7 9f 94 3c
       -0.008201812 0.018369377 0.00964659 0.018142564
0002f0 c3 5e 1e bc d5 0a 37 bc c5 98 14 3c 89 ee d4 3c
       -0.009666148 -0.011172016 0.009069626 0.025992649
000300 3d a4 d2 3b 2c 45 b0 3a b1 64 06 bd a4 50 b8 3c
       0.00642827 0.0013448349 -0.03281087 0.02249939
000310 1f 03 20 bb 08 7c 6e bc 58 ff b1 bc c8 a8 97 bb
       -0.0024415923 -0.014555939 -0.021728203 -0.0046282746
000320 cb 54 dc 3c 33 e8 90 3c de 7f 00 3d 69 0a 9f bc
       0.026895901 0.017688846 0.031371944 -0.019414144
000330 23 bb 80 3b 11 e1 af bc 51 2f be 3c bb 72 62 bc
       0.0039285584 -0.021469625 0.023215922 -0.013821299
000340 f8 63 92 3c 9e 37 14 3d b1 b2 52 3a ab 72 a5 3c
       0.017869934 0.036185853 0.00080374914 0.02019628
000350 5d 06 89 3b 47 e2 9e ba 02 bb d5 3c 76 50 52 bc
       0.0041816668 -0.0012121879 0.026090149 -0.012836566
000360 f0 e2 5f 3d 33 6a fd 3c 03 fd e6 3c c9 6f d3 bb
       0.054659784 0.030934429 0.028196817 -0.006452535
000370 02 df 0a 3c 12 70 b4 bc 38 6a e0 3c 34 f9 2e 3c
       0.008476021 -0.022026096 0.027394399 0.010679532
000380 99 0b 49 bc 27 af 36 3d ae fa 75 ba 5d 1b ef bb
       -0.0122708315 0.044600632 -0.00093833625 -0.007296963
000390 b7 69 0b bc e4 78 bc 3c 92 30 b0 3c 0c f3 cb 3c
       -0.008509091 0.023006864 0.021507535 0.024896167
0003a0 aa 52 c2 bb f2 db 85 3b 30 54 19 bc f2 79 ec 38
       -0.0059302645 0.0040850574 -0.009358451 0.00011276071
0003b0 63 b0 16 3b 3f 3d 38 3c 4d fb b5 3b 1b 67 ad 3c
       0.0022993318 0.011245071 0.005553639 0.021167329
0003c0 4a bc af 3b 66 15 88 3c 81 fa 5f b9 e9 ea 08 bb
       0.005363022 0.016611766 -0.00021360257 -0.002089197
0003d0 38 5b 50 3d a2 05 db bb ee 01 34 bc 6f 0b 9c 3c
       0.050868243 -0.006684021 -0.010986788 0.01904842
0003e0 b7 42 45 3c 05 8e da 3b 6a 1b 7e 3b 22 43 b6 3b
       0.012039832 0.006669762 0.0038773664 0.005562202
0003f0 d5 4b 36 bd c0 9d 94 bb 63 b2 65 bc 49 56 42 bb
       -0.044505913 -0.004535407 -0.0140195815 -0.002965348

action_model._continuous_distribution.mu.bias f4 [2]
000000 5f d0 29 bb 6b 9b 2d 3b
       -0.0025911552 0.0026490341
