results/ppo/My Behavior/My Behavior-3983.pt (torch, 149810 bytes, 12 tensors)

network_body._body_endoder.seq_layers.0.weight f4 [128, 6]
00000000: 31a2 c5be 911b 8fbe c60c 6e3e 6be2 43be
00000010: dd91 d13e 3982 f23e f539 a63f f94e f83e
00000020: 21f4 eabb 4074 ccbe c665 6c3d dfaa b33e
00000030: 1c75 83be e5fe bb3e 285e cabe d851 56bd
00000040: 6a51 433f 2883 d9be d67d bfbd a0f1 10bf
00000050: 3fd6 2bbe 2991 403f 7110 3d3e 0fd0 17bf
00000060: ecea d6bd 5a0a 933e 5881 033f 340f 49be
00000070: 82c9 24bd 10ba 12be b286 74be 743e 673e
00000080: 066c 283e 3a14 ab3e 366b 173e 371b 853f
00000090: 96c6 15be a493 b1be 519d 5d3e 8817 5e3e
000000a0: 7ed0 1b3e 1253 41be 1a21 dfbd b71c b9bc
000000b0: 3eb1 a4bb 1d89 49be 021c f93e dbc6 6d3e
000000c0: 09dc 04bf e87d 4cbe 9bd6 51be 6142 e23e
000000d0: 0314 4b3d 3138 c83e 61aa e7bd 6774 03bf
000000e0: 5478 9bbb 00f7 2f3e c603 773d bd09 0dbe
000000f0: 50f4 923e 2ab3 073f 00d7 c83e d45b 6ebe
00000100: c471 41bf 086a 313e 470c 29bf 9d5c febe
00000110: 9a7e 1ebe 7a5b 923e 42f7 92bf c87d 253f
00000120: 1ffa e73d be9e e03e 0ca9 b73e 381d 973e
00000130: 5b13 3cbe 8505 0b3e 7da3 7c3e 854a 9a3f
00000140: e2c5 f3be 9d1e 213f 9555 dc3e 50e6 babd
00000150: 0cea dbbb 69f0 f0bc 9689 1b3c da57 d13e
00000160: 6ad2 f2bd a312 9cbc ccca 133f a590 fe3e
00000170: b9bd 88be edf9 28bd b605 02bf c3db 22bf
00000180: cb02 cf3e 3eb9 cebd 26dc 0d3f 9727 333f
00000190: 9e83 183e ffe5 d4be d7dc 6abe ad38 2ebe
000001a0: 545a 353f 4112 98be c882 c4bd 42a9 e83e
000001b0: facf acbd 7693 203f f2b6 fdbe 151c e3bd
000001c0: 02a4 a6be de35 29bf eff8 9e3e e455 09bf
000001d0: f021 cb3e 018e 633e c05d 85bd cc6f 92be
000001e0: 08f4 6f3e 909f 03bf 6f10 33be 5cdd d73e
000001f0: 701f 82be 1c6c c7bd 14b3 0a3f dd16 f1be
00000200: 92f9 bf3e c904 e13b 4825 21bd ab5c c13e
00000210: 0b0e df3e 5b27 b33e 233f e2bd e2b0 80be
00000220: a765 483d 2e84 223f 768f e8bd c0c7 39bd
00000230: 367a bdbe 26ca 883e b0d5 31be a6fa 123e
00000240: 996c f5bb af30 efbe 193d c83e dee1 cabe
00000250: 1738 8abe 0da1 44be 1259 c23d bcee a2bd
00000260: 22ba 26be b764 9ebe 0a4f 1f3e 2d7e cbbd
00000270: 8313 09bf c6e3 0dbf 3e6c 373e 6eca 61be
00000280: b3f3 873d fb6f 9f3d a73d 003e 9847 393d
00000290: 52bb c5ba a6cc 27be 5c1a 373f bc2e 80be
000002a0: 86a2 7f3d b633 b93c 3933 23bf 3dde 00bf
000002b0: a4f4 3abf 630b 8c3e dec9 403b 56f9 1c3d
000002c0: f0d9 2f3f cba7 b53e 0879 b8be e1aa 053e
000002d0: 0120 aa3e 84f6 a4bd aef3 cfbe 3e8f 363d
000002e0: 903d 76be e2d2 5a3e db70 483f b7cd 2dbf
000002f0: f283 42be ebea 80bd aaf8 73bf 6838 55be
00000300: cec9 853e 1bd8 543e 610e c63e 5353 5a3f
00000310: 1f3d cc3e 4724 243e 1162 3dbd e1fe debe
00000320: 5bb8 893e 4ccc 663e 0754 74be 217a 62bf
00000330: dec1 8fbe 0741 e13e 54d0 c03c a38a 1dbf
00000340: 425b c33e 0a62 2dbd 30fd 283f ddcc 0b3f
00000350: 2d5f a5be 6587 7ebe 0611 43be 49f1 06be
00000360: f6a0 15be e694 273b 4b54 933d 98b3 2dbf
00000370: 32d1 68be c07b efbe dca3 41be 2044 de3e
00000380: 9c5f 8d3e e60e 45be 5fd5 fcbd 4027 853d
00000390: b717 523f 068a c83e 8f7c 823e 363f 9fbe
000003a0: b0a9 943e edc2 673f c3ed 5abe 4627 d5bd
000003b0: c0d1 ad3e 7994 9c3f ccb1 ca3c 3541 d5be
000003c0: 7006 203f e572 2c3e 0a7b dabd fb9d b63d
000003d0: e550 62be b65a d03c c1d4 ad3e 98a1 c33e
000003e0: 6b42 4c3d a3dc debe 86d2 ef3e 8e9c 34be
000003f0: 2f99 92be 68ca 5c3e 7287 943e 1a3d d33c
-0.38600305 -0.2795072 0.2324706 -0.1912934 0.40931597 0.47364977 1.2986437 0.4849775
-0.0071702157 -0.39932442 0.057714246 0.35091302 -0.25675285 0.36717907 -0.3952496 -0.052324146
0.76296103 -0.42482877 -0.09350173 -0.5661869 -0.16780947 0.75221497 0.18463303 -0.5930185
-0.104940265 0.28718835 0.5136924 -0.19634706 -0.040231235 -0.1432879 -0.23879507 0.22582418
0.16447458 0.3341387 0.14786991 1.039893 -0.14626536 -0.34682953 0.21642043 0.21688664
0.15216252 -0.18879345 -0.108949855 -0.0225967 -0.0050260117 -0.19681211 0.4865418 0.23220389
-0.51898247 -0.19969904 -0.20492022 0.44191268 0.04957963 0.3910537 -0.11311794 -0.5134949
-0.004744569 0.17184067 0.060306333 -0.13773246 0.2870202 0.5300776 0.39226532 -0.23277217
-0.7556422 0.17325604 -0.6603436 -0.49680033 -0.15477982 0.28585416 -1.1481707 0.6464505
0.11327004 0.4387111 0.3587116 0.2951448 -0.18366759 0.13576324 0.24671741 1.2053992
-0.4761191 0.6293734 0.43034044 -0.0912596 -0.00671125 -0.029411511 0.009493252 0.40887338
-0.118565395 -0.019051855 0.5773132 0.4971973 -0.26707247 -0.041253973 -0.50789964 -0.6361658
0.40431818 -0.10093926 0.55414045 0.69982284 0.14893958 -0.41581723 -0.22935806 -0.17013808
0.70840955 -0.29701427 -0.09595257 0.45441633 -0.08438106 0.6272501 -0.4955364 -0.110893406
-0.32547003 -0.6609782 0.31049296 -0.53646684 0.3967433 0.22222139 -0.06512022 -0.2860092
0.23432934 -0.5141535 -0.17486738 0.4216107 -0.2541461 -0.09737417 0.541795 -0.47087756
0.37495095 0.0068670255 -0.039342195 0.37766013 0.435654 0.34990963 -0.110471986 -0.2513495
0.04892507 0.6348294 -0.11355488 -0.045356512 -0.37007302 0.26716727 -0.17366672 0.14353427
-0.0074897525 -0.4671683 0.39109114 -0.39625448 -0.26995918 -0.19202061 0.09489645 -0.07955691
-0.16281942 -0.30936214 0.15557495 -0.099361755 -0.535454 -0.5542568 0.17912385 -0.22049877
0.06638279 0.077850305 0.12523519 0.045234293 -0.0015085733 -0.16386661 0.71524596 -0.25035655
0.062410854 0.022607666 -0.63750035 -0.5033911 -0.7302954 0.27352437 0.0029417197 0.038323723
0.6869192 0.35479578 -0.3602984 0.13053466 0.33227542 -0.080548316 -0.406156 0.0445702
-0.24046922 0.21369508 0.78297204 -0.6789202 -0.18995646 -0.06294807 -0.95301306 -0.20822299
0.26130527 0.20785563 0.38682845 0.8528339 0.39890382 0.16029464 -0.0462361 -0.43553832
0.26898465 0.2253887 -0.23860179 -0.88467604 -0.28077596 0.43994924 0.023536839 -0.6153967
0.38155562 -0.042329825 0.66011333 0.5460947 -0.32299176 -0.24856336 -0.19049463 -0.1317798
-0.14612183 0.0025570928 0.07193812 -0.67852163 -0.22736052 -0.467741 -0.18910164 0.4341135
0.27612007 -0.19243965 -0.12345385 0.06501627 0.82067436 0.39167804 0.25485656 -0.31102914
0.2903571 0.9053181 -0.21379761 -0.104078814 0.3394909 1.223281 0.024742983 -0.41651312
0.6250982 0.16840704 -0.10667999 0.08916851 -0.22101171 0.02543388 0.3395138 0.38209224
0.04986803 -0.43527707 0.46840304 -0.17637846 -0.28632495 0.21561587 0.29009587 0.025785971

network_body._body_endoder.seq_layers.0.bias f4 [128]
00000000: 0000 0000 0000 0000 0000 0000 0000 0000
00000010: 0000 0000 0000 0000 0000 0000 0000 0000
00000020: 0000 0000 0000 0000 0000 0000 0000 0000
00000030: 0000 0000 0000 0000 0000 0000 0000 0000
00000040: 0000 0000 0000 0000 0000 0000 0000 0000
00000050: 0000 0000 0000 0000 0000 0000 0000 0000
00000060: 0000 0000 0000 0000 0000 0000 0000 0000
00000070: 0000 0000 0000 0000 0000 0000 0000 0000
00000080: 0000 0000 0000 0000 0000 0000 0000 0000
00000090: 0000 0000 0000 0000 0000 0000 0000 0000
000000a0: 0000 0000 0000 0000 0000 0000 0000 0000
000000b0: 0000 0000 0000 0000 0000 0000 0000 0000
000000c0: 0000 0000 0000 0000 0000 0000 0000 0000
000000d0: 0000 0000 0000 0000 0000 0000 0000 0000
000000e0: 0000 0000 0000 0000 0000 0000 0000 0000
000000f0: 0000 0000 0000 0000 0000 0000 0000 0000
00000100: 0000 0000 0000 0000 0000 0000 0000 0000
00000110: 0000 0000 0000 0000 0000 0000 0000 0000
00000120: 0000 0000 0000 0000 0000 0000 0000 0000
00000130: 0000 0000 0000 0000 0000 0000 0000 0000
00000140: 0000 0000 0000 0000 0000 0000 0000 0000
00000150: 0000 0000 0000 0000 0000 0000 0000 0000
00000160: 0000 0000 0000 0000 0000 0000 0000 0000
00000170: 0000 0000 0000 0000 0000 0000 0000 0000
00000180: 0000 0000 0000 0000 0000 0000 0000 0000
00000190: 0000 0000 0000 0000 0000 0000 0000 0000
000001a0: 0000 0000 0000 0000 0000 0000 0000 0000
000001b0: 0000 0000 0000 0000 0000 0000 0000 0000
000001c0: 0000 0000 0000 0000 0000 0000 0000 0000
000001d0: 0000 0000 0000 0000 0000 0000 0000 0000
000001e0: 0000 0000 0000 0000 0000 0000 0000 0000
000001f0: 0000 0000 0000 0000 0000 0000 0000 0000
0.0 0.0 0.0 0.0 0.0 0.0 0.0 0.0
0.0 0.0 0.0 0.0 0.0 0.0 0.0 0.0
0.0 0.0 0.0 0.0 0.0 0.0 0.0 0.0
0.0 0.0 0.0 0.0 0.0 0.0 0.0 0.0
0.0 0.0 0.0 0.0 0.0 0.0 0.0 0.0
0.0 0.0 0.0 0.0 0.0 0.0 0.0 0.0
0.0 0.0 0.0 0.0 0.0 0.0 0.0 0.0
0.0 0.0 0.0 0.0 0.0 0.0 0.0 0.0
0.0 0.0 0.0 0.0 0.0 0.0 0.0 0.0
0.0 0.0 0.0 0.0 0.0 0.0 0.0 0.0
0.0 0.0 0.0 0.0 0.0 0.0 0.0 0.0
0.0 0.0 0.0 0.0 0.0 0.0 0.0 0.0
0.0 0.0 0.0 0.0 0.0 0.0 0.0 0.0
0.0 0.0 0.0 0.0 0.0 0.0 0.0 0.0
0.0 0.0 0.0 0.0 0.0 0.0 0.0 0.0
0.0 0.0 0.0 0.0 0.0 0.0 0.0 0.0

network_body._body_endoder.seq_layers.2.weight f4 [128, 128]
00000000: f43a 053d 315f 92bc 298b ab3d a88c 0d3e
00000010: abbb a2bd f520 dabb a61c 033d 7907 d7bd
00000020: 175c 823c f986 16bd 9e4d 23be bafc 563d
00000030: dcc9 423c 935f 0dbe 60b1 d43b afed 183c
00000040: 47d6 cdbc f19f 64bd 7c47 dbbd 1dfb 60bd
00000050: ed6b 7cbc a3dd 8b3d 418c 88bd c322 f0bd
00000060: 807f 29bd 1635 02be 6469 2c3d 3fe1 35bd
00000070: b56b 2d3d e169 be3d 1fe2 d7bd f2d8 13be
00000080: e5da f63b f25d 89bc 6590 e63d 9141 f33d
00000090: 903c 523c 3f9b b13c 3ce5 dc3c 608a 6e3d
000000a0: b9aa 933d 92a1 aebd 585c 9dbd 2a88 d13d
000000b0: 2a81 363e 7828 66be 677b 1d3e dadb 6ebb
000000c0: 9d1e 463d c995 8a3d af4a bdbc bfff 30be
000000d0: 3803 033d 81d8 46be 61c7 2e3d 44fe f03b
000000e0: 4fd8 14bc 2821 373d efe9 0e3d 18d9 a9bc
000000f0: 0ee0 683d bfde 3d3d 41a0 90bd 14da 41bd
00000100: 56a6 2dbc fbb3 d13d 7ed6 f2bc 87b5 cebc
00000110: a240 0d3d 8438 05be c893 2c3d 068f 153e
00000120: 11c8 6dbc 3312 593d 26c4 34bd c69f a7bc
00000130: f0a1 883d 85e3 5abd 5ae6 353d 4d5a 1a3d
00000140: 5c82 81be 013b 143d 895d 2c3d 1ea0 11be
00000150: dc54 ca3c 906e 653c 2d03 b5bc f9b1 efba
00000160: 8353 733d 379e 0a3e f68f 263d a34a de3c
00000170: ebfe 0e3e e064 d6bd f987 183d b929 6cbd
00000180: eff3 9d3d 79a5 95bd 2835 c0bd 2b90 1e3d
00000190: d11d 1c3c 62d5 2fbc cda8 973d 510f 483c
000001a0: 81ba ca3c 3771 31bd d2e0 983b 6f1b 273d
000001b0: 9e66 413c 5073 193e c874 9c3d dcea c7bd
000001c0: 719e 3c3d 6914 9bbd 6306 fbbd 8610 0a3e
000001d0: 10d4 233c fad9 613d a29f 023d 6bd4 abbd
000001e0: 0701 1d3e 1516 0fbe 8d4d 96bd e902 b93b
000001f0: 79f1 d1bc cb23 18bc b93f 5bbe 8fc7 bd3b
00000200: 4c1d 0d3e 080c a6bd b0b3 32bd e2bf 203d
00000210: cb09 ebbd 2d53 4e3e 5dab 0bbc cdfb 743c
00000220: 0f7f 5d3d c9a5 8f3d cb84 95bb d192 c23d
00000230: ddd4 92bc d123 973d ab6b 4dbe 7bf7 f2bd
00000240: 83f3 313c cfe7 0dbe 2345 e53c f228 a43c
00000250: c236 25bc 230d a33d bd8a 2e3d b6e2 19bd
00000260: d299 a4bc bbff 88bd 524d b0bc 5804 e83d
00000270: 9fec 8b3d 0ef7 29be 08e6 0cbd 45e5 993d
00000280: 9926 9cbd 169e 9ebd a130 193d 307c e93b
00000290: 3a5a d83d d32c b8bc 750f 923d 9a16 be3d
000002a0: bafc 93bd a6da 7fbd 96ca 88bd cb36 01be
000002b0: 5877 17be 02ad ea3d 3759 7abd 9119 cabd
000002c0: a9db 36bd c909 8ebd 79ad 2d3d 67e8 213c
000002d0: 7f1b 07bc d9b2 62bb 36a1 2bbd 93de dfbc
000002e0: 2e5e 613e 2161 e73c 7a7b 36be a979 8f3b
000002f0: 9518 5dbc 2b05 d7bc a7e6 923d a388 b8bd
00000300: c194 2f3c be5e 2bbd 0378 793d bc1f d93d
00000310: 145e a63d 2598 b33c e0fb f3bc 2d42 b63d
00000320: c3c7 a13c 9713 b6bc 1132 ce3c 3dc5 063e
00000330: 62d4 c43d d028 e33d 7bd1 bb3c 4ea3 d3bd
00000340: 5493 8d3c 9992 51bd 0fe4 d03d 6caa 013e
00000350: f288 b5bd 3636 f4bb a043 023d d1a4 c6bd
00000360: 97be bfbc 20e8 0cbd 4c7f 3b3a bb79 983d
00000370: 677e adbd a575 333c 5903 893d 585a f53c
00000380: 5a4f 84bd baae 5ebd 94bb a63c 5d98 263d
00000390: a778 533d af4e 22bd 8b18 b7bc f14b 35be
000003a0: 3b9e 9abd 4722 5a3d 424c e4bc c678 7fbc
000003b0: e5a6 913d 39f6 a63d 4f78 633d 4f07 c9bd
000003c0: 699a 4fbd 3154 8bbd 0e15 ce3d c3b4 79bd
000003d0: 9582 babd 5360 8b3d 0ec2 0c3e 6336 773d
000003e0: 935a 8b3d 305e c93d 30db 683e b4c2 20be
000003f0: f927 e33d 645e e8bd ae25 8d3c 2350 c0bb
0.032526925 -0.017867656 0.08376152 0.13823187 -0.07945951 -0.006656761 0.032009743 -0.10499472
0.015913052 -0.036749814 -0.15947577 0.052487113 0.011888947 -0.1380599 0.0064908713 0.009334012
-0.02512659 -0.055816595 -0.10706994 -0.05492698 -0.015406591 0.06829383 -0.06667376 -0.1172538
-0.04138136 -0.12715563 0.042092696 -0.044404265 0.042339046 0.092975385 -0.10541176 -0.14438227
0.0075334185 -0.01676843 0.1125801 0.1187774 0.012831822 0.021680472 0.026964776 0.058237433
0.07210297 -0.08526911 -0.07683629 0.10231049 0.1782271 -0.22476375 0.15379106 -0.003644696
0.04836904 0.067668505 -0.023106901 -0.1728506 0.03198549 -0.19418527 0.04267061 0.0073545296
-0.009084775 0.044709355 0.034891065 -0.020733401 0.0568543 0.046355005 -0.07061816 -0.047327116
-0.01059874 0.10239407 -0.029643293 -0.025233043 0.034485467 -0.1300984 0.042133123 0.1460534
-0.014513032 0.05299587 -0.044132374 -0.020461928 0.06671512 -0.053439636 0.044409133 0.037683774
-0.2529477 0.036189083 0.04208139 -0.14221236 0.024698667 0.014003411 -0.02209624 -0.0018287293
0.059405815 0.13536917 0.040664636 0.027135199 0.13964431 -0.10468459 0.03723905 -0.057656977
0.07712542 -0.07306952 -0.09385139 0.038711708 0.009528593 -0.010732027 0.07405243 0.012210683
0.024747135 -0.04332086 0.0046654725 0.040797647 0.011804251 0.14985394 0.07639462 -0.09761593
0.04604954 -0.07572252 -0.122570775 0.13482866 0.00999929 0.05513952 0.03189052 -0.08390125
0.15332423 -0.13973267 -0.073390104 0.005646099 -0.025627838 -0.009285877 -0.21411027 0.0057916115
0.13780707 -0.081077635 -0.043628395 0.039245494 -0.11476477 0.20148917 -0.008524743 0.014952612
0.05407625 0.07014043 -0.0045629493 0.09500659 -0.017923767 0.07379878 -0.20060603 -0.118636094
0.01086128 -0.13857959 0.027987069 0.020039055 -0.010083856 0.0796149 0.04261278 -0.037569724
-0.020092878 -0.06689402 -0.021521244 0.113289535 0.06832241 -0.1659815 -0.034399062 0.07514433
-0.076245494 -0.07744996 0.03739989 0.0071254 0.10564084 -0.022482311 0.071318544 0.09281655
-0.07225938 -0.06246438 -0.06679265 -0.12618558 -0.1479162 0.1145878 -0.06112024 -0.09868158
-0.044643078 -0.0693546 0.042401765 0.009882069 -0.008246302 -0.0034591465 -0.04190179 -0.027327811
0.22008583 0.028244557 -0.1782054 0.0043785167 -0.01349463 -0.026247581 0.071729 -0.090104364
0.010716618 -0.0418384 0.060905468 0.10601756 0.08123413 0.021923134 -0.02978319 0.08899341
0.019748574 -0.022226138 0.025170358 0.13161178 0.09610821 0.11091769 0.022927037 -0.10333882
0.017282166 -0.051165197 0.10199749 0.12662667 -0.08864011 -0.0074527515 0.031802773 -0.09699405
-0.02340631 -0.03440106 0.00071524526 0.07445093 -0.08471375 0.010953342 0.06690092 0.029950306
-0.064604476 -0.05436585 0.020353116 0.04067265 0.051628735 -0.03962582 -0.02235057 -0.1770475
-0.07549711 0.053255346 -0.027868394 -0.0155927595 0.07111911 0.08152432 0.055534657 -0.09815847
-0.050684366 -0.068031676 0.100626096 -0.060963403 -0.09106938 0.06805482 0.13745901 0.0603546
0.06804385 0.09832418 0.22739863 -0.15699273 0.110916086 -0.113461286 0.017229881 -0.005868928

network_body._body_endoder.seq_layers.2.bias f4 [128]
00000000: 0000 0000 0000 0000 0000 0000 0000 0000
00000010: 0000 0000 0000 0000 0000 0000 0000 0000
00000020: 0000 0000 0000 0000 0000 0000 0000 0000
00000030: 0000 0000 0000 0000 0000 0000 0000 0000
00000040: 0000 0000 0000 0000 0000 0000 0000 0000
00000050: 0000 0000 0000 0000 0000 0000 0000 0000
00000060: 0000 0000 0000 0000 0000 0000 0000 0000
00000070: 0000 0000 0000 0000 0000 0000 0000 0000
00000080: 0000 0000 0000 0000 0000 0000 0000 0000
00000090: 0000 0000 0000 0000 0000 0000 0000 0000
000000a0: 0000 0000 0000 0000 0000 0000 0000 0000
000000b0: 0000 0000 0000 0000 0000 0000 0000 0000
000000c0: 0000 0000 0000 0000 0000 0000 0000 0000
000000d0: 0000 0000 0000 0000 0000 0000 0000 0000
000000e0: 0000 0000 0000 0000 0000 0000 0000 0000
000000f0: 0000 0000 0000 0000 0000 0000 0000 0000
00000100: 0000 0000 0000 0000 0000 0000 0000 0000
00000110: 0000 0000 0000 0000 0000 0000 0000 0000
00000120: 0000 0000 0000 0000 0000 0000 0000 0000
00000130: 0000 0000 0000 0000 0000 0000 0000 0000
00000140: 0000 0000 0000 0000 0000 0000 0000 0000
00000150: 0000 0000 0000 0000 0000 0000 0000 0000
00000160: 0000 0000 0000 0000 0000 0000 0000 0000
00000170: 0000 0000 0000 0000 0000 0000 0000 0000
00000180: 0000 0000 0000 0000 0000 0000 0000 0000
00000190: 0000 0000 0000 0000 0000 0000 0000 0000
000001a0: 0000 0000 0000 0000 0000 0000 0000 0000
000001b0: 0000 0000 0000 0000 0000 0000 0000 0000
000001c0: 0000 0000 0000 0000 0000 0000 0000 0000
000001d0: 0000 0000 0000 0000 0000 0000 0000 0000
000001e0: 0000 0000 0000 0000 0000 0000 0000 0000
000001f0: 0000 0000 0000 0000 0000 0000 0000 0000
0.0 0.0 0.0 0.0 0.0 0.0 0.0 0.0
0.0 0.0 0.0 0.0 0.0 0.0 0.0 0.0
0.0 0.0 0.0 0.0 0.0 0.0 0.0 0.0
0.0 0.0 0.0 0.0 0.0 0.0 0.0 0.0
0.0 0.0 0.0 0.0 0.0 0.0 0.0 0.0
0.0 0.0 0.0 0.0 0.0 0.0 0.0 0.0
0.0 0.0 0.0 0.0 0.0 0.0 0.0 0.0
0.0 0.0 0.0 0.0 0.0 0.0 0.0 0.0
0.0 0.0 0.0 0.0 0.0 0.0 0.0 0.0
0.0 0.0 0.0 0.0 0.0 0.0 0.0 0.0
0.0 0.0 0.0 0.0 0.0 0.0 0.0 0.0
0.0 0.0 0.0 0.0 0.0 0.0 0.0 0.0
0.0 0.0 0.0 0.0 0.0 0.0 0.0 0.0
0.0 0.0 0.0 0.0 0.0 0.0 0.0 0.0
0.0 0.0 0.0 0.0 0.0 0.0 0.0 0.0
0.0 0.0 0.0 0.0 0.0 0.0 0.0 0.0

action_model._continuous_distribution.log_sigma f4 [1, 2]
00000000: 0000 0000 0000 0000
0.0 0.0

action_model._continuous_distribution.mu.weight f4 [2, 128]
00000000: 5b12 e7bb a5e9 7f3b d377 fbbb 4b9d 2c3c
00000010: 1d7b 8b3c 61ce af3b 3a96 873c a74c d83c
00000020: a504 8fbc 3035 403c 8906 173c 8dbf a43c
00000030: 559c 583c 7092 9abc f376 14bd a39b c6bb
00000040: db9a 87bc 18e8 4ebb bb1c 233c baab af3c
00000050: e864 5b3c 70f9 8a3b 057b b8bb 17df 2dbd
00000060: db31 81bb c08f dbbc 632e bc3c 5bc1 103c
00000070: dca1 0bbc c041 4cbc e0ad de3b e04e 7f3c
00000080: 81e5 8fbc 572b f5bb 1b31 603c b9a7 80bc
00000090: cb48 ad3c c8ec f0ba d7c7 093b d7cd 54bb
000000a0: 77ae 00bb eacc 633c 2b72 05bc fa0c 5bbc
000000b0: 3110 c33c 68e0 cfbb 6796 48bb e5aa d2bb
000000c0: 0dd9 17bc 4f55 77bc c1fb 3a3a 4259 ac3c
000000d0: ab51 0b3c 8a72 f33c 48c6 9bbc 1d52 c13b
000000e0: 938f b53c 02e8 5d3c 2f9f cfbb 2fce b93c
000000f0: cbd6 1d3c 1083 f43b 9f3d 0abd 29df 823c
00000100: 18c0 15bc 1f7e e539 63c4 4abb a741 fdbb
00000110: ee59 913b d3a7 5abb d849 723c cbcc 83bc
00000120: 99c8 043c a570 7abc ecfb 42bc 2e3f bdbc
00000130: b9ae 80bc 2bd2 a4bc 733e 8d3c 2747 b7bc
00000140: 034a 90bc f704 313c 3356 e63c afd8 c8bc
00000150: 2737 96bc 9a71 ec39 47e1 abbc 0e07 1a3d
00000160: fa4a 1fbc 472a a33c 6643 c53c 916f ae3c
00000170: 9f74 c83c 1b44 8abb eb5d a2bb 472f 853c
00000180: cfd5 89bb e046 8c3b 0e3f 2d3c 3335 543c
00000190: 9f51 6cbb 6bc4 ff3b f96f 993c 57d9 b5bc
000001a0: a347 3bbc b2ac 55bc 8fdb ab3c 2a05 1abc
000001b0: 1e71 82bb 77a6 393d bdae 353c 794b 81bb
000001c0: 016b bebc bf96 02bc d627 42ba 65cc 8e3c
000001d0: 4751 7abc a061 56bc 1733 943a d6e7 243d
000001e0: 581c 083d eeed 813c 0958 1a3d 8d36 14bd
000001f0: 5187 c83b 8948 a23b 2d4b aebc 7b40 54bb
00000200: 68e5 e2bb 4c02 cc3c b3a2 1f3c 7b8c 283c
00000210: e284 1dbc 40ed 0cbd 144e 203d dae7 183c
00000220: fb24 34bc a940 1a3b dd99 453c 783e d6bc
00000230: 8383 33bc d889 5e3b 483e 503c 8a66 c63a
00000240: 60da 3a3c 6ab2 cebb 25e1 14bc d33d e9bb
00000250: e041 303c d8a1 963c a21e 08bc 5294 20bd
00000260: 50a0 c3bb ffb7 e53c 77e4 a1bb 31ef 8abc
00000270: 7f00 6d3c a77e 2ebd 53b6 c2bb 5c8d 1bbb
00000280: f5ea 013c 3589 b43b 93b4 0b3c 906d 12bc
00000290: 55ed 5d3c b6e9 a73c 88d7 66bc 47fc 103c
000002a0: 3b9a 10bc dd10 87bc f3eb 043c 86a9 4b3c
000002b0: 7b21 a43c 2f6e ccb9 b38c c8bb 6076 133c
000002c0: cc6e 183c e910 ad3b d11f 253c 7fc7 663c
000002d0: 9096 dc3b 9f92 d33c 157d 603c aff7 f0bc
000002e0: 7341 9dbc bdd2 05bd efca 0bbc 07a2 3c3d
000002f0: 0f55 913b c089 3d3c d409 4a3c 3846 18bc
00000300: cb0e d8bb 2bd1 3abb 9f5c e5bb 995d 35bc
00000310: 5ff2 e5bc 02cb cb3c c713 6ebc 40c8 34bc
00000320: 544f 883c 9fd8 013c 8e08 bd3c db00 aa3b
00000330: 3f87 253d 3ce8 803c e072 99bc 3367 28bb
00000340: 7f42 a3bb c76d 143d b535 373c f295 023d
00000350: ff27 34ba 88e3 8c3c d87a df3c e3c9 9a3c
00000360: f3aa ea3b 23fb 08bc c304 1e3d 6565 8fbb
00000370: 8ba3 bebb b0af aebb 3b64 0a3c 6555 c43b
00000380: 52cc 9a3c f8ff d8ba 9d3a 473c 98c7 3c3c
00000390: bdcc 673b 7132 82bb d7bb 42bd 9d9e 713c
000003a0: 826a d83a fb63 61bc 1e21 a43c c5e7 c33c
000003b0: 00bd c53c 5f9e 9c3c d89e 22bc d54f e73c
000003c0: c6ba 983b 5228 203b 28e6 623c 5ce8 cbbc
000003d0: 9175 cbb9 a73e 403b 20a5 83b9 139c 41bb
000003e0: 1c37 ac3c 8834 3c3c 3082 d2bc 3aea f1bc
000003f0: 5529 d63b d076 b33c c304 a7bb e28b 91bc
-0.0070517487 0.0039049175 -0.0076741963 0.010535548 0.017026478 0.0053651785 0.016551126 0.026403738
-0.01745827 0.011731431 0.009217867 0.02011087 0.013220866 -0.018868655 -0.03624625 -0.006061034
-0.016553333 -0.0031571444 0.00995558 0.02144419 0.013390757 0.004241161 -0.0056298994 -0.042449083
-0.003942711 -0.026801944 0.022971338 0.008835162 -0.008522477 -0.012466848 0.00679563 0.01558277
-0.01756549 -0.007481973 0.013683583 -0.015704976 0.021152874 -0.0018381113 0.0021023655 -0.0032471323
-0.001963524 0.013903836 -0.008144896 -0.013369793 0.023811432 -0.00634389 -0.0030607225 -0.0064290636
-0.0092680575 -0.015096023 0.0007132851 0.021038655 0.008503358 0.029717702 -0.019015446 0.0058996812
0.022163188 0.0135440845 -0.006336115 0.022681324 0.00963373 0.007461913 -0.033750173 0.015975552
-0.009140037 0.0004377225 -0.003093981 -0.0077287736 0.0044357693 -0.0033364191 0.014788114 -0.016088864
0.008104467 -0.015285646 -0.011900883 -0.023101415 -0.015708314 -0.020119747 0.017241692 -0.022372795
-0.017613417 0.010804406 0.028117275 -0.024517385 -0.018336846 0.00045098067 -0.020981444 0.037604384
-0.009722466 0.01991762 0.02407999 0.021293433 0.024469672 -0.0042195446 -0.0049550436 0.016257895
-0.004206396 0.00428091 0.010574115 0.012952137 -0.0036059392 0.0078053973 0.01873015 -0.022198362
-0.011430654 -0.013041662 0.020978717 -0.009400645 -0.00398077 0.04532477 0.011089024 -0.0039457646
-0.023244383 -0.007970511 -0.0007406449 0.017431447 -0.015278167 -0.013084799 0.001130673 0.04026016
0.033230156 0.015860524 0.037681613 -0.036184836 0.0061196466 0.0049524945 -0.021276081 -0.0032387066
-0.00692432 0.024903439 0.00974338 0.010287399 -0.009614201 -0.034405947 0.03913696 0.0093326215
-0.010995145 0.0023537076 0.01206061 -0.026152834 -0.010956648 0.0033956673 0.0127101615 0.001513676
0.011404604 -0.0063078897 -0.009086882 -0.0071179657 0.010757893 0.01838772 -0.008308085 -0.03920395
-0.0059700385 0.028041838 -0.004940565 -0.016959758 0.01446545 -0.042601254 -0.005942145 -0.002373538
0.007929553 0.0055095204 0.008526939 -0.008937255 0.013545354 0.020497184 -0.014089473 0.00884921
-0.008825834 -0.016487533 0.008112895 0.012430554 0.020035496 -0.00038992005 -0.0061202883 0.009000391
0.00930376 0.005281557 0.010078386 0.0140856495 0.0067318156 0.02582675 0.013701697 -0.02941498
-0.019196248 -0.03267168 -0.00853227 0.04605296 0.0044351886 0.011568487 0.012331445 -0.009294085
-0.0065935603 -0.0028506021 -0.0069995667 -0.011069679 -0.028069673 0.024877075 -0.0145310825 -0.011034071
0.01663939 0.007925182 0.023075368 0.0051880903 0.040412184 0.015735738 -0.018731534 -0.0025696277
-0.004982292 0.036237504 0.011182238 0.03188128 -0.0006872415 0.01719834 0.027280256 0.018895095
0.007161492 -0.008360657 0.03857876 -0.004376101 -0.0058178357 -0.005331002 0.008446748 0.005991625
0.018896256 -0.0016555777 0.012159971 0.011522196 0.0035369836 -0.0039732982 -0.04754242 0.014747289
0.0016511234 -0.013756747 0.020035323 0.023914227 0.024137974 0.019118486 -0.009925567 0.028236309
0.004660937 0.0024438095 0.013848819 -0.024891071 -0.0003880677 0.0029334219 -0.00025109295 -0.002954249
0.021022372 0.011487134 -0.025696844 -0.029530633 0.006535689 0.02190724 -0.005097003 -0.017766897

action_model._continuous_distribution.mu.bias f4 [2]
00000000: 0000 0000 0000 0000
0.0 0.0

network_body._body_endoder.seq_layers.0.weight f4 [128, 6]
00000000: 710e e43d a1f3 963d 384b f63d 309c fa3e
00000010: 7962 f53c 95ba 813e 7e09 393e 24e7 bcbd
00000020: 8d77 abbd 7f24 e8be 9c08 043e 0c27 533b
00000030: a946 22bf da97 fabe cd6e 8a3e 54b7 853e
00000040: 197b 19be ca00 a6be 876b 833d 6fec 913e
00000050: 1b5c 9c3e 02e4 02bf 342d 41bf 9a0a 14be
00000060: afe6 463e 7ca1 5c3c f556 933c 7609 68be
00000070: 17b9 623d 2952 5d3e 3e85 fbbe 1dfa 7abb
00000080: 0284 d03e e3d1 b83d baf4 38bf 1892 3b3e
00000090: 910d afbe 3eb5 8dbe 2daf aabd ad29 1c3f
000000a0: d2bd 79be ea7f 803e 3000 a33e 8fc7 bb3d
000000b0: a655 e4be cafb 533f 5080 29be 42e9 a53d
000000c0: cf7a 353d c44a 12bf fe4d 67bf 6157 193f
000000d0: 344e 57be 30cf 543e e95d 1ebe b3f4 04bf
000000e0: 6ff4 af3d 637d fcbe 3b57 c3be 5921 8f3e
000000f0: 1e8e dabd 7a33 673d 9c8b ebbe f731 00bf
00000100: 9c82 80be c33c a6be e26b 6e3f 4090 ec3e
00000110: 8185 f63e 494b b63e ee66 bf3d beae febe
00000120: ff8d 7abf c757 893e 03c8 d13e 2589 263f
00000130: e128 a1be 30f8 0bbf a5b6 b1bd a022 c23e
00000140: 60cf 01be a7c8 123f 5716 ae3e d5c9 52bf
00000150: e004 f43d f7b1 003f 4d63 34bf 2138 b9be
00000160: 6ed6 0f3f a828 ec3e 0b2f 5dbe b25f 8a3e
00000170: c9ab e3be e756 863e 08ef 843e ce12 4fbe
00000180: 6869 5c3f adc5 9dbd 46e2 5cbd cab6 13bf
00000190: 912d 7fbe 90d6 9ebd c027 953e 90cb 4a3f
000001a0: ce1f f23e 3952 753e ba40 3c3e 1498 83bf
000001b0: ede7 acbe f936 b13e 39ce ccbd ad2f 14bf
000001c0: 8560 403d 918d a7bd f38a 6abe ebfb 25bd
000001d0: d1fe 8cbe 3881 27be 839c 64be 04f9 6ebd
000001e0: 6acf 07bf a2b3 4bbf 587e aabe 430a 133e
000001f0: 1990 bb3e 941b 563f 5451 80be b784 08bf
00000200: 8caf c6be 7e98 87bd b183 4e3d 2fee 95be
00000210: 8f83 9dbb 2fd6 833e e3db 0f3f 0db6 e93e
00000220: 0396 c13d bfc7 a8be 6cfb 9bbe fc97 843d
00000230: 87d2 cebe 78ef 5bbe 1b20 693e 7ffc 58bf
00000240: 28da d43d d537 593f 56fd 37be 56ec 44be
00000250: ad5f eb3e ce35 043e 6a89 713f 60b9 93be
00000260: ed6d a3be 63c0 7f3e c468 46bf 9d79 573e
00000270: fe02 05be 6749 04be 22d6 e8be 8e77 f4be
00000280: 4c2c 713f bcca af3e 2c4b 48be 3508 34be
00000290: 600d 59be 3d63 0c3f eb3e e33e c550 afbe
000002a0: 57d3 f33c 7a29 a3bc 2ba8 20bf f969 073e
000002b0: 1fe6 b4be d770 3dbe ccac c33c 0504 083e
000002c0: 5875 13bf 953c 1b3f 6961 a5bd e44c ca3e
000002d0: e3dc 0c3f b26d a2be 9351 acbe ced9 1dbd
000002e0: af9d 1d3e bcc7 c8bd c1c1 1d3e 7973 40be
000002f0: aa62 583e d7d4 d6be de59 1dbd 5cb4 3e3e
00000300: 6deb d8bd 32dc 8ebe d5e8 e7be d4e0 0cbf
00000310: b411 25bf 5604 1b3f e6e6 4e3f ea43 c7be
00000320: 017b 5bbe ce63 203f c70b 7abe 05b6 3dbf
00000330: 4fb2 dfbe f135 5bbd 3898 d93e 6061 a2be
00000340: a8ba 983e 0aa7 4bbe 82c9 9c3b 3070 5dbd
00000350: 8f92 5c3d 9d1c ce3d 0c29 5ebe 6961 733e
00000360: 7532 e4be d1e8 a23e 0a38 03be dae6 04be
00000370: 7e5d d3be f4d5 75be c541 1cbf e33d ccbd
00000380: 68a9 56bf ad3a b3be 4dc4 09be 1757 abbd
00000390: 5a49 c2bd c1df 343e 5d81 383e 147b 5c3e
000003a0: 7986 b7be 4aa0 5fbd 7241 72be fa02 b2be
000003b0: b8d0 2ebf c21a 1abc 6f32 84bf e91f af3e
000003c0: 069b 39be 8029 18bf d1fc 873e 33e1 663d
000003d0: 5130 673e b8c5 a33d 78c3 dabe 0865 4e3d
000003e0: 06ae 18bf 110f 9ebe 916a 6b3d 0624 dd3d
000003f0: 3607 b9be 60f9 e7be 44dd 2fbf ac5b 0f3f
0.11135567 0.07370687 0.120260656 0.48947287 0.029954182 0.25337663 0.18070027 -0.09223774
-0.08372412 -0.45340344 0.12893909 0.0032219319 -0.6338907 -0.4894398 0.2703766 0.2611643
-0.14988364 -0.32422477 0.064169936 0.28500697 0.3053902 -0.5112916 -0.754596 -0.14457169
0.19423936 0.013466235 0.0179858 -0.22659859 0.055352297 0.21613373 -0.49125093 -0.0038296052
0.40725714 0.09024408 -0.72248423 0.18317449 -0.34190038 -0.2767734 -0.083341934 0.6100109
-0.24388817 0.2509759 0.3183608 0.09168922 -0.44596595 0.82806075 -0.16552854 0.08101131
0.044306573 -0.57145333 -0.9035338 0.59898955 -0.21025926 0.20782161 -0.15465511 -0.5193588
0.08591544 -0.49314412 -0.3815249 0.2795513 -0.10671638 0.056445576 -0.4600495 -0.5007624
-0.25099647 -0.32468233 0.93133366 0.46203804 0.4814873 0.35604313 0.09345804 -0.49742693
-0.9787292 0.2682478 0.4097291 0.65053016 -0.314765 -0.5467558 -0.08677415 0.37917042
-0.12676764 0.5733742 0.3400142 -0.8233922 0.11914992 0.5027155 -0.7046402 -0.36175635
0.5618657 0.46124768 -0.21599977 0.27026135 -0.44467 0.26238176 0.25963616 -0.20222017
0.8609834 -0.07703719 -0.05392673 -0.5770079 -0.24919726 -0.07755768 0.2913189 0.7921686
0.4728989 0.23957147 0.18384066 -1.0280786 -0.33770695 0.34612253 -0.10000271 -0.5788525
0.04696705 -0.081812985 -0.22904567 -0.04052345 -0.2753816 -0.16357887 -0.2232533 -0.05834295
-0.53050864 -0.7957097 -0.33299518 0.14359383 0.36633375 0.8363583 -0.25062048 -0.53327507
-0.38805807 -0.066208825 0.05041856 -0.29283282 -0.004806943 0.25749347 0.56194896 0.45646706
0.094524406 -0.32964894 -0.30465257 0.06474301 -0.40394995 -0.21478069 0.22766154 -0.8476028
0.103931725 0.8485082 -0.17967734 -0.1923078 0.45971432 0.1291115 0.943503 -0.28852367
-0.31919804 0.24975733 -0.7750361 0.21042486 -0.12989423 -0.12918626 -0.4547587 -0.47747463
0.94208217 0.34334362 -0.19559926 -0.17581256 -0.21196508 0.54838926 0.4438394 -0.3424131
0.02976386 -0.019917239 -0.62756604 0.13224019 -0.35331818 -0.18500076 0.023886107 0.13282783
-0.5760093 0.60639316 -0.0807522 0.39511788 0.55024546 -0.31724316 -0.33655986 -0.038537793
0.15392183 -0.09803721 0.15405942 -0.1879405 0.21131387 -0.4195926 -0.038415782 0.18623489
-0.10591779 -0.2790237 -0.45294824 -0.5503056 -0.6448014 0.6055349 0.80821073 -0.38919002
-0.21433641 0.6265229 -0.24418555 -0.74105865 -0.43690726 -0.05351824 0.42498946 -0.31714916
0.29829907 -0.19887939 0.004784764 -0.05406207 0.053850707 0.10064051 -0.21695346 0.23767628
-0.44569746 0.3181825 -0.12814346 -0.12978688 -0.41282266 -0.24007398 -0.61037856 -0.099727415
-0.83852243 -0.35005704 -0.13453789 -0.083662204 -0.09486647 0.1766348 0.18018098 0.21531326
-0.35844782 -0.054596223 -0.23657778 -0.34767896 -0.6828723 -0.009405794 -1.0327891 0.34204033
-0.18125543 -0.59438324 0.2656007 0.05636711 0.22577025 0.07996696 -0.42727256 0.05038932
-0.5964054 -0.3087087 0.057474677 0.107978866 -0.36138314 -0.45307446 -0.68697 0.55999255

network_body._body_endoder.seq_layers.0.bias f4 [128]
00000000: 0000 0000 0000 0000 0000 0000 0000 0000
00000010: 0000 0000 0000 0000 0000 0000 0000 0000
00000020: 0000 0000 0000 0000 0000 0000 0000 0000
00000030: 0000 0000 0000 0000 0000 0000 0000 0000
00000040: 0000 0000 0000 0000 0000 0000 0000 0000
00000050: 0000 0000 0000 0000 0000 0000 0000 0000
00000060: 0000 0000 0000 0000 0000 0000 0000 0000
00000070: 0000 0000 0000 0000 0000 0000 0000 0000
00000080: 0000 0000 0000 0000 0000 0000 0000 0000
00000090: 0000 0000 0000 0000 0000 0000 0000 0000
000000a0: 0000 0000 0000 0000 0000 0000 0000 0000
000000b0: 0000 0000 0000 0000 0000 0000 0000 0000
000000c0: 0000 0000 0000 0000 0000 0000 0000 0000
000000d0: 0000 0000 0000 0000 0000 0000 0000 0000
000000e0: 0000 0000 0000 0000 0000 0000 0000 0000
000000f0: 0000 0000 0000 0000 0000 0000 0000 0000
00000100: 0000 0000 0000 0000 0000 0000 0000 0000
00000110: 0000 0000 0000 0000 0000 0000 0000 0000
00000120: 0000 0000 0000 0000 0000 0000 0000 0000
00000130: 0000 0000 0000 0000 0000 0000 0000 0000
00000140: 0000 0000 0000 0000 0000 0000 0000 0000
00000150: 0000 0000 0000 0000 0000 0000 0000 0000
00000160: 0000 0000 0000 0000 0000 0000 0000 0000
00000170: 0000 0000 0000 0000 0000 0000 0000 0000
00000180: 0000 0000 0000 0000 0000 0000 0000 0000
00000190: 0000 0000 0000 0000 0000 0000 0000 0000
000001a0: 0000 0000 0000 0000 0000 0000 0000 0000
000001b0: 0000 0000 0000 0000 0000 0000 0000 0000
000001c0: 0000 0000 0000 0000 0000 0000 0000 0000
000001d0: 0000 0000 0000 0000 0000 0000 0000 0000
000001e0: 0000 0000 0000 0000 0000 0000 0000 0000
000001f0: 0000 0000 0000 0000 0000 0000 0000 0000
0.0 0.0 0.0 0.0 0.0 0.0 0.0 0.0
0.0 0.0 0.0 0.0 0.0 0.0 0.0 0.0
0.0 0.0 0.0 0.0 0.0 0.0 0.0 0.0
0.0 0.0 0.0 0.0 0.0 0.0 0.0 0.0
0.0 0.0 0.0 0.0 0.0 0.0 0.0 0.0
0.0 0.0 0.0 0.0 0.0 0.0 0.0 0.0
0.0 0.0 0.0 0.0 0.0 0.0 0.0 0.0
0.0 0.0 0.0 0.0 0.0 0.0 0.0 0.0
0.0 0.0 0.0 0.0 0.0 0.0 0.0 0.0
0.0 0.0 0.0 0.0 0.0 0.0 0.0 0.0
0.0 0.0 0.0 0.0 0.0 0.0 0.0 0.0
0.0 0.0 0.0 0.0 0.0 0.0 0.0 0.0
0.0 0.0 0.0 0.0 0.0 0.0 0.0 0.0
0.0 0.0 0.0 0.0 0.0 0.0 0.0 0.0
0.0 0.0 0.0 0.0 0.0 0.0 0.0 0.0
0.0 0.0 0.0 0.0 0.0 0.0 0.0 0.0

network_body._body_endoder.seq_layers.2.weight f4 [128, 128]
00000000: 587d a03d 9cd4 9bba f09b abbd 5b5d 63bd
00000010: 7ec9 5b3c 83f2 c13c f5bd ccbc d147 963d
00000020: 1f70 3bbe a7db 4c3d 78ed 79bd e358 bcbd
00000030: c607 8ebd 474f b7bc d00e 6a3c d548 29bd
00000040: 89f0 9b3d e1c6 1a3e ab53 c3bd b84c 1b3c
00000050: a9b7 953c c3e7 123d 7126 6abd f76c 993d
00000060: d4c4 49bd 54ff b93c c5a7 403d db61 c6bd
00000070: 2715 223e 0f62 eb3c d1ab fabb d64d 9bbd
00000080: 8264 1abe 481e e43d 435f b23d e234 b13d
00000090: ddb5 10bd aa3e 9d3c 68a8 05be ab82 40bc
000000a0: 9f72 2ebe 5d0f 3dbe 1153 9e3d 5f64 7c3d
000000b0: 1b5a 30bd be73 203d f01d 9ebd 246f 173e
000000c0: 757e 153e 858f 2c3e 7034 dfbc 2018 9e3d
000000d0: d065 4ebd f162 973d 513d 873d 5c6c 0bbd
000000e0: 5167 4bbc 6288 9a39 70e9 29bd dd9d 84bd
000000f0: 8399 a0bb 672e f13d 186c 1fbe d471 95bd
00000100: 9dc5 df3c f0f6 68bd 1886 443e 6e04 1cbd
00000110: 234a e53d 230a 09bd 680d 4c3c 0067 ef3d
00000120: bad4 eabd 91ab 043d 08b6 e7bc 95b0 e93d
00000130: 6553 19bb d2e6 023c 9a61 8b3d ac2c c03d
00000140: ee5c 0f3e 4309 c9bc 3fd7 d83d 69ab 293e
00000150: 8173 343d f2b6 813b 4776 a6bc 9cfb a93d
00000160: 6087 6dbd a9e4 80bd 3fa2 e8bd 6701 a4bd
00000170: 16df 353d c0b1 213e 753e c3bd 8a28 123c
00000180: 2a6e 89bd 3a9c 893d c106 533e ed92 fe3d
00000190: 5faf 6b3d 4019 68be 857c 40be 75d7 dd3c
000001a0: f0e8 3abe 8c7b 97bd 5924 853c 6960 183c
000001b0: d050 8abd 7b64 9e3d 2d61 c8bd 0e45 89bd
000001c0: 24d8 493d 2c32 a0bd 0705 ef3d 8bb0 b73d
000001d0: 8fea 98bc 76b3 59bb f485 94bd f21a 87bd
000001e0: 25cb 5c3d a6fa a93d 6922 06bd 3db3 2d3e
000001f0: d19d 30bd ac3d 873c bc71 523e 3b5b 92bd
00000200: 5d0f 143d cea6 4cbd 7843 bb3d 891d d1bd
00000210: b465 3f3d a521 61bd aa6e d73d ca47 f1bc
00000220: f968 70bd b438 403d a32a e3bc 7086 4dbd
00000230: 76bf 82bd 3cbe c93c 4c41 0fbd 164c e43c
00000240: 4e05 7cbe 615e ea3d a2e9 e6bd 590c 713c
00000250: 3783 d4bb ba70 c53d 8ebe 843c 4c02 c9bd
00000260: 4f48 10be ca76 12be 224b f8bc b3e4 173e
00000270: 1f59 9a3d 9031 2b3d a733 293d f131 1abd
00000280: d04b 8b3c 4e0b 0c3e 1158 35bc a988 9abc
00000290: 1138 e8bd 1f1c 56bd 6394 07bd f61e 0cbe
000002a0: 053d c13d f2fe ab3c 665d 0c3c 5d53 2abe
000002b0: c933 fd3d 6d36 4bbd a0af 093d 8bb6 833d
000002c0: cd31 cbbd bdcb 803d 4751 49bd 1821 153e
000002d0: e1cb 1e3d 3cc2 0e3d d21c 8cbd 99fe 88bd
000002e0: cb5f 2c3d 9cbe 06bc ecd4 1c3e 1b06 68bc
000002f0: e60f 2b3d 28cc 16bd f353 06be 76a8 9a3d
00000300: 2aaa 483d e990 02bd a20e babc 7c90 2dbe
00000310: 389e adbd 4d70 dc3c c2f0 de3c 4ca2 b7ba
00000320: 44ab 753c 0e8b 95bc 88d6 83be b0aa 093d
00000330: 240e da3d fec4 1dbd b682 e73c a1de 5c3c
00000340: 4e41 183d 7414 d7bc 37e6 613c 23a2 b6bd
00000350: 7519 d23d dbe9 263c 6e21 afbd 87f6 8f3d
00000360: 0680 29bd 9a62 b6bd fbb1 b0bd 2c85 e9bd
00000370: 75f9 ae3c 84e3 efbd 076f 033d d670 093d
00000380: d0d1 fb3c 8445 83be e08c 403c 9e41 4a3d
00000390: a952 10bd 2dc6 ebba 4a3f 043c 0f59 693d
000003a0: bf05 953d 49e3 4b3d 0b53 cd3d 5014 f5bd
000003b0: 2a1a e8ba 2974 fc3d 3463 be3d 0eec 70be
000003c0: fa77 613d d8ff 0dbe 0664 033e a578 99bd
000003d0: 4a54 a63c cd77 573d 1ae4 c5ba 52b4 503c
000003e0: 8e4f 313d 9f84 933d 31f0 bb3d 4677 efbc
000003f0: dee0 bb3d 2e75 1bbe 65d7 973d dd90 5e3d
0.078364074 -0.0011888924 -0.08379352 -0.055508953 0.013414739 0.023675209 -0.024992922 0.07337917
-0.1830449 0.050014164 -0.061017483 -0.09196641 -0.069350764 -0.02237667 0.014285758 -0.041329224
0.07614238 0.15114929 -0.09537443 0.00947874 0.018276053 0.035865556 -0.057165567 0.074914865
-0.049259976 0.022704758 0.047034997 -0.09686633 0.15828381 0.028733281 -0.0076498766 -0.075832054
-0.15077403 0.11138588 0.08709576 0.08652665 -0.03532969 0.01919492 -0.13052523 -0.011749904
-0.17035912 -0.18462892 0.077306874 0.06161916 -0.04305468 0.03917288 -0.07720554 0.1478849
0.14599021 0.16851623 -0.027246684 0.07719445 -0.050390065 0.073919185 0.06603492 -0.034038886
-0.012414769 0.00029474782 -0.04148239 -0.064754225 -0.0049011125 0.11776429 -0.15568578 -0.072971016
0.027315909 -0.056876123 0.19191778 -0.038090162 0.11195781 -0.033456933 0.012454368 0.116895676
-0.114663556 0.03239018 -0.028285041 0.114106335 -0.0023395654 0.007989602 0.068057254 0.093835205
0.14000294 -0.02454055 0.1058793 0.16569294 0.044055466 0.0039585764 -0.02032007 0.08299944
-0.05799043 -0.062936135 -0.11359071 -0.0800808 0.044402204 0.15790462 -0.09533397 0.008920798
-0.06710465 0.06719251 0.20608045 0.124303676 0.057540294 -0.22665882 -0.187975 0.027080277
-0.18252921 -0.073966116 0.016252683 0.00930033 -0.06753695 0.07734009 -0.0978416 -0.06702624
0.049278393 -0.078220695 0.11670881 0.0896922 -0.018666534 -0.003321854 -0.07252112 -0.06596936
0.05390467 0.082997605 -0.03274766 0.16962905 -0.043119255 0.0165089 0.20551199 -0.07146307
0.036147464 -0.049963765 0.09143728 -0.102107115 0.04672785 -0.054963727 0.10519154 -0.029453177
-0.05869386 0.046929076 -0.027730292 -0.050177038 -0.063841745 0.024626844 -0.03497438 0.027868312
-0.24611399 0.114437826 -0.11275031 0.014712417 -0.0064853686 0.096406415 0.016204145 -0.09814891
-0.14090084 -0.14303127 -0.030309264 0.14833336 0.0753653 0.041795313 0.041309025 -0.037645284
0.017003924 0.13676187 -0.01106836 -0.018863993 -0.11338819 -0.052272912 -0.033100497 -0.13683686
0.09435467 0.02099559 0.00856719 -0.16633363 0.12363393 -0.04961245 0.033614755 0.06431302
-0.09921608 0.0628886 -0.049149778 0.14563406 0.038768653 0.034853205 -0.068414345 -0.06689186
0.042083543 -0.008224156 0.15315598 -0.014161612 0.04176321 -0.036815792 -0.13117962 0.075516626
0.048990406 -0.03187648 -0.022712056 -0.16949648 -0.084774435 0.026909018 0.027214412 -0.001401016
0.014994446 -0.018254783 -0.25749612 0.033610046 0.10647228 -0.038517945 0.02826057 0.013480813
0.037171654 -0.02625487 0.013787798 -0.08917644 0.10258762 0.010187591 -0.08551298 0.07029443
-0.04138186 -0.089055255 -0.08627697 -0.11402354 0.021359185 -0.11713317 0.032088306 0.033554874
0.030739695 -0.25638974 0.011752337 0.049378984 -0.03523508 -0.0017988138 0.00807173 0.0569697
0.072764866 0.049777303 0.10025605 -0.11966765 -0.0017707993 0.12326843 0.09296265 -0.23527548
0.05504606 -0.13867128 0.12831125 -0.07493714 0.020303864 0.052604485 -0.0015097887 0.012738304
0.04328876 0.0720303 0.09176672 -0.029231679 0.091737494 -0.15181419 0.0741413 0.05433737

network_body._body_endoder.seq_layers.2.bias f4 [128]
00000000: 0000 0000 0000 0000 0000 0000 0000 0000
00000010: 0000 0000 0000 0000 0000 0000 0000 0000
00000020: 0000 0000 0000 0000 0000 0000 0000 0000
00000030: 0000 0000 0000 0000 0000 0000 0000 0000
00000040: 0000 0000 0000 0000 0000 0000 0000 0000
00000050: 0000 0000 0000 0000 0000 0000 0000 0000
00000060: 0000 0000 0000 0000 0000 0000 0000 0000
00000070: 0000 0000 0000 0000 0000 0000 0000 0000
00000080: 0000 0000 0000 0000 0000 0000 0000 0000
00000090: 0000 0000 0000 0000 0000 0000 0000 0000
000000a0: 0000 0000 0000 0000 0000 0000 0000 0000
000000b0: 0000 0000 0000 0000 0000 0000 0000 0000
000000c0: 0000 0000 0000 0000 0000 0000 0000 0000
000000d0: 0000 0000 0000 0000 0000 0000 0000 0000
000000e0: 0000 0000 0000 0000 0000 0000 0000 0000
000000f0: 0000 0000 0000 0000 0000 0000 0000 0000
00000100: 0000 0000 0000 0000 0000 0000 0000 0000
00000110: 0000 0000 0000 0000 0000 0000 0000 0000
00000120: 0000 0000 0000 0000 0000 0000 0000 0000
00000130: 0000 0000 0000 0000 0000 0000 0000 0000
00000140: 0000 0000 0000 0000 0000 0000 0000 0000
00000150: 0000 0000 0000 0000 0000 0000 0000 0000
00000160: 0000 0000 0000 0000 0000 0000 0000 0000
00000170: 0000 0000 0000 0000 0000 0000 0000 0000
00000180: 0000 0000 0000 0000 0000 0000 0000 0000
00000190: 0000 0000 0000 0000 0000 0000 0000 0000
000001a0: 0000 0000 0000 0000 0000 0000 0000 0000
000001b0: 0000 0000 0000 0000 0000 0000 0000 0000
000001c0: 0000 0000 0000 0000 0000 0000 0000 0000
000001d0: 0000 0000 0000 0000 0000 0000 0000 0000
000001e0: 0000 0000 0000 0000 0000 0000 0000 0000
000001f0: 0000 0000 0000 0000 0000 0000 0000 0000
0.0 0.0 0.0 0.0 0.0 0.0 0.0 0.0
0.0 0.0 0.0 0.0 0.0 0.0 0.0 0.0
0.0 0.0 0.0 0.0 0.0 0.0 0.0 0.0
0.0 0.0 0.0 0.0 0.0 0.0 0.0 0.0
0.0 0.0 0.0 0.0 0.0 0.0 0.0 0.0
0.0 0.0 0.0 0.0 0.0 0.0 0.0 0.0
0.0 0.0 0.0 0.0 0.0 0.0 0.0 0.0
0.0 0.0 0.0 0.0 0.0 0.0 0.0 0.0
0.0 0.0 0.0 0.0 0.0 0.0 0.0 0.0
0.0 0.0 0.0 0.0 0.0 0.0 0.0 0.0
0.0 0.0 0.0 0.0 0.0 0.0 0.0 0.0
0.0 0.0 0.0 0.0 0.0 0.0 0.0 0.0
0.0 0.0 0.0 0.0 0.0 0.0 0.0 0.0
0.0 0.0 0.0 0.0 0.0 0.0 0.0 0.0
0.0 0.0 0.0 0.0 0.0 0.0 0.0 0.0
0.0 0.0 0.0 0.0 0.0 0.0 0.0 0.0

value_heads.value_heads.extrinsic.weight f4 [1, 128]
00000000: 3349 9bba 7646 5c3e ccf1 ae3d fd58 123c
00000010: 9775 40bd fab7 44be ce3c e03d d956 14bd
00000020: f8ee 76bd da20 5dbd 1bca a9bd f9ee e0bd
00000030: 0d9e 233e 8f44 37bd 8df6 f4bd c085 253e
00000040: 8a4b 09bd 13e7 3a3e c70f 3ebe 2fd5 1abe
00000050: 8299 2ebe abb9 363e 27f0 363e b34c 0a3e
00000060: 2cbb 813d 3695 283d 3ead 2cbe 7a92 73bd
00000070: 20aa 1cbe 8317 d23d ac0f 0dbd 4ed6 bd3d
00000080: 41a8 613d f1ff 3dbd 92e4 fbbd 4691 133e
00000090: 9429 a0bb 0b5c 0bbe 689f 473d 681b 4b3e
000000a0: dd0b 423d c76c 1fbe 4c3d efbc 7481 05be
000000b0: 8317 3fbd c554 393e 7293 6b3d 8ddd 2cbe
000000c0: f8e2 963d 7bf7 3ebe 920d febd fc6b a13d
000000d0: 0021 1abe c53d 133e 2cd2 01be 5f66 05bd
000000e0: 4ad8 153e d6be c53d e34c ebbd b4d4 4f3e
000000f0: 4d41 ae3d 8f1d f63c 77e6 923d b5fa 883d
00000100: 704e 4cbe 69e6 58bd 3b35 423e 2833 03be
00000110: 1c0b c7bc 7854 d13c a952 ecbc cb2a 523e
00000120: b3a0 e3bd fe49 e0bd 07aa 5dbd c30b 0c3e
00000130: e4e4 2cbd 716b b5bc 483f c7bd 25b0 e3bd
00000140: a92e bbbd fec6 06be 4e29 063d e688 023e
00000150: 9fdc 64bd 9e15 443e ffd9 4cbe 3b34 5b3d
00000160: 97c9 4fbe 4616 64bd 79cc 3b3e 795e 253e
00000170: 7d3e 25bd 352c e6bd 89bf 33bd 74dc 173e
00000180: 39e9 46bc d809 bf3d a069 013e 5e84 04be
00000190: ec25 a8bd 549b e5bd 9762 82bd d1d4 413e
000001a0: 408d 04bb 210a 82bd 14ef 70bd 05ac 2d3d
000001b0: 3a81 e5bc 3567 2d3e 8c3a 43be ee65 2cbe
000001c0: dfb1 e5bd ba53 ef3d a7ff c6b9 fd89 1fbd
000001d0: 805d c6bc cb50 4f3e 2887 4abe ce8a de3d
000001e0: d2a8 203d 4b65 38be 0c3c 123e 2f07 b03d
000001f0: 5abc 3d3e 05a3 fa3d 0a0a 24be ce3e c4bc
-0.0011847377 0.21511254 0.08542213 0.008932349 -0.046987142 -0.19210806 0.109490976 -0.036215637
-0.060286492 -0.053986408 -0.08290502 -0.109830804 0.1597826 -0.044743117 -0.11961088 0.16164303
-0.033519305 0.1825221 -0.18560706 -0.15120386 -0.17050746 0.17844264 0.17865048 0.13505821
0.06334528 0.041157924 -0.16862962 -0.059465863 -0.15299273 0.10258391 -0.034438774 0.09269391
0.0550921 -0.046386663 -0.12299456 0.14410886 -0.004887769 -0.1360933 0.048736006 0.19834673
0.047374595 -0.15568839 -0.029204033 -0.13037664 -0.046653282 0.18098743 0.05751366 -0.1688139
0.073675096 -0.18649094 -0.12404932 0.078819245 -0.15051651 0.14379032 -0.1267783 -0.03256833
0.14633289 0.0965554 -0.11489274 0.20295984 0.08508549 0.030043392 0.07172864 0.066884436
-0.19951797 -0.05295411 0.18965618 -0.12812483 -0.02429729 0.025552973 -0.02884801 0.20524137
-0.11114635 -0.10951613 -0.05411723 0.13676362 -0.042210475 -0.022145959 -0.09728867 -0.11117581
-0.09139759 -0.13161847 0.032754235 0.12747535 -0.055874463 0.19148871 -0.20005034 0.053516608
-0.20291744 -0.055685304 0.18339719 0.1614932 -0.040342797 -0.112389006 -0.043883834 0.1483019
-0.012140566 0.093280494 0.12637949 -0.12941119 -0.08210358 -0.11211267 -0.06366461 0.1892884
-0.0020225793 -0.06349588 -0.058821753 0.04240038 -0.028015722 0.16933902 -0.19065303 -0.16835758
-0.11215567 0.116858914 -0.0003795598 -0.038949955 -0.024214506 0.20245664 -0.1977812 0.10866319
0.0392235 -0.1800739 0.14280719 0.0859512 0.18528882 0.12238125 -0.16019455 -0.023955729
