results/ppo/My Behavior/My Behavior-2240.pt (torch, 143980 bytes, 10 tensors)

network_body._body_endoder.seq_layers.0.weight f4 [128, 1]
0	0xbfa5f7f6	-1.2966297
1	0x3f77573b	0.9661748
2	0x3f10a8a3	0.5650732
3	0x3fca4eb2	1.5805266
4	0x3f2ce026	0.67529523
5	0x3f5a84b9	0.8535877
6	0x3fb3075c	1.3986621
7	0x3eaacd5c	0.33359802
8	0x3ef22662	0.4729491
9	0xbf5096ab	-0.814799
10	0x3f71ca5e	0.9444941
11	0xbe300c68	-0.17192233
12	0x3dad0701	0.084486015
13	0xbee0efa6	-0.43932837
14	0xbf8b22eb	-1.0870031
15	0x3f3b4251	0.73148066
16	0xbec72797	-0.38897392
17	0x3f569576	0.8382181
18	0xbf30121f	-0.6877765
19	0xbf5190b3	-0.8186142
20	0xbfcb967d	-1.59053
21	0x3edd2b9d	0.43197337
22	0x3e82473d	0.25444975
23	0x3ed75276	0.420551
24	0xbf8148a7	-1.0100297
25	0xbda9ea5c	-0.08296654
26	0x3f8f90a2	1.1216013
27	0xbf1add7c	-0.6049421
28	0x3f81f949	1.0154201
29	0xbf3f7628	-0.7478967
30	0x3e7f3d0b	0.2492563
31	0xbfcc2c8c	-1.5951095
32	0xc006e950	-2.1079903
33	0x3f61c38b	0.88189
34	0x3e37a3b8	0.17933547
35	0xbf7b9b11	-0.9828349
36	0x3f94c70f	1.1623248
37	0xbfbb7fd5	-1.4648386
38	0x3fbbc85d	1.4670521
39	0xbda5cb94	-0.0809547
40	0x3f8b85b8	1.0900183
41	0xbf12cd35	-0.5734437
42	0xbf828ea9	-1.0199786
43	0xbe0b78eb	-0.13620345
44	0xbdcf4c6a	-0.10121997
45	0x3f458a8b	0.77164525
46	0xbe4ce06b	-0.20007484
47	0x3ef93785	0.4867517
48	0x3f6f04d3	0.93366736
49	0x3d5062b3	0.050875377
50	0xbf510e82	-0.8166276
51	0xbf89af9d	-1.0756718
52	0x3ec2fa6d	0.38081685
53	0xbcf79c33	-0.030225849
54	0xbec9970c	-0.39373052
55	0x3fba1bcb	1.4539732
56	0x3e25fa65	0.16208799
57	0x3fa9d758	1.3268843
58	0x3e87be35	0.26512304
59	0x3e6a56d2	0.22884682
60	0x3e65f344	0.2245608
61	0xbf8d4b63	-1.1038631
62	0x3f656210	0.89602757
63	0xbef12b09	-0.47103146
64	0x3df99a72	0.12187661
65	0xbffb3e47	-1.962838
66	0x3eba567b	0.36394104
67	0xbf720b0a	-0.94548094
68	0xbf7a1ca3	-0.97699946
69	0x3ec869ff	0.3914337
70	0xbfa761f3	-1.3076767
71	0x3f21c996	0.6319822
72	0xbfe2a046	-1.7705162
73	0xbe4c7406	-0.19966134
74	0xc0178e8f	-2.368076
75	0xbe9a1299	-0.30092314
76	0x401b9b9f	2.4313734
77	0x3ff29dc4	1.8954396
78	0x3c3edb45	0.011648958
79	0x4015bce8	2.339655
80	0x3e466172	0.1937311
81	0xc0089c83	-2.1345527
82	0xbfb5fc17	-1.4217557
83	0x3ef6fcda	0.48239785
84	0x3f8826b6	1.0636814
85	0x3ee62ba7	0.4495518
86	0xbe6ca173	-0.23108463
87	0x400c3e03	2.191285
88	0xbc92d49f	-0.017923651
89	0x3e91928f	0.28432128
90	0x3f4f6e05	0.8102725
91	0xbf7d9d2f	-0.9906797
92	0x3e15f208	0.14643109
93	0xbfc0f38c	-1.5074325
94	0xbf805876	-1.0026996
95	0x3fd0d247	1.6314172
96	0x400c3d22	2.1912313
97	0x3fbdf8c0	1.4841537
98	0xbfce8111	-1.6133138
99	0xc01b7b20	-2.42939
100	0x3ec0f730	0.3768859
101	0x3eeb0849	0.4590476
102	0x3f42fe8d	0.76169664
103	0x3dc4ed02	0.09615518
104	0xbf81e95e	-1.0149343
105	0x3ffc14a7	1.9693803
106	0xbfa426cf	-1.2824343
107	0x3dbe6640	0.092968464
108	0xbede6da0	-0.43443012
109	0xbcdc192a	-0.026867468
110	0x3ea5adda	0.323592
111	0x3f87524a	1.0571988
112	0x3facc99e	1.3499029
113	0xbf70f657	-0.94125885
114	0x3fa6ba1d	1.3025547
115	0x3eacab9e	0.33724684
116	0xbf5bed16	-0.8590864
117	0xbfb1b2c5	-1.3882681
118	0x3fb743e0	1.4317589
119	0x3f9aea59	1.2102767
120	0x3f95bb88	1.1697855
121	0x3f0ca82f	0.5494413
122	0xbf0c65a3	-0.54842585
123	0xbec33878	-0.3812902
124	0x3fdf712d	1.7456414
125	0xbf60580e	-0.8763436
126	0xbef58688	-0.47954202
127	0xbeb87f0c	-0.3603443

network_body._body_endoder.seq_layers.0.bias f4 [128]
0	0x00000000	0.0
1	0x00000000	0.0
2	0x00000000	0.0
3	0x00000000	0.0
4	0x00000000	0.0
5	0x00000000	0.0
6	0x00000000	0.0
7	0x00000000	0.0
8	0x00000000	0.0
9	0x00000000	0.0
10	0x00000000	0.0
11	0x00000000	0.0
12	0x00000000	0.0
13	0x00000000	0.0
14	0x00000000	0.0
15	0x00000000	0.0
16	0x00000000	0.0
17	0x00000000	0.0
18	0x00000000	0.0
19	0x00000000	0.0
20	0x00000000	0.0
21	0x00000000	0.0
22	0x00000000	0.0
23	0x00000000	0.0
24	0x00000000	0.0
25	0x00000000	0.0
26	0x00000000	0.0
27	0x00000000	0.0
28	0x00000000	0.0
29	0x00000000	0.0
30	0x00000000	0.0
31	0x00000000	0.0
32	0x00000000	0.0
33	0x00000000	0.0
34	0x00000000	0.0
35	0x00000000	0.0
36	0x00000000	0.0
37	0x00000000	0.0
38	0x00000000	0.0
39	0x00000000	0.0
40	0x00000000	0.0
41	0x00000000	0.0
42	0x00000000	0.0
43	0x00000000	0.0
44	0x00000000	0.0
45	0x00000000	0.0
46	0x00000000	0.0
47	0x00000000	0.0
48	0x00000000	0.0
49	0x00000000	0.0
50	0x00000000	0.0
51	0x00000000	0.0
52	0x00000000	0.0
53	0x00000000	0.0
54	0x00000000	0.0
55	0x00000000	0.0
56	0x00000000	0.0
57	0x00000000	0.0
58	0x00000000	0.0
59	0x00000000	0.0
60	0x00000000	0.0
61	0x00000000	0.0
62	0x00000000	0.0
63	0x00000000	0.0
64	0x00000000	0.0
65	0x00000000	0.0
66	0x00000000	0.0
67	0x00000000	0.0
68	0x00000000	0.0
69	0x00000000	0.0
70	0x00000000	0.0
71	0x00000000	0.0
72	0x00000000	0.0
73	0x00000000	0.0
74	0x00000000	0.0
75	0x00000000	0.0
76	0x00000000	0.0
77	0x00000000	0.0
78	0x00000000	0.0
79	0x00000000	0.0
80	0x00000000	0.0
81	0x00000000	0.0
82	0x00000000	0.0
83	0x00000000	0.0
84	0x00000000	0.0
85	0x00000000	0.0
86	0x00000000	0.0
87	0x00000000	0.0
88	0x00000000	0.0
89	0x00000000	0.0
90	0x00000000	0.0
91	0x00000000	0.0
92	0x00000000	0.0
93	0x00000000	0.0
94	0x00000000	0.0
95	0x00000000	0.0
96	0x00000000	0.0
97	0x00000000	0.0
98	0x00000000	0.0
99	0x00000000	0.0
100	0x00000000	0.0
101	0x00000000	0.0
102	0x00000000	0.0
103	0x00000000	0.0
104	0x00000000	0.0
105	0x00000000	0.0
106	0x00000000	0.0
107	0x00000000	0.0
108	0x00000000	0.0
109	0x00000000	0.0
110	0x00000000	0.0
111	0x00000000	0.0
112	0x00000000	0.0
113	0x00000000	0.0
114	0x00000000	0.0
115	0x00000000	0.0
116	0x00000000	0.0
117	0x00000000	0.0
118	0x00000000	0.0
119	0x00000000	0.0
120	0x00000000	0.0
121	0x00000000	0.0
122	0x00000000	0.0
123	0x00000000	0.0
124	0x00000000	0.0
125	0x00000000	0.0
126	0x00000000	0.0
127	0x00000000	0.0

network_body._body_endoder.seq_layers.2.weight f4 [128, 128]
0	0x3d417d9a	0.047238924
1	0xbd335a97	-0.043787565
2	0x3d4eec34	0.05051823
3	0x3dc042f6	0.09387772
4	0x3ccae9c2	0.024769668
5	0x3d01a6bf	0.031653162
6	0x3d64e308	0.055880576
7	0x3ddc9145	0.107698955
8	0x3e0047ac	0.1252734
9	0x3df38f57	0.11892574
10	0xbdb3ff8d	-0.08788977
11	0xbbdffd84	-0.0068356413
12	0xbdff68b2	-0.12471141
13	0x3bba1d02	0.0056797275
14	0xbc8c45db	-0.017123153
15	0x3bb8eee0	0.0056437105
16	0x3e09303b	0.13397305
17	0x3daf630f	0.08563816
18	0x3dcdce18	0.10049075
19	0x3d751fac	0.059844658
20	0x3a9c4879	0.0011923454
21	0x3d6e5bd4	0.058193043
22	0x3d1ed401	0.0387764
23	0x3e67a2d4	0.22620708
24	0x3e115c6b	0.14195411
25	0xbbaebaac	-0.0053323116
26	0x3db7beee	0.08971964
27	0xbd8bca13	-0.06825652
28	0xbbb43a2a	-0.0055000978
29	0xbbf60e74	-0.007509047
30	0xbd3e6444	-0.04648234
31	0x3d5eaa2d	0.05436151
32	0xbdbab6ed	-0.091169216
33	0x3dcb9146	0.09939818
34	0x3da7ce44	0.08193639
35	0xbe6164d0	-0.22011113
36	0x3da7fe9b	0.08202859
37	0xbdb6ce40	-0.08926058
38	0xbd90126a	-0.07034762
39	0xbd916acc	-0.07100448
40	0xbd5474dd	-0.051869262
41	0xbd05e30b	-0.03268723
42	0xbd38ff9f	-0.045165654
43	0x3db5b473	0.088723086
44	0x3d40233a	0.046908595
45	0xbd8f80d6	-0.070069954
46	0x3d952880	0.072831154
47	0xbd0fccd2	-0.03510744
48	0xbdcae5fb	-0.099071465
49	0xbce614cd	-0.02808609
50	0xbdcf5509	-0.10123641
51	0x3d93c722	0.07215716
52	0x3c8cc802	0.017185215
53	0xbcb24c6a	-0.021764953
54	0x3e1d6044	0.15368754
55	0xbcf3cfc5	-0.029762158
56	0xbd19fbd6	-0.037593685
57	0x3e0d18fc	0.13779062
58	0xbc84a874	-0.016193606
59	0x3e1f7b44	0.15574366
60	0xbd16601b	-0.036712747
61	0xbd7bbdfe	-0.061460488
62	0xbcc7b502	-0.024378303
63	0x3db57fc4	0.0886226
64	0x3d91d541	0.07120753
65	0x3d89799b	0.067126475
66	0xb9a36995	-0.00031168447
67	0x3e0f2023	0.13977103
68	0xbd5f3c2d	-0.054500747
69	0xbcd0e88d	-0.025501514
70	0xbdaa8a01	-0.083271034
71	0xbcf76099	-0.030197429
72	0xbde6dc44	-0.11272481
73	0xbd8f44b4	-0.06995526
74	0x3d207edd	0.039183486
75	0xbd4b6004	-0.049652115
76	0xbd71c3f5	-0.05902477
77	0x3d1f99a0	0.038964868
78	0x3d82915e	0.06375383
79	0x3d1f05b3	0.038823795
80	0xbd7b4533	-0.06134529
81	0x3d516ac3	0.051127207
82	0x3e0efb71	0.13963105
83	0xbd74e4ec	-0.05978863
84	0x3cdb2b97	0.026754184
85	0x3e01c27a	0.12671843
86	0x3c5eb82c	0.013593715
87	0xbdf289e0	-0.11842704
88	0x3ce8684e	0.028370049
89	0x3da0a85b	0.07844611
90	0x3df5a938	0.119951665
91	0x3d28d4da	0.041218616
92	0xbd388446	-0.04504802
93	0x3dda732a	0.10666497
94	0x3d2411cd	0.04005604
95	0xbd0738da	-0.033013202
96	0x3d3faf26	0.046797894
97	0xbcaebcff	-0.021330355
98	0x3e121df2	0.14269236
99	0xbd7b05d9	-0.061284874
100	0x3e4767f9	0.19473256
101	0xbd7573e2	-0.059924968
102	0x3c8d84e7	0.017275287
103	0x3d9f1505	0.07767681
104	0x3d6559cc	0.05599384
105	0xbe2bc6bb	-0.16775028
106	0x3b9e7883	0.0048361435
107	0x3df35101	0.11880685
108	0x3d8cbd1f	0.068720095
109	0xbd8f4fc5	-0.06997637
110	0xbabd4fec	-0.0014443374
111	0xbd479882	-0.048729427
112	0x3d4d9b51	0.05019695
113	0xbb8d2843	-0.004307778
114	0x3e07e5ce	0.13271257
115	0x3d212406	0.039340995
116	0xbbd66ed3	-0.006543973
117	0x3d68ca3b	0.056833487
118	0x3d30c989	0.04316095
119	0xbdbd1582	-0.09232618
120	0xbdae5438	-0.08512157
121	0xbc9e2d2b	-0.019308647
122	0x3e8a2158	0.26978564
123	0xbe07dd89	-0.13268103
124	0xbd9a8a98	-0.07545966
125	0x3d89866c	0.06715092
126	0x3dc3aae8	0.09554082
127	0x3dc61b47	0.096731715
128	0x3d6417d5	0.05568679
129	0x3e284761	0.16433479
130	0xbc99c135	-0.018768886
131	0xbcf9ddde	-0.030501302
132	0x3d83e24f	0.06439649
133	0x3d4c3a67	0.049860384
134	0xbe139087	-0.14410602
135	0xbe5d4119	-0.21606864
136	0xbbc8fd9a	-0.0061337473
137	0xbd0a435d	-0.03375565
138	0x3d5a6fdd	0.053329337
139	0x3d33794f	0.04381686
140	0x3d960319	0.073248096
141	0x3cef4e18	0.029212043
142	0xbd09f983	-0.03368522
143	0x3ca6d475	0.02036498
144	0xbda70a4d	-0.081562616
145	0x3e28bef8	0.16479099
146	0x3e19cccd	0.15019532
147	0x3dcb68d4	0.09932104
148	0xbc6c8007	-0.014434821
149	0x3e001f3f	0.1251192
150	0xbd824dd4	-0.06362501
151	0x3cc9aaab	0.024617514
152	0xbd52f22d	-0.051500488
153	0xbdd7a2a5	-0.10529069
154	0x3e0b3e0d	0.13597889
155	0xbd970a95	-0.07375065
156	0x3deaedef	0.114711635
157	0xbd96c8c6	-0.07362513
158	0xbb9d06d2	-0.004792073
159	0xbd6452e9	-0.05574313
160	0xbd43f6bd	-0.04784273
161	0x3e36d837	0.17855917
162	0x3da7245b	0.08161231
163	0xbcf85992	-0.030316148
164	0x3c833121	0.016014637
165	0xbbb94296	-0.0056536896
166	0xbca74fd9	-0.020423817
167	0xbd0f4692	-0.03497941
168	0xbc63d145	-0.013904874
169	0xbe02b93a	-0.12765971
170	0x3dca6529	0.09882576
171	0xbda164fa	-0.07880588
172	0x3cbc30c4	0.022972472
173	0xbe41a668	-0.18911135
174	0x3dee8eee	0.116483554
175	0x3d938f51	0.0720507
176	0x3defe1b6	0.11712973
177	0xbbac5068	-0.0052586086
178	0xbdaf723e	-0.08566712
179	0x3a89d13b	0.0010514626
180	0xbbca24d0	-0.006168939
181	0x3de4cbe0	0.111716986
182	0x3b144bd3	0.0022628203
183	0xbe33292c	-0.17496175
184	0x3db4f91f	0.088365786
185	0x3aa394e2	0.0012480284
186	0x3e2fd0b2	0.17169455
187	0x3ce8f1a8	0.028435543
188	0x3d32d924	0.043664113
189	0x3d90c72f	0.07069241
190	0xbc8c68b6	-0.017139774
191	0x3c8d7b54	0.017270721
192	0x3bc46207	0.005993131
193	0x3d77e45c	0.060520515
194	0x3e3e0440	0.18556309
195	0xbdb5f6f1	-0.08884991
196	0x3c6394fe	0.013890503
197	0x3e2ea3f2	0.17054728
198	0x3b3cdf48	0.002881961
199	0x3cfade23	0.030623501
200	0xbd1a947e	-0.03773927
201	0xbc644c60	-0.013934225
202	0x3d6a4ada	0.05720029
203	0x3cb30329	0.021852093
204	0xbc05f06b	-0.008174996
205	0x3e5c1bf1	0.21495034
206	0x3e1079dd	0.14108987
207	0x3d0d5b6a	0.034511007
208	0xbd67ce65	-0.056593318
209	0x3d5e2a59	0.054239605
210	0xbdd25d54	-0.10271707
211	0x3d8f5cdd	0.07000134
212	0x3d3a852b	0.045537155
213	0xbd8efe33	-0.069820784
214	0xbd4f9451	-0.050678555
215	0xbbd36ac2	-0.0064519355
216	0xbdec70e9	-0.115449734
217	0xbd3297a2	-0.04360164
218	0x3d917f65	0.07104377
219	0x3d853ae3	0.065053724
220	0xbd52d1ad	-0.051469494
221	0xbe2815dd	-0.1641459
222	0xbdb04882	-0.0860758
223	0x3cb216ff	0.021739481
224	0x3cbb2a79	0.022847401
225	0x3d4a320e	0.049364142
226	0xbc643030	-0.013927504
227	0x3e07a95f	0.13248204
228	0xbd59e6d0	-0.053198636
229	0x3d0516ee	0.03249257
230	0x3e168c9d	0.14702077
231	0x3d36c202	0.044618614
232	0xbb71122f	-0.003678452
233	0xbcf27ca8	-0.029600456
234	0x3de45e8b	0.11150845
235	0xbe337c4e	-0.17527887
236	0xbd3d6b39	-0.046244834
237	0xbd257a3c	-0.040399775
238	0xbe0bd183	-0.13654141
239	0x3e3b3f92	0.18285969
240	0x3c06645d	0.008202639
241	0x3d6a534c	0.057208344
242	0x3dcd3ac5	0.10020975
243	0xbdfbb8e8	-0.122911274
244	0x3d41d968	0.047326475
245	0x3d659c7b	0.056057435
246	0x3d7b5f79	0.061370347
247	0x3c1617e2	0.009160968
248	0x3e34a402	0.17640689
249	0x3d783c89	0.060604606
250	0x3e060851	0.1308911
251	0x3cd01c5b	0.025404146
252	0x3e051a17	0.12998234
253	0x3d1ec0bf	0.038758036
254	0x3db173ea	0.08664687
255	0x3998bf70	0.0002913433

network_body._body_endoder.seq_layers.2.bias f4 [128]
0	0x00000000	0.0
1	0x00000000	0.0
2	0x00000000	0.0
3	0x00000000	0.0
4	0x00000000	0.0
5	0x00000000	0.0
6	0x00000000	0.0
7	0x00000000	0.0
8	0x00000000	0.0
9	0x00000000	0.0
10	0x00000000	0.0
11	0x00000000	0.0
12	0x00000000	0.0
13	0x00000000	0.0
14	0x00000000	0.0
15	0x00000000	0.0
16	0x00000000	0.0
17	0x00000000	0.0
18	0x00000000	0.0
19	0x00000000	0.0
20	0x00000000	0.0
21	0x00000000	0.0
22	0x00000000	0.0
23	0x00000000	0.0
24	0x00000000	0.0
25	0x00000000	0.0
26	0x00000000	0.0
27	0x00000000	0.0
28	0x00000000	0.0
29	0x00000000	0.0
30	0x00000000	0.0
31	0x00000000	0.0
32	0x00000000	0.0
33	0x00000000	0.0
34	0x00000000	0.0
35	0x00000000	0.0
36	0x00000000	0.0
37	0x00000000	0.0
38	0x00000000	0.0
39	0x00000000	0.0
40	0x00000000	0.0
41	0x00000000	0.0
42	0x00000000	0.0
43	0x00000000	0.0
44	0x00000000	0.0
45	0x00000000	0.0
46	0x00000000	0.0
47	0x00000000	0.0
48	0x00000000	0.0
49	0x00000000	0.0
50	0x00000000	0.0
51	0x00000000	0.0
52	0x00000000	0.0
53	0x00000000	0.0
54	0x00000000	0.0
55	0x00000000	0.0
56	0x00000000	0.0
57	0x00000000	0.0
58	0x00000000	0.0
59	0x00000000	0.0
60	0x00000000	0.0
61	0x00000000	0.0
62	0x00000000	0.0
63	0x00000000	0.0
64	0x00000000	0.0
65	0x00000000	0.0
66	0x00000000	0.0
67	0x00000000	0.0
68	0x00000000	0.0
69	0x00000000	0.0
70	0x00000000	0.0
71	0x00000000	0.0
72	0x00000000	0.0
73	0x00000000	0.0
74	0x00000000	0.0
75	0x00000000	0.0
76	0x00000000	0.0
77	0x00000000	0.0
78	0x00000000	0.0
79	0x00000000	0.0
80	0x00000000	0.0
81	0x00000000	0.0
82	0x00000000	0.0
83	0x00000000	0.0
84	0x00000000	0.0
85	0x00000000	0.0
86	0x00000000	0.0
87	0x00000000	0.0
88	0x00000000	0.0
89	0x00000000	0.0
90	0x00000000	0.0
91	0x00000000	0.0
92	0x00000000	0.0
93	0x00000000	0.0
94	0x00000000	0.0
95	0x00000000	0.0
96	0x00000000	0.0
97	0x00000000	0.0
98	0x00000000	0.0
99	0x00000000	0.0
100	0x00000000	0.0
101	0x00000000	0.0
102	0x00000000	0.0
103	0x00000000	0.0
104	0x00000000	0.0
105	0x00000000	0.0
106	0x00000000	0.0
107	0x00000000	0.0
108	0x00000000	0.0
109	0x00000000	0.0
110	0x00000000	0.0
111	0x00000000	0.0
112	0x00000000	0.0
113	0x00000000	0.0
114	0x00000000	0.0
115	0x00000000	0.0
116	0x00000000	0.0
117	0x00000000	0.0
118	0x00000000	0.0
119	0x00000000	0.0
120	0x00000000	0.0
121	0x00000000	0.0
122	0x00000000	0.0
123	0x00000000	0.0
124	0x00000000	0.0
125	0x00000000	0.0
126	0x00000000	0.0
127	0x00000000	0.0

action_model._discrete_distribution.branches.0.weight f4 [1, 128]
0	0x3c072486	0.008248454
1	0x3bd7cc55	0.0065856376
2	0xbbe6ff80	-0.007049501
3	0xbbbd7ac0	-0.005782455
4	0xbb89b932	-0.004202985
5	0x3b5ea1b0	0.0033970885
6	0xba8f7d2b	-0.0010947337
7	0xbb358de4	-0.0027702982
8	0x3bfd392b	0.007727762
9	0xbbb1cf70	-0.00542634
10	0xba0a4dc8	-0.00052758725
11	0x3b6b7ebb	0.0035933692
12	0xbbc40d8c	-0.00598306
13	0x3b97d70f	0.0046337913
14	0xbb024a42	-0.0019880687
15	0x3c0227a7	0.007944024
16	0x3b898ad7	0.004197459
17	0x3af1197a	0.0018394433
18	0x3c356e02	0.011073591
19	0xbc7621b5	-0.015022685
20	0x3c73bc80	0.014876485
21	0xbab58817	-0.0013849762
22	0x3b4c1ea9	0.0031146205
23	0xbc1bea43	-0.009516302
24	0xbba830f5	-0.0051327893
25	0xbb81c53f	-0.003960281
26	0xbbffc2b5	-0.0078051933
27	0x3bf4b7b8	0.00746819
28	0xbb94dd74	-0.004543001
29	0xbb9fccc8	-0.0048767067
30	0xbc8267c1	-0.015918614
31	0xbb00a3e7	-0.0019628943
32	0x3b874eda	0.004129273
33	0x3c0f3a07	0.008741862
34	0x39401d8f	0.00018321558
35	0x3b084a7b	0.0020796347
36	0xbb8f6946	-0.0043765632
37	0xbc3c339a	-0.011486912
38	0xbc61b9cf	-0.01377721
39	0x3b2fcd77	0.0026825347
40	0xbc5e99fd	-0.013586518
41	0x3a0b7313	0.00053195766
42	0xbbc691b8	-0.0060598515
43	0xbc11fa96	-0.008909842
44	0xbad5df03	-0.0016317073
45	0xbc3d3f81	-0.011550785
46	0xbbc9bbb7	-0.0061564106
47	0xbc032130	-0.008003518
48	0xba17eebf	-0.0005795769
49	0x3c3e5c99	0.011618757
50	0xbb4a6872	-0.0030885008
51	0x3b94782b	0.0045309267
52	0x3c6be3a5	0.014397536
53	0x3c112d49	0.0088608945
54	0x3c0a2a1e	0.008432893
55	0xba7f0d8f	-0.00097294984
56	0xbbe7ab2b	-0.0070699654
57	0x3ac19565	0.0014769254
58	0xba16891b	-0.0005742476
59	0xbb6122e7	-0.0034353079
60	0xbbb8e5dc	-0.0056426357
61	0x3ca99cd7	0.02070467
62	0xbb695148	-0.0035601426
63	0x3c315d07	0.010825402
64	0xbb912307	-0.0044292244
65	0x3ba14d2c	0.0049225297
66	0x3c0b7b00	0.008513212
67	0x3c443b76	0.011977067
68	0x3a19f0c4	0.00058723637
69	0x3b64a473	0.0034888058
70	0xbb34e2a1	-0.0027600902
71	0x3950e0d8	0.00019920187
72	0x3ba35a9c	0.0049851667
73	0x3c14111f	0.009037285
74	0xbc12c44b	-0.008957933
75	0xbc898943	-0.016789084
76	0xbc2c342e	-0.0105104875
77	0x3b89bcf9	0.0042034355
78	0xba69fb3a	-0.00089256803
79	0xbc03b869	-0.008039572
80	0xbc65c400	-0.014023781
81	0x3c099df7	0.008399478
82	0xbc80a33e	-0.01570284
83	0x3bd4a000	0.0064888
84	0x3c0a2147	0.0084307855
85	0xbbf80ca3	-0.007569866
86	0xba121b30	-0.0005573509
87	0x3c383c0c	0.011244785
88	0x3c392841	0.011301101
89	0xbc71f6b3	-0.01476829
90	0x3c7ae403	0.015313151
91	0x3bdd2f5a	0.0067500295
92	0x3b720142	0.003692702
93	0x3b9565ff	0.004559278
94	0x3c271c5d	0.010199633
95	0xbc1d1f60	-0.00959
96	0xbbeeaf0f	-0.007284052
97	0x3bdf33ca	0.0068115937
98	0xba9e3752	-0.001207093
99	0x3a872f86	0.0010313846
100	0xbc38f36c	-0.011288505
101	0x3be7944b	0.0070672384
102	0xbafde65d	-0.0019371022
103	0xbc5823d7	-0.013192139
104	0xbc7f4c3b	-0.01558214
105	0x3c15be93	0.009139675
106	0xbbe34bad	-0.0069365115
107	0x3b816b17	0.0039495337
108	0xb9514d4f	-0.00019960593
109	0xbb2f4a1d	-0.0026747056
110	0x3b2ea283	0.0026647158
111	0x3b6fc885	0.0036588025
112	0x3bf64fbb	0.007516829
113	0xbbfb3ca3	-0.0076671406
114	0xbb2d251b	-0.0026419822
115	0xbc5f63c0	-0.013634622
116	0x3bd5eb60	0.006528303
117	0xbb8bb69f	-0.0042637135
118	0x3c1ac6aa	0.009446779
119	0x3b02b9fb	0.0019947279
120	0x3c1ad8a5	0.009451066
121	0x3beb1412	0.0071740234
122	0x3bc11b96	0.005893181
123	0x3c61fac3	0.013792696
124	0x3b962457	0.0045819688
125	0xbc1bb666	-0.009503936
126	0xbc47b020	-0.012187988
127	0xbbfdefb2	-0.007749521

network_body._body_endoder.seq_layers.0.weight f4 [128, 1]
0	0x3f0f4f1f	0.55980104
1	0x3f973170	1.1811962
2	0xbf1153d1	-0.5676852
3	0x3e61c12b	0.22046344
4	0xbd3bd0b8	-0.045853347
5	0xbdc74a88	-0.097310126
6	0x3fd5ea27	1.6712083
7	0xbe304a69	-0.17215885
8	0x3fa2412d	1.267614
9	0x3dcfee31	0.10152853
10	0x3e76d8e8	0.2410618
11	0x3fcdf54e	1.6090486
12	0x3f641002	0.89086926
13	0x3f23c554	0.63972974
14	0xbe537873	-0.20651416
15	0xbf173c87	-0.5907673
16	0x3f1b0704	0.6055758
17	0x3f9105a5	1.1329848
18	0xbf0ee50c	-0.5581825
19	0xbe3392e8	-0.17536509
20	0x3f009bd7	0.5023779
21	0x3f58dfdb	0.84716576
22	0xbd9e9177	-0.07742589
23	0xbe9ed511	-0.31021932
24	0xbf63d2cf	-0.88993543
25	0xbf855269	-1.0415775
26	0x3f39dca2	0.72602284
27	0xbff84f88	-1.9399271
28	0x3f2f5890	0.6849451
29	0xbf2d2a8a	-0.67643034
30	0xbf5c0766	-0.8594879
31	0xbcc3cd80	-0.023901701
32	0xbfc87dee	-1.5663431
33	0x3ec005c9	0.37504414
34	0xbd9e474a	-0.07728441
35	0x3cab5743	0.020915633
36	0xbe125d79	-0.1429347
37	0xbfd0d7b7	-1.6315831
38	0x3f931ccb	1.1493162
39	0x3f11db36	0.56975114
40	0x3e49006b	0.19629066
41	0xbfd4826e	-1.6602304
42	0x3f98fea5	1.1952711
43	0x3fb81dfd	1.4384152
44	0xbeb5771b	-0.35442433
45	0x3fa8fe5e	1.3202627
46	0x3fa4f140	1.2886124
47	0x3f52f9ef	0.8241262
48	0x3e00267f	0.12514685
49	0x3f5870be	0.8454703
50	0x3d5b3ff7	0.0535278
51	0xbec85c09	-0.39132717
52	0x3f82cf49	1.0219508
53	0xbf9e1734	-1.2350831
54	0x3fdffb85	1.7498633
55	0x3f47c40e	0.7803353
56	0x3ebf4bf1	0.37362626
57	0x3f4d5d38	0.80220366
58	0x3f554fa9	0.83324677
59	0xbf997773	-1.1989578
60	0xbeee8c0a	-0.46591216
61	0xbf4c5fb1	-0.79833513
62	0x3e3db492	0.18525913
63	0xbf090c76	-0.5353464
64	0x3f379b30	0.7172117
65	0x3fe94dc8	1.8226862
66	0x3f958143	1.1680073
67	0x3f1314a5	0.57453376
68	0x3e1285bb	0.14308827
69	0x3faf966f	1.3717784
70	0x3fd79527	1.6842393
71	0x3ff571a3	1.9175304
72	0xbf90ab5c	-1.1302295
73	0x3f137226	0.5759605
74	0x3fba5726	1.4557846
75	0x3e8d9d33	0.27658996
76	0x3f1c1454	0.6096852
77	0xbddfb538	-0.109232366
78	0xbfc228ad	-1.5168663
79	0x3fd275a4	1.6442151
80	0xbf14c7df	-0.5811748
81	0x3f3eee6a	0.7458254
82	0xbef27bcf	-0.47360083
83	0x3efd1c6f	0.49435756
84	0x3fd43ac2	1.6580431
85	0x3f243d80	0.6415634
86	0x3eddc036	0.43310708
87	0xbfa4ee19	-1.2885162
88	0xbf8e0856	-1.1096294
89	0xbd5feb53	-0.054667782
90	0x3f4cbd60	0.79976463
91	0xbf4c8484	-0.798897
92	0xbfa7781e	-1.3083532
93	0xbf1898f2	-0.59608376
94	0xbde76e0f	-0.11300289
95	0xbdee2f11	-0.11630071
96	0xbe3d4dc2	-0.18486694
97	0xbe179b95	-0.14805444
98	0x3fb7d992	1.4363272
99	0xbf7dbed1	-0.9911929
100	0xbed5489c	-0.4165696
101	0x3f9adb3d	1.2098156
102	0xbd167d5c	-0.036740646
103	0xbf40c9bd	-0.7530783
104	0xbeef605c	-0.46753204
105	0xbf912b95	-1.1341425
106	0x3ecfb756	0.40569562
107	0x3e9b4d77	0.30332538
108	0x3fd75326	1.682225
109	0xbf6e6cad	-0.93134576
110	0xbefadd9d	-0.48997203
111	0xbf32a60b	-0.6978461
112	0xbeaebab6	-0.34126824
113	0xbf5113dc	-0.8167093
114	0xbf003822	-0.5008565
115	0xbed93331	-0.42421868
116	0x3fd9b695	1.7008845
117	0x3f1b62d0	0.6069765
118	0xbe0ee0b3	-0.13952903
119	0x3fabc14e	1.3418367
120	0xbee6988b	-0.45038256
121	0x3fdeb05c	1.7397571
122	0xbf282ce0	-0.65693474
123	0x3e00fc53	0.12596254
124	0xbf407dde	-0.7519206
125	0x3faabdea	1.3339207
126	0xbfc4bfed	-1.5371071
127	0x3efe75f0	0.49699354

network_body._body_endoder.seq_layers.0.bias f4 [128]
0	0x00000000	0.0
1	0x00000000	0.0
2	0x00000000	0.0
3	0x00000000	0.0
4	0x00000000	0.0
5	0x00000000	0.0
6	0x00000000	0.0
7	0x00000000	0.0
8	0x00000000	0.0
9	0x00000000	0.0
10	0x00000000	0.0
11	0x00000000	0.0
12	0x00000000	0.0
13	0x00000000	0.0
14	0x00000000	0.0
15	0x00000000	0.0
16	0x00000000	0.0
17	0x00000000	0.0
18	0x00000000	0.0
19	0x00000000	0.0
20	0x00000000	0.0
21	0x00000000	0.0
22	0x00000000	0.0
23	0x00000000	0.0
24	0x00000000	0.0
25	0x00000000	0.0
26	0x00000000	0.0
27	0x00000000	0.0
28	0x00000000	0.0
29	0x00000000	0.0
30	0x00000000	0.0
31	0x00000000	0.0
32	0x00000000	0.0
33	0x00000000	0.0
34	0x00000000	0.0
35	0x00000000	0.0
36	0x00000000	0.0
37	0x00000000	0.0
38	0x00000000	0.0
39	0x00000000	0.0
40	0x00000000	0.0
41	0x00000000	0.0
42	0x00000000	0.0
43	0x00000000	0.0
44	0x00000000	0.0
45	0x00000000	0.0
46	0x00000000	0.0
47	0x00000000	0.0
48	0x00000000	0.0
49	0x00000000	0.0
50	0x00000000	0.0
51	0x00000000	0.0
52	0x00000000	0.0
53	0x00000000	0.0
54	0x00000000	0.0
55	0x00000000	0.0
56	0x00000000	0.0
57	0x00000000	0.0
58	0x00000000	0.0
59	0x00000000	0.0
60	0x00000000	0.0
61	0x00000000	0.0
62	0x00000000	0.0
63	0x00000000	0.0
64	0x00000000	0.0
65	0x00000000	0.0
66	0x00000000	0.0
67	0x00000000	0.0
68	0x00000000	0.0
69	0x00000000	0.0
70	0x00000000	0.0
71	0x00000000	0.0
72	0x00000000	0.0
73	0x00000000	0.0
74	0x00000000	0.0
75	0x00000000	0.0
76	0x00000000	0.0
77	0x00000000	0.0
78	0x00000000	0.0
79	0x00000000	0.0
80	0x00000000	0.0
81	0x00000000	0.0
82	0x00000000	0.0
83	0x00000000	0.0
84	0x00000000	0.0
85	0x00000000	0.0
86	0x00000000	0.0
87	0x00000000	0.0
88	0x00000000	0.0
89	0x00000000	0.0
90	0x00000000	0.0
91	0x00000000	0.0
92	0x00000000	0.0
93	0x00000000	0.0
94	0x00000000	0.0
95	0x00000000	0.0
96	0x00000000	0.0
97	0x00000000	0.0
98	0x00000000	0.0
99	0x00000000	0.0
100	0x00000000	0.0
101	0x00000000	0.0
102	0x00000000	0.0
103	0x00000000	0.0
104	0x00000000	0.0
105	0x00000000	0.0
106	0x00000000	0.0
107	0x00000000	0.0
108	0x00000000	0.0
109	0x00000000	0.0
110	0x00000000	0.0
111	0x00000000	0.0
112	0x00000000	0.0
113	0x00000000	0.0
114	0x00000000	0.0
115	0x00000000	0.0
116	0x00000000	0.0
117	0x00000000	0.0
118	0x00000000	0.0
119	0x00000000	0.0
120	0x00000000	0.0
121	0x00000000	0.0
122	0x00000000	0.0
123	0x00000000	0.0
124	0x00000000	0.0
125	0x00000000	0.0
126	0x00000000	0.0
127	0x00000000	0.0

network_body._body_endoder.seq_layers.2.weight f4 [128, 128]
0	0x3dd79082	0.105256096
1	0xbd326f04	-0.043562904
2	0x3e1c1a17	0.15244327
3	0x3d3261d5	0.04355033
4	0x3e1acc6f	0.15117048
5	0x3d865caf	0.06560647
6	0xbcab4a62	-0.020909492
7	0x3b5d1a8e	0.0033737752
8	0xbd2826bc	-0.041052565
9	0x3db0248d	0.086007215
10	0x3d889f48	0.066710055
11	0xbcfe934f	-0.031076102
12	0xbd2e0510	-0.042485297
13	0xbe30deb5	-0.17272456
14	0xbd9a3bda	-0.07530947
15	0xbd625490	-0.055256426
16	0x3e122743	0.1427279
17	0x3e09c34e	0.13453409
18	0xbc26ed10	-0.010188356
19	0x3d20a151	0.039216343
20	0x3dbfdcdd	0.09368298
21	0xbc809b21	-0.015698971
22	0x3d9adbfa	0.075614884
23	0xbe16b212	-0.14716366
24	0xbe4a591d	-0.19760557
25	0x3db1be3e	0.08678864
26	0xbde3815a	-0.11108656
27	0xbd11d86c	-0.035606787
28	0xbd170f13	-0.03687961
29	0xbd42b818	-0.047538847
30	0xbb5cbd70	-0.003368225
31	0x3c1f826c	0.009735685
32	0x3e083f75	0.13305457
33	0x3cee4bdc	0.029088907
34	0x3a01812e	0.0004940209
35	0xbd9d1b0c	-0.076711744
36	0xbd209912	-0.03920848
37	0x3d7368b2	0.059426017
38	0x3d4bcda1	0.04975665
39	0xbd51d38e	-0.051227145
40	0x3d0174f1	0.031605665
41	0x3e2f6741	0.17129232
42	0x3d4c3955	0.049859364
43	0xbdf92ab6	-0.121663496
44	0xbc02c801	-0.007982255
45	0xbc640fe6	-0.013919806
46	0xbd55db52	-0.052211113
47	0xbb579374	-0.0032894285
48	0xb9447279	-0.00018734661
49	0x3ca590e3	0.020210689
50	0xbbaa9eb2	-0.0052069062
51	0x3dcd2c22	0.10018183
52	0x3d9498ab	0.072556816
53	0xbc92ba72	-0.01791117
54	0x3c13005c	0.008972254
55	0xbc31b52b	-0.0108464165
56	0xbc7d8b20	-0.0154750645
57	0x3d86fa8e	0.06590758
58	0x3cf822ed	0.030290091
59	0x3d225247	0.039629247
60	0x3d4551c8	0.048173696
61	0xbe0194e6	-0.12654456
62	0x3cdd7928	0.02703531
63	0xbdd69b38	-0.104788244
64	0x3dad202c	0.08453402
65	0xbdaeb251	-0.08530105
66	0xbdde18f1	-0.10844601
67	0xbe6b2f52	-0.2296727
68	0xbca8e7a4	-0.020618267
69	0xbe10719f	-0.14105843
70	0xbd4a2cec	-0.049359247
71	0x3c4fb9ec	0.012678605
72	0xbc38c59a	-0.011277581
73	0x3d368dfc	0.044569
74	0x3c44c7f9	0.012010568
75	0x3d0eb8d9	0.034844253
76	0x3d566baf	0.05234879
77	0xbe283713	-0.16427259
78	0xbcca4b4d	-0.02469411
79	0xbd90b2b5	-0.07065336
80	0x3d6dce04	0.0580578
81	0x3c939051	0.018013151
82	0x3d9a0a60	0.0752151
83	0x3e0ec0ad	0.13940687
84	0xbd82490b	-0.06361588
85	0xbced0b9e	-0.028936204
86	0xbdace512	-0.08442129
87	0x3dd43f8e	0.103636846
88	0x3d124f6c	0.035720274
89	0xbd198c46	-0.03748729
90	0x3aa08cf1	0.0012249035
91	0x3d66c204	0.05633737
92	0x3d251261	0.04030073
93	0x3d5586e8	0.05213061
94	0xbbab43f7	-0.005226608
95	0xbdbdface	-0.09276353
96	0xbb83bed8	-0.004020553
97	0x3d8e3191	0.06943048
98	0xbdf21714	-0.11820808
99	0xbd8e5d7b	-0.06951424
100	0xbd9c365c	-0.07627556
101	0x3d7b493b	0.061349135
102	0xbce430b5	-0.027855257
103	0x3da45d0c	0.0802556
104	0x3d21f224	0.039537564
105	0x3e283418	0.16426122
106	0x3b34e70d	0.0027603537
107	0xbd3eed2e	-0.04661291
108	0x3d17fb9b	0.037105184
109	0xbddc8a63	-0.10768583
110	0x3d92358c	0.071391195
111	0xbc87fe2d	-0.016600693
112	0x3c7de17b	0.015495653
113	0xbd73e6c4	-0.059546247
114	0x3d0149a3	0.031564366
115	0xbd8b0546	-0.06788115
116	0xbd8d412e	-0.06897198
117	0xb9e8837f	-0.0004434846
118	0xbdf1ace4	-0.118005544
119	0x3a9a66ee	0.0011779943
120	0xbc8a3f9d	-0.016876036
121	0xbd95e229	-0.07318527
122	0x3d2c8afe	0.04212474
123	0xbd34002a	-0.04394547
124	0x3e55a31a	0.20863
125	0xbd1cd65c	-0.038290367
126	0x3d08ab6b	0.033366602
127	0xbd423260	-0.047411323
128	0xbbf601ad	-0.007507524
129	0xbd3f0fee	-0.04664605
130	0xbd914320	-0.07092881
131	0xbd25a640	-0.04044175
132	0xbe29f684	-0.16597944
133	0xbe05d17b	-0.13068192
134	0xbd9e0313	-0.0771543
135	0xbd3d8b02	-0.046275146
136	0xb935e1ac	-0.00017345574
137	0x3e33ecef	0.17570852
138	0xbe83a020	-0.25708103
139	0xbd30d3e2	-0.043170817
140	0x3e165f2d	0.14684744
141	0x3ca4d181	0.02011943
142	0xbcffc49d	-0.031221682
143	0x3c0b9618	0.008519672
144	0x3db5e732	0.08881988
145	0x3dfef2bd	0.124486424
146	0x3e0e8ba0	0.1392045
147	0xbeb04750	-0.34429407
148	0xbcb0cb06	-0.021581184
149	0xbc1e1e68	-0.009650804
150	0x3d883cfe	0.06652258
151	0xbe12b7bc	-0.14327902
152	0xbd6ec9f0	-0.05829805
153	0xbcfda7a6	-0.03096373
154	0x3b837cb3	0.004012668
155	0x3c794bcb	0.015215824
156	0x3c94bccf	0.018156437
157	0x3e12c65c	0.1433348
158	0xbd06499c	-0.032785043
159	0x3d008a77	0.03138205
160	0x3e025591	0.12727953
161	0x3dafabe6	0.08577709
162	0x3da24b45	0.07924513
163	0x3e0e19a1	0.13876964
164	0x3d7a507f	0.061111923
165	0x3d11341e	0.035450093
166	0xbcc3111f	-0.023811875
167	0xbcb3c83b	-0.021946063
168	0xbb52bd97	-0.0032156461
169	0xbdb0544a	-0.08609827
170	0xbd6aedbb	-0.057355624
171	0x3cb6de02	0.022322658
172	0x3e499842	0.19686988
173	0x3d0e9cb8	0.034817427
174	0xbd3ffcfb	-0.04687212
175	0xb9ee828c	-0.00045492162
176	0x3cae77e8	0.02129741
177	0xbd028a30	-0.031870067
178	0xbdbb927a	-0.091587976
179	0x3d9d3146	0.07675414
180	0xbe0ead85	-0.1393338
181	0x3d24a1e8	0.04019347
182	0xbe0b25a1	-0.13588573
183	0x3e10686b	0.14102332
184	0x3ddf363a	0.10899015
185	0xbc1ec32f	-0.00969009
186	0x3d7afb8b	0.061275046
187	0xbcec93bf	-0.028879045
188	0xbcba2d29	-0.022726612
189	0x3cdd2f36	0.027000051
190	0xbd48b361	-0.048999194
191	0x3d7eefb8	0.062240332
192	0xbd76a204	-0.060213104
193	0xbd41b762	-0.047294028
194	0xbd603c9a	-0.054745294
195	0xb90be8e8	-0.00013342837
196	0x3e23c5ea	0.15993467
197	0x3d139cb1	0.036038104
198	0xbdfb21b3	-0.12262287
199	0x3d282660	0.041052222
200	0x3d116898	0.03550014
201	0x3e436174	0.19080144
202	0x3c2ccde6	0.010547137
203	0xbaca792a	-0.0015447487
204	0x3ba6c535	0.005089427
205	0x3cde7c6e	0.027158942
206	0x3dfc4597	0.12317961
207	0xba47a2c3	-0.0007615501
208	0xbe323131	-0.17401578
209	0xbbfe5dab	-0.007762631
210	0x3dd9086c	0.105973095
211	0xbd87cff3	-0.0663146
212	0xbd4b68c7	-0.04966047
213	0xbe0c046a	-0.13673559
214	0xbdd532f1	-0.10410107
215	0x3df2773f	0.11839151
216	0x3bfe20bf	0.0077553685
217	0x3dbc8b3b	0.092062436
218	0x3d76e027	0.060272362
219	0x3dd07a56	0.10179584
220	0x3d75feaa	0.06005732
221	0xbdee5bbd	-0.116385914
222	0xbe1140ad	-0.14184828
223	0x3dbc7cbc	0.09203479
224	0xbdb2412e	-0.08703838
225	0x3d033955	0.032037098
226	0xbc48addc	-0.012248483
227	0x3deb8d90	0.1150161
228	0xbb7682b2	-0.0037614522
229	0x3e12f17f	0.14349936
230	0xbe2cb57a	-0.16866103
231	0xbbaf2d84	-0.005346002
232	0x3cd0b430	0.025476545
233	0xbd57ac25	-0.052654404
234	0xbd933202	-0.071872726
235	0xbde32ea3	-0.110928796
236	0xbd293d0c	-0.041317984
237	0x3e2e0fe2	0.16998246
238	0x3df978a5	0.12181214
239	0xbd904a73	-0.0704545
240	0x3ce8ad0b	0.028402826
241	0xbdd36f43	-0.10323956
242	0xbc631f4d	-0.013862443
243	0xbd7b6e39	-0.061384413
244	0xbd13db2f	-0.0360977
245	0xbe66e666	-0.22548828
246	0x3daf4274	0.08557597
247	0x3e066ce2	0.13127473
248	0x3d5c1c58	0.05373797
249	0xbb9944ba	-0.0046773823
250	0x3de00748	0.10938889
251	0x3cbfd34e	0.023416188
252	0x3d756884	0.059914127
253	0xbd912482	-0.070870414
254	0xbd23fb5d	-0.04003464
255	0xbda2c51b	-0.07947751

network_body._body_endoder.seq_layers.2.bias f4 [128]
0	0x00000000	0.0
1	0x00000000	0.0
2	0x00000000	0.0
3	0x00000000	0.0
4	0x00000000	0.0
5	0x00000000	0.0
6	0x00000000	0.0
7	0x00000000	0.0
8	0x00000000	0.0
9	0x00000000	0.0
10	0x00000000	0.0
11	0x00000000	0.0
12	0x00000000	0.0
13	0x00000000	0.0
14	0x00000000	0.0
15	0x00000000	0.0
16	0x00000000	0.0
17	0x00000000	0.0
18	0x00000000	0.0
19	0x00000000	0.0
20	0x00000000	0.0
21	0x00000000	0.0
22	0x00000000	0.0
23	0x00000000	0.0
24	0x00000000	0.0
25	0x00000000	0.0
26	0x00000000	0.0
27	0x00000000	0.0
28	0x00000000	0.0
29	0x00000000	0.0
30	0x00000000	0.0
31	0x00000000	0.0
32	0x00000000	0.0
33	0x00000000	0.0
34	0x00000000	0.0
35	0x00000000	0.0
36	0x00000000	0.0
37	0x00000000	0.0
38	0x00000000	0.0
39	0x00000000	0.0
40	0x00000000	0.0
41	0x00000000	0.0
42	0x00000000	0.0
43	0x00000000	0.0
44	0x00000000	0.0
45	0x00000000	0.0
46	0x00000000	0.0
47	0x00000000	0.0
48	0x00000000	0.0
49	0x00000000	0.0
50	0x00000000	0.0
51	0x00000000	0.0
52	0x00000000	0.0
53	0x00000000	0.0
54	0x00000000	0.0
55	0x00000000	0.0
56	0x00000000	0.0
57	0x00000000	0.0
58	0x00000000	0.0
59	0x00000000	0.0
60	0x00000000	0.0
61	0x00000000	0.0
62	0x00000000	0.0
63	0x00000000	0.0
64	0x00000000	0.0
65	0x00000000	0.0
66	0x00000000	0.0
67	0x00000000	0.0
68	0x00000000	0.0
69	0x00000000	0.0
70	0x00000000	0.0
71	0x00000000	0.0
72	0x00000000	0.0
73	0x00000000	0.0
74	0x00000000	0.0
75	0x00000000	0.0
76	0x00000000	0.0
77	0x00000000	0.0
78	0x00000000	0.0
79	0x00000000	0.0
80	0x00000000	0.0
81	0x00000000	0.0
82	0x00000000	0.0
83	0x00000000	0.0
84	0x00000000	0.0
85	0x00000000	0.0
86	0x00000000	0.0
87	0x00000000	0.0
88	0x00000000	0.0
89	0x00000000	0.0
90	0x00000000	0.0
91	0x00000000	0.0
92	0x00000000	0.0
93	0x00000000	0.0
94	0x00000000	0.0
95	0x00000000	0.0
96	0x00000000	0.0
97	0x00000000	0.0
98	0x00000000	0.0
99	0x00000000	0.0
100	0x00000000	0.0
101	0x00000000	0.0
102	0x00000000	0.0
103	0x00000000	0.0
104	0x00000000	0.0
105	0x00000000	0.0
106	0x00000000	0.0
107	0x00000000	0.0
108	0x00000000	0.0
109	0x00000000	0.0
110	0x00000000	0.0
111	0x00000000	0.0
112	0x00000000	0.0
113	0x00000000	0.0
114	0x00000000	0.0
115	0x00000000	0.0
116	0x00000000	0.0
117	0x00000000	0.0
118	0x00000000	0.0
119	0x00000000	0.0
120	0x00000000	0.0
121	0x00000000	0.0
122	0x00000000	0.0
123	0x00000000	0.0
124	0x00000000	0.0
125	0x00000000	0.0
126	0x00000000	0.0
127	0x00000000	0.0

value_heads.value_heads.extrinsic.weight f4 [1, 128]
0	0x3e59e14e	0.21277353
1	0xbe0891e2	-0.133369
2	0xbe120dfb	-0.14263146
3	0xbe048c2c	-0.12944096
4	0xbcfa1138	-0.030525789
5	0xbd7cc9e3	-0.06171597
6	0xbda75ef5	-0.081724085
7	0x3dfedd9c	0.124446124
8	0xbe5cca8c	-0.2156164
9	0x3e49edcb	0.19719617
10	0x3d51e21b	0.05124102
11	0xbd89d1a5	-0.0672944
12	0x3e3b8a6b	0.18314521
13	0x3e492148	0.19641602
14	0xbdadd309	-0.084875174
15	0x3e0e6c22	0.13908437
16	0xbddbe1a2	-0.107363954
17	0xbdf9c251	-0.12195266
18	0xbdc4c8e2	-0.09608628
19	0xbdaa4498	-0.083138645
20	0x3e08cec5	0.13360126
21	0xbc635d70	-0.013877258
22	0x3e2a8e10	0.16655755
23	0x3e45d5ac	0.1931979
24	0x3e00fe77	0.1259707
25	0x3d1ad403	0.037799846
26	0x3d4a7840	0.049431086
27	0xbe45bfc4	-0.19311434
28	0x3d2e854d	0.042607594
29	0xbcaf15fd	-0.02137279
30	0x3d20ed1b	0.03928862
31	0x3e0d9061	0.13824607
32	0xbd2c9a84	-0.042139545
33	0xbd84dedd	-0.0648782
34	0xbd4faa80	-0.05069971
35	0x3e23d991	0.16000964
36	0xbc89ae1d	-0.016806656
37	0xbe24ed23	-0.16106085
38	0xbe2f79c9	-0.17136301
39	0xbd429e84	-0.047514454
40	0xbdfebfaf	-0.124389045
41	0x3e01bf7e	0.12670705
42	0xbd326c33	-0.043560218
43	0xbd6ad55a	-0.057332374
44	0x3d58be76	0.052916013
45	0x3b77be10	0.0037802495
46	0x3e3c3477	0.18379389
47	0xbd976fed	-0.07394395
48	0xbdb67654	-0.08909288
49	0x3d8417ed	0.06449876
50	0x3da612cc	0.08109054
51	0xbdcb23d8	-0.09918946
52	0x3d343031	0.04399127
53	0x3e5955d4	0.21224147
54	0x3e18b91c	0.14914364
55	0x3cac68c3	0.021046048
56	0xbe583444	-0.21113688
57	0x3e16a3b4	0.14710885
58	0x3e0ce6d7	0.13759933
59	0x3dd0f818	0.1020357
60	0xbe48eb6d	-0.19621058
61	0xbd6476f9	-0.055777524
62	0x3dca4b30	0.09877622
63	0x3df22fc3	0.11825516
64	0x3bdcbaf6	0.0067361547
65	0xbe282ef0	-0.16424155
66	0x3e0f6715	0.14004166
67	0x3e5c4f98	0.21514738
68	0xbe218cc9	-0.15776362
69	0xbe3cb4bf	-0.18428324
70	0xbab9d15a	-0.0014176772
71	0x3dde639b	0.10858842
72	0xbd8542f2	-0.065069094
73	0x3e1fc7e0	0.1560359
74	0x3b9157b3	0.0044355034
75	0x3d7ec242	0.062196977
76	0xbe1160f3	-0.1419714
77	0xbe011d7e	-0.12608907
78	0xbe501da5	-0.20323808
79	0x3d1b0552	0.03784687
80	0x3dfc98d9	0.12333841
81	0xbd0d0a00	-0.034433365
82	0xbb94ab0a	-0.004536991
83	0xbe5c8004	-0.21533209
84	0x3dca13b5	0.0986704
85	0xbe337156	-0.17523703
86	0x3e2f1504	0.1709786
87	0x3df385f1	0.11890782
88	0xbe4a388d	-0.19748135
89	0x3cd15f25	0.025558064
90	0x3e3e6c55	0.18596013
91	0x3e16edb6	0.14739117
92	0xbe07ded4	-0.13268596
93	0xbdad66b7	-0.08466857
94	0x3d0c614b	0.034272473
95	0xbbb4219c	-0.0054971706
96	0x3cd21a65	0.025647352
97	0xbde4049c	-0.11133692
98	0xbe285824	-0.16439873
99	0x3d464895	0.048409063
100	0x3c4a922f	0.012363954
101	0xbe0a1742	-0.13485435
102	0xbdecc926	-0.115618035
103	0xbe02648c	-0.12733668
104	0xbdf8cbec	-0.1214827
105	0x3cce775e	0.025203403
106	0x3e17c2a0	0.14820337
107	0xbe5a601e	-0.21325728
108	0xbd3b8017	-0.045776453
109	0x3ddce57a	0.10785957
110	0x3e4d27a1	0.20034648
111	0x3e0596b3	0.13045768
112	0xbdfc6148	-0.123232424
113	0x3c71918f	0.0147441765
114	0x3e3bd43f	0.18342684
115	0x3c7dc23d	0.015488205
116	0x3cda85c2	0.026675109
117	0xbdd2bee0	-0.10290313
118	0x3dee4e76	0.11636059
119	0x3e23e0dc	0.16003746
120	0xbe034826	-0.12820491
121	0x3d678619	0.05652437
122	0x3df330d2	0.11874546
123	0xbd347d47	-0.044064786
124	0xbd832086	-0.06402688
125	0xbd4b5bf0	-0.049648225
126	0xbc3a8736	-0.011384776
127	0x3cfde58e	0.03099325
