results/ppo/EscapeRoomAgent/checkpoint.pt (torch, 149666 bytes, 12 tensors)

network_body._body_endoder.seq_layers.0.weight f4 [128, 6]
0	0x3f196013	0.5991222
1	0xbf10f100	-0.56617737
2	0xbea9e4d5	-0.33182397
3	0xbedcfe85	-0.43162933
4	0x3c14c351	0.00907977
5	0x3ddf4f35	0.109037794
6	0xbf14f715	-0.5818952
7	0xbeef67ef	-0.46758983
8	0xbe95e6b9	-0.2927759
9	0x3df6ebcc	0.120566934
10	0x3ed5ddb7	0.41770718
11	0xbef980a9	-0.48730972
12	0xbeaf7c3d	-0.34274474
13	0xbe0cbcca	-0.13743892
14	0xbef1c98d	-0.47224084
15	0xbe8bc6b7	-0.27300045
16	0x3f6700b5	0.90235454
17	0xbe63a1f3	-0.22229747
18	0xbef82afc	-0.48470294
19	0xbe075683	-0.13216595
20	0x3ec15715	0.3776175
21	0x3d2b4f6f	0.0418238
22	0xbefcafd8	-0.49352908
23	0xbec61f1a	-0.38695604
24	0x3eb6661b	0.35624775
25	0xbe264fe0	-0.16241407
26	0xbe40ccad	-0.18828078
27	0x3e812466	0.25223082
28	0xbe8fad58	-0.28061938
29	0xbe9d072a	-0.30669528
30	0x3e290c01	0.16508485
31	0x3f364787	0.7120289
32	0x3f28ea35	0.6598237
33	0x3c9c9605	0.019114504
34	0x3de5f6d6	0.11228721
35	0x3e838546	0.25687617
36	0x3e147953	0.14499407
37	0xbf016c9b	-0.50556344
38	0xbf31b49f	-0.6941623
39	0xbbbc42e2	-0.0057452777
40	0x3e60d603	0.21956639
41	0xbe982e41	-0.2972279
42	0x3f39bd3e	0.72554386
43	0xbee047fa	-0.43804914
44	0x3ee1502a	0.44006473
45	0x3d855592	0.06510462
46	0x3e883c0d	0.26608315
47	0xbe0d14da	-0.13777485
48	0xbe887c5d	-0.26657382
49	0xbdde44a4	-0.10852936
50	0x3e67c802	0.2263489
51	0xbe637585	-0.22212799
52	0xbe2da1aa	-0.16956201
53	0xbeb31f6a	-0.34984905
54	0xbe4ea018	-0.20178258
55	0x3ee2d25b	0.44301113
56	0xbeb70b7b	-0.35750946
57	0xbed5e761	-0.4177809
58	0xbf16fa24	-0.58975434
59	0xbe9ed4e8	-0.3102181
60	0xbef6dbb5	-0.48214498
61	0xbd23ff65	-0.040038485
62	0xbd346a7b	-0.04404686
63	0x3e71cd8e	0.23613569
64	0x3db4ea9a	0.08833809
65	0x3e97f48f	0.2967877
66	0xbf27b8b8	-0.65516233
67	0xbf825020	-1.0180702
68	0x3f13b07d	0.57691175
69	0x3ec97294	0.3934523
70	0x3efbef85	0.49206176
71	0x3e4e0176	0.20117745
72	0x3d348346	0.044070505
73	0xbea89ed5	-0.3293368
74	0x3f31bf6f	0.6943273
75	0x3f1c9458	0.61163855
76	0xbf08e3f4	-0.5347283
77	0x3e0563c3	0.13026337
78	0xbe4287b3	-0.18997078
79	0x3f3fd000	0.7492676
80	0xbe37dfe8	-0.17956507
81	0x3f050b8a	0.5197073
82	0x3ddb28f2	0.10701169
83	0xbf86d4e6	-1.0533721
84	0xbf22b9e2	-0.63564885
85	0x3ef029c9	0.4690688
86	0x3ed91e48	0.42405915
87	0xbee7db11	-0.45284322
88	0xbde5351d	-0.11191771
89	0xbe365f86	-0.17809877
90	0xbe24e3ba	-0.16102496
91	0xbfb67873	-1.4255508
92	0x3e41a7e0	0.18911695
93	0xbf6f7e23	-0.93551844
94	0x3f18fa7a	0.59757197
95	0x3cbe4dfb	0.023230543
96	0xbe9c69a3	-0.30549344
97	0x3e02e90f	0.12784217
98	0xbd17eba8	-0.037089974
99	0x3dd54817	0.10414141
100	0xbe91a523	-0.28446302
101	0xbe93eab3	-0.2889
102	0xbea11672	-0.31462437
103	0xbf3c8791	-0.7364436
104	0xbf15e367	-0.58550113
105	0xbe79ac5e	-0.24382159
106	0xbe3496dc	-0.17635673
107	0x3d52d2c8	0.051470548
108	0xbd25c9e2	-0.040475734
109	0xbf11cf54	-0.5695698
110	0x3f525739	0.8216434
111	0xbe979dc6	-0.2961256
112	0xbf0b0ecb	-0.5431945
113	0x3df18bfd	0.11794279
114	0xbec2f30f	-0.38076064
115	0xbefbc934	-0.49176943
116	0x3ee44f85	0.4459192
117	0xbe1a1c84	-0.1504994
118	0xbfb43c5e	-1.4080923
119	0x3db3b04e	0.08773862
120	0x3edcf00f	0.431519
121	0xbe3b642f	-0.18299936
122	0x3e1d10db	0.15338461
123	0xbf56900d	-0.83813554
124	0x3eb8fba0	0.36129475
125	0x3de53a0d	0.11192713
126	0x3df1788b	0.1179057
127	0xbe89584c	-0.26825178
128	0xbea87ec7	-0.32909223
129	0xbf022fea	-0.5085436
130	0x3f34620c	0.7046211
131	0x3e35bbf7	0.17747484
132	0x3db814fc	0.089883775
133	0x3e6f3be9	0.23362698
134	0x3e103e62	0.14086297
135	0x3e994a98	0.29939723
136	0x3f0b6f13	0.5446636
137	0xbccd75f1	-0.025080653
138	0xbd214369	-0.039370928
139	0xbe322303	-0.17396168
140	0x3f67c4d6	0.9053472
141	0xbf674c7b	-0.90351075
142	0xbf7ac3a9	-0.97954804
143	0x3dd0fd68	0.102045834
144	0x3e06d772	0.13168123
145	0x3dc0cb6d	0.094138004
146	0xbf11fcb5	-0.57026225
147	0x3f21e7b8	0.632442
148	0xbdd3eee8	-0.10348302
149	0xbec2524c	-0.37953413
150	0x3edae06e	0.4274935
151	0xbf1b6e80	-0.60715485
152	0xbecf7e70	-0.40526152
153	0x3eaa4656	0.33256787
154	0xbe8ee297	-0.2790725
155	0x3d6e9aa6	0.058252953
156	0x3e8ac1cd	0.27100983
157	0x3eb79b81	0.35860828
158	0xbf0b861e	-0.5450152
159	0x3b9f1229	0.00485446
160	0xbe67d989	-0.22641577
161	0x3ea73ee7	0.32665178
162	0x3dcd0aed	0.100118496
163	0xbe47f755	-0.19527943
164	0xbe448971	-0.19193055
165	0xbc64db03	-0.013968232
166	0xbe9cba7a	-0.3061102
167	0x3e8a3610	0.2699437
168	0xbdd3c195	-0.10339657
169	0xbe69fe2c	-0.22850865
170	0xbeaa10ca	-0.33215934
171	0x3ec9b624	0.39396775
172	0x3dde9ba9	0.108695336
173	0x3eab05bb	0.3340281
174	0xbe9f171a	-0.31072313
175	0xbc81ceb5	-0.015845636
176	0xbe011874	-0.12606984
177	0x3e0f4b67	0.13993607
178	0xbec212fd	-0.37905112
179	0x3d1eb4e1	0.03874672
180	0xbea40726	-0.32036704
181	0xbe87fe7e	-0.2656135
182	0x3dfab6c2	0.122418895
183	0x3f0a2df4	0.5397637
184	0x3f3a6b9a	0.72820437
185	0x3db0a8b6	0.08625929
186	0xbe96768e	-0.29387325
187	0xbe27111c	-0.1631512
188	0x3df68e85	0.12038902
189	0xbd1e3183	-0.038621437
190	0xbe93d186	-0.2887079
191	0xbe6f9edc	-0.23400444
192	0xbd58503e	-0.0528109
193	0xbe56f491	-0.20991732
194	0xbc54eeff	-0.012996434
195	0xbe21992d	-0.15781088
196	0xbdc04631	-0.09388388
197	0xbe8cd0dd	-0.275031
198	0x3f669c0f	0.90081877
199	0xbecafea0	-0.39647388
200	0xbe6e59db	-0.23276465
201	0xbdf9795d	-0.12181351
202	0xbe212e1e	-0.15740249
203	0x3e6c3b61	0.23069526
204	0xbe21e671	-0.15810563
205	0x3ec8c88b	0.39215502
206	0xbe387fa8	-0.18017447
207	0x3f24ac32	0.6432525
208	0x3f662317	0.8989729
209	0xbf1f8a3b	-0.623203
210	0xbd64bf2b	-0.055846374
211	0x3ef1f163	0.47254476
212	0xbea0f1ad	-0.31434384
213	0x3de606b9	0.11231751
214	0xbe3cd92b	-0.18442218
215	0x3e5525b6	0.20815167
216	0xbee87d94	-0.45408309
217	0xbe618228	-0.22022307
218	0xbee1cbee	-0.44100899
219	0xbd5dde7c	-0.054167256
220	0xbf15b213	-0.58474845
221	0x3e562203	0.20911412
222	0xbf2237ec	-0.6336658
223	0xbe0b47ca	-0.13601604
224	0x3e234577	0.15944467
225	0xbdd27d58	-0.10277814
226	0xbdb2a085	-0.08722023
227	0x3ef85b2a	0.48507053
228	0xbd31916b	-0.043351572
229	0xbe8d0d70	-0.27549314
230	0xbec52a1b	-0.38508686
231	0x3f369fa9	0.7133737
232	0xbe8e4437	-0.2778642
233	0x3ec35f1e	0.38158506
234	0xbe66b784	-0.22530943
235	0x3ed736df	0.4203405
236	0xbf2e5568	-0.6809907
237	0x3e209f6c	0.15685815
238	0x3e30412d	0.17212363
239	0x3ea7f5a9	0.3280461
240	0xbede9774	-0.43474925
241	0xbdb53058	-0.088471115
242	0x3e8b06b4	0.27153552
243	0xbed24a0c	-0.41072118
244	0xbe297cb5	-0.16551478
245	0x3bae2872	0.00531488
246	0x3e4de85a	0.20108166
247	0x3e12eb61	0.14347602
248	0xbde1f440	-0.11032915
249	0x3e8a3e61	0.27000716
250	0xbe2cd6bc	-0.1687879
251	0xbf0f25e4	-0.5591719
252	0xbdb4c839	-0.08827252
253	0x3f41c083	0.75684375
254	0x3ecedf9b	0.40404972
255	0xbeb19716	-0.34685582

network_body._body_endoder.seq_layers.0.bias f4 [128]
0	0x00000000	0.0
1	0x00000000	0.0
2	0x00000000	0.0
3	0x00000000	0.0
4	0x00000000	0.0
5	0x00000000	0.0
6	0x00000000	0.0
7	0x00000000	0.0
8	0x00000000	0.0
9	0x00000000	0.0
10	0x00000000	0.0
11	0x00000000	0.0
12	0x00000000	0.0
13	0x00000000	0.0
14	0x00000000	0.0
15	0x00000000	0.0
16	0x00000000	0.0
17	0x00000000	0.0
18	0x00000000	0.0
19	0x00000000	0.0
20	0x00000000	0.0
21	0x00000000	0.0
22	0x00000000	0.0
23	0x00000000	0.0
24	0x00000000	0.0
25	0x00000000	0.0
26	0x00000000	0.0
27	0x00000000	0.0
28	0x00000000	0.0
29	0x00000000	0.0
30	0x00000000	0.0
31	0x00000000	0.0
32	0x00000000	0.0
33	0x00000000	0.0
34	0x00000000	0.0
35	0x00000000	0.0
36	0x00000000	0.0
37	0x00000000	0.0
38	0x00000000	0.0
39	0x00000000	0.0
40	0x00000000	0.0
41	0x00000000	0.0
42	0x00000000	0.0
43	0x00000000	0.0
44	0x00000000	0.0
45	0x00000000	0.0
46	0x00000000	0.0
47	0x00000000	0.0
48	0x00000000	0.0
49	0x00000000	0.0
50	0x00000000	0.0
51	0x00000000	0.0
52	0x00000000	0.0
53	0x00000000	0.0
54	0x00000000	0.0
55	0x00000000	0.0
56	0x00000000	0.0
57	0x00000000	0.0
58	0x00000000	0.0
59	0x00000000	0.0
60	0x00000000	0.0
61	0x00000000	0.0
62	0x00000000	0.0
63	0x00000000	0.0
64	0x00000000	0.0
65	0x00000000	0.0
66	0x00000000	0.0
67	0x00000000	0.0
68	0x00000000	0.0
69	0x00000000	0.0
70	0x00000000	0.0
71	0x00000000	0.0
72	0x00000000	0.0
73	0x00000000	0.0
74	0x00000000	0.0
75	0x00000000	0.0
76	0x00000000	0.0
77	0x00000000	0.0
78	0x00000000	0.0
79	0x00000000	0.0
80	0x00000000	0.0
81	0x00000000	0.0
82	0x00000000	0.0
83	0x00000000	0.0
84	0x00000000	0.0
85	0x00000000	0.0
86	0x00000000	0.0
87	0x00000000	0.0
88	0x00000000	0.0
89	0x00000000	0.0
90	0x00000000	0.0
91	0x00000000	0.0
92	0x00000000	0.0
93	0x00000000	0.0
94	0x00000000	0.0
95	0x00000000	0.0
96	0x00000000	0.0
97	0x00000000	0.0
98	0x00000000	0.0
99	0x00000000	0.0
100	0x00000000	0.0
101	0x00000000	0.0
102	0x00000000	0.0
103	0x00000000	0.0
104	0x00000000	0.0
105	0x00000000	0.0
106	0x00000000	0.0
107	0x00000000	0.0
108	0x00000000	0.0
109	0x00000000	0.0
110	0x00000000	0.0
111	0x00000000	0.0
112	0x00000000	0.0
113	0x00000000	0.0
114	0x00000000	0.0
115	0x00000000	0.0
116	0x00000000	0.0
117	0x00000000	0.0
118	0x00000000	0.0
119	0x00000000	0.0
120	0x00000000	0.0
121	0x00000000	0.0
122	0x00000000	0.0
123	0x00000000	0.0
124	0x00000000	0.0
125	0x00000000	0.0
126	0x00000000	0.0
127	0x00000000	0.0

network_body._body_endoder.seq_layers.2.weight f4 [128, 128]
0	0xbdf68217	-0.120365314
1	0x3ce5a63b	0.028033366
2	0xbdc1ebf3	-0.09468832
3	0xbdb51089	-0.088410445
4	0xbc7122f2	-0.014717804
5	0xbb39d9b3	-0.0028358519
6	0xbd09302e	-0.033493213
7	0x3e0c3a3f	0.13694094
8	0x3c80c1b7	0.01571737
9	0x3d9dfa1b	0.077137195
10	0xbad1fbcb	-0.0016020475
11	0x3d9fd100	0.078035355
12	0xbd5104e3	-0.05103005
13	0x3dab5763	0.08366277
14	0x3c6eb79c	0.014570143
15	0x3d8aa537	0.067697935
16	0x3d59ece1	0.05320442
17	0x3d47fe11	0.04882628
18	0x3e025890	0.12729096
19	0xba758d76	-0.00093670876
20	0x3d026636	0.031835757
21	0x3dd2e014	0.10296646
22	0x3cd7164b	0.026255747
23	0xbda58145	-0.08081297
24	0x3d405512	0.04695613
25	0x3d733823	0.059379708
26	0x3cfa475c	0.030551605
27	0xbe09c0df	-0.1345248
28	0xbd4b8a29	-0.049692307
29	0x3d5b16e8	0.053488642
30	0x3e05945b	0.13044874
31	0xbe9a2fc7	-0.30114576
32	0xbda3c8c9	-0.07997281
33	0x3d23bd38	0.039975375
34	0xbdb6a571	-0.08918274
35	0xbcc3ac73	-0.023885941
36	0x3d7c2f9c	0.06156884
37	0xbdd933ef	-0.10605609
38	0x3c3da6cc	0.011575412
39	0x3dce87d8	0.10084504
40	0xbdba9447	-0.09110313
41	0x3db5f1b7	0.08883994
42	0x3d386151	0.045014683
43	0xbddf23fb	-0.108955346
44	0xbdcf37f8	-0.10118097
45	0x3c8f3d1a	0.01748519
46	0x3db67e5f	0.08910822
47	0x3d8e0599	0.069346614
48	0xbdf35ccf	-0.11882936
49	0xbdb07001	-0.08615113
50	0x3bc01dd3	0.0058629303
51	0xbde480a5	-0.111573495
52	0xbc956e05	-0.018240938
53	0xbdafeee7	-0.08590489
54	0xbc8c3264	-0.017113872
55	0xbdc6a892	-0.09700121
56	0xbdaf874c	-0.08570728
57	0xbe1413d6	-0.14460692
58	0x3cd9f86e	0.026607718
59	0x3d53aef6	0.051680528
60	0x3d351ead	0.044218708
61	0x3e0628fb	0.1310157
62	0xbcdfb1d6	-0.027306478
63	0x3d37a597	0.044835653
64	0x3dc9cf2d	0.09853969
65	0x3d319d29	0.04336277
66	0x3d851520	0.0649817
67	0xbd949187	-0.0725432
68	0xbe342915	-0.17593797
69	0xbd6acaa5	-0.057322163
70	0x3c956958	0.018238708
71	0xbd2df7ea	-0.042472757
72	0xbd6ac68e	-0.057318263
73	0x3ce33cc3	0.027738934
74	0x3cfb5cac	0.030683838
75	0x3d63a30b	0.05557541
76	0x3ca83064	0.020530887
77	0xbbd66569	-0.0065428508
78	0xbdcfc7c1	-0.10145522
79	0x3d219b4e	0.03945475
80	0x3d861d5b	0.06548568
81	0x3da530bc	0.08065936
82	0xbe65fc69	-0.22459568
83	0x3d98728c	0.07443723
84	0x3d16faec	0.03686039
85	0xbc7aa8e7	-0.0152990585
86	0xbc5e609a	-0.013572836
87	0x3dd2ba9b	0.102894984
88	0x3d43e9ff	0.047830578
89	0x3c23587c	0.009969827
90	0xbd341ded	-0.043973852
91	0x3d4f271e	0.050574414
92	0xbd874348	-0.0660463
93	0xbc888427	-0.016664578
94	0x3cbe4088	0.02322413
95	0x3d11c161	0.03558481
96	0x3d00e588	0.031468898
97	0xbe2408bd	-0.16018958
98	0xbe2827e0	-0.16421461
99	0xbdd8e83c	-0.1059117
100	0xbe5276f5	-0.20553191
101	0xbb97d2dc	-0.0046332907
102	0x3e054363	0.13013987
103	0x3b93888a	0.0045023607
104	0xba00b613	-0.00049099437
105	0xbd7ee4e1	-0.062229995
106	0x3d1edeb9	0.038786624
107	0x3dcf21ba	0.10113855
108	0x3c3e0ae1	0.011599273
109	0x3d85cd10	0.06533253
110	0xbdf65ee7	-0.1202982
111	0xbe10c85c	-0.14138931
112	0xbca0f17e	-0.019646402
113	0xbc75ea04	-0.015009407
114	0xbe3fcf31	-0.18731381
115	0xbe37b766	-0.17941055
116	0x3e2241ea	0.15845457
117	0xbda18e1f	-0.078884356
118	0xbd882198	-0.066470325
119	0xbd9c15bc	-0.07621333
120	0x3e0f88c9	0.14017023
121	0x3a01ea56	0.0004955878
122	0x3e12778f	0.1430342
123	0xbcdaeeee	-0.026725259
124	0xbd9e30d9	-0.07724161
125	0x3dab0048	0.08349663
126	0xbd80a59b	-0.06281587
127	0x3d0e0dd3	0.034681153
128	0xbcd2d26c	-0.025735103
129	0x3cca7762	0.02471513
130	0xbda6c5b8	-0.081431806
131	0xbcd1122c	-0.02552136
132	0xbbc0c423	-0.0058827563
133	0xbd411260	-0.047136664
134	0x3d887af9	0.0666408
135	0x3d81b15d	0.063326575
136	0x3dfc988b	0.12333783
137	0x3d38239f	0.044955846
138	0xbd81719a	-0.06320496
139	0xbd572d83	-0.052533638
140	0x3e083f5d	0.13305421
141	0xbd2ce1d0	-0.04220754
142	0xbd832df4	-0.06405249
143	0x3d85fabf	0.06541967
144	0x3dbf6a21	0.09346414
145	0xbc43945a	-0.011937225
146	0xbd27b081	-0.04093981
147	0x3c25fcdd	0.010131088
148	0xbd360fd6	-0.044448696
149	0xbcac11be	-0.021004554
150	0x3cef369f	0.02920085
151	0x3dabb991	0.08385003
152	0x3dc7a9cf	0.09749185
153	0x3d5e0daf	0.05421227
154	0x3b1e8ac1	0.002419159
155	0x3d38a1d1	0.045076195
156	0x3da7e21f	0.08197426
157	0x3d4578b0	0.0482108
158	0x3c31ef9e	0.010860352
159	0x3c966b50	0.018361717
160	0xbe0a1a7a	-0.13486663
161	0xbd21bb52	-0.039485283
162	0xbe1147b3	-0.14187507
163	0x3ba8e2e1	0.005153999
164	0xbe5bab8e	-0.21452162
165	0x3b2b9a4a	0.0026184493
166	0x3ccbefa6	0.024894547
167	0xbd3f12bf	-0.046648737
168	0x3c4da99a	0.012552643
169	0x3d3a7707	0.04552367
170	0xbd917a5c	-0.07103416
171	0x3d28e6f9	0.041235898
172	0x3dfba959	0.1228816
173	0xbdca6956	-0.098833725
174	0x3e08845e	0.13331744
175	0xbcf34379	-0.02969526
176	0x3cf50af3	0.029912448
177	0x3dcd40f7	0.10022157
178	0x3d277d3e	0.040890925
179	0x3d7f9f8b	0.06240801
180	0xbd8625a1	-0.06550146
181	0xbccb6e2d	-0.02483281
182	0x3dbbaa8f	0.09163391
183	0x3b8d8fae	0.0043201065
184	0xbdf55c9b	-0.11980554
185	0x3e11cb1f	0.14237641
186	0xbe437df2	-0.19091013
187	0x3cb544cf	0.022127537
188	0xbde50e5c	-0.111843795
189	0xbb109079	-0.0022058769
190	0x3cf0fc7f	0.029417275
191	0xbdd2211c	-0.10260221
192	0x3ddcc3cd	0.107795335
193	0x3d6ef111	0.058335368
194	0xbe206d80	-0.15666771
195	0x3c0cfa06	0.008604532
196	0x3df90b1f	0.12160324
197	0x3dde2ad3	0.10848012
198	0x3e152e70	0.14568496
199	0x3d053eac	0.03253047
200	0x3e1587f6	0.14602646
201	0xbd98e69e	-0.07465862
202	0xbcfba389	-0.030717628
203	0x3bf7a112	0.007557043
204	0xbd7dc2ae	-0.06195324
205	0xbdd59d97	-0.104304485
206	0x3e5deb38	0.2167176
207	0xba3ee722	-0.0007282366
208	0x3def1887	0.116746
209	0xbcb5981e	-0.022167262
210	0xbb698f2e	-0.003563832
211	0x3db93559	0.090433784
212	0x3dfee94b	0.12446841
213	0x3dcf81f0	0.101322055
214	0x3de9fca9	0.11425144
215	0x3ddb26c3	0.107007526
216	0xbca2f8db	-0.019894054
217	0x3d6c33a8	0.05766645
218	0xbd95130e	-0.07279025
219	0xbd93b0e3	-0.07211473
220	0xbea21ff2	-0.31664997
221	0xbdd96ed2	-0.106168404
222	0xba8e4423	-0.0010854047
223	0x3e25f2be	0.1620588
224	0x3dea2853	0.114334725
225	0x3c503f74	0.012710441
226	0x3e14412b	0.14477985
227	0xbe14db48	-0.14536774
228	0xbd9fb9fb	-0.07799145
229	0x3d3b58fb	0.045739155
230	0x3d87e624	0.06635693
231	0xbd8feced	-0.07027612
232	0x3d419f51	0.047271077
233	0xbd2dcb4b	-0.042430203
234	0x3dcb899b	0.099383555
235	0xbdf2727d	-0.11838243
236	0xbe039a19	-0.12851752
237	0x3d71298e	0.05887752
238	0xbd932845	-0.07185415
239	0xbd9f12b8	-0.07767242
240	0x3c82a54d	0.015947962
241	0x3dca04d4	0.09864202
242	0x3cd84ea4	0.026404686
243	0xbd8c350c	-0.068460554
244	0x3df43fb9	0.11926217
245	0x3d031e27	0.032011177
246	0xbd73839b	-0.05945168
247	0xbdf991e9	-0.12186033
248	0xbdd98422	-0.106209055
249	0xbcf94606	-0.030428898
250	0x3b9c2ea5	0.0047663026
251	0x3d1bdaab	0.038050335
252	0xbd7809d6	-0.060556255
253	0x3adc2a12	0.0016797206
254	0xbe1c5ef7	-0.15270601
255	0xbe1a8656	-0.15090308

network_body._body_endoder.seq_layers.2.bias f4 [128]
0	0x00000000	0.0
1	0x00000000	0.0
2	0x00000000	0.0
3	0x00000000	0.0
4	0x00000000	0.0
5	0x00000000	0.0
6	0x00000000	0.0
7	0x00000000	0.0
8	0x00000000	0.0
9	0x00000000	0.0
10	0x00000000	0.0
11	0x00000000	0.0
12	0x00000000	0.0
13	0x00000000	0.0
14	0x00000000	0.0
15	0x00000000	0.0
16	0x00000000	0.0
17	0x00000000	0.0
18	0x00000000	0.0
19	0x00000000	0.0
20	0x00000000	0.0
21	0x00000000	0.0
22	0x00000000	0.0
23	0x00000000	0.0
24	0x00000000	0.0
25	0x00000000	0.0
26	0x00000000	0.0
27	0x00000000	0.0
28	0x00000000	0.0
29	0x00000000	0.0
30	0x00000000	0.0
31	0x00000000	0.0
32	0x00000000	0.0
33	0x00000000	0.0
34	0x00000000	0.0
35	0x00000000	0.0
36	0x00000000	0.0
37	0x00000000	0.0
38	0x00000000	0.0
39	0x00000000	0.0
40	0x00000000	0.0
41	0x00000000	0.0
42	0x00000000	0.0
43	0x00000000	0.0
44	0x00000000	0.0
45	0x00000000	0.0
46	0x00000000	0.0
47	0x00000000	0.0
48	0x00000000	0.0
49	0x00000000	0.0
50	0x00000000	0.0
51	0x00000000	0.0
52	0x00000000	0.0
53	0x00000000	0.0
54	0x00000000	0.0
55	0x00000000	0.0
56	0x00000000	0.0
57	0x00000000	0.0
58	0x00000000	0.0
59	0x00000000	0.0
60	0x00000000	0.0
61	0x00000000	0.0
62	0x00000000	0.0
63	0x00000000	0.0
64	0x00000000	0.0
65	0x00000000	0.0
66	0x00000000	0.0
67	0x00000000	0.0
68	0x00000000	0.0
69	0x00000000	0.0
70	0x00000000	0.0
71	0x00000000	0.0
72	0x00000000	0.0
73	0x00000000	0.0
74	0x00000000	0.0
75	0x00000000	0.0
76	0x00000000	0.0
77	0x00000000	0.0
78	0x00000000	0.0
79	0x00000000	0.0
80	0x00000000	0.0
81	0x00000000	0.0
82	0x00000000	0.0
83	0x00000000	0.0
84	0x00000000	0.0
85	0x00000000	0.0
86	0x00000000	0.0
87	0x00000000	0.0
88	0x00000000	0.0
89	0x00000000	0.0
90	0x00000000	0.0
91	0x00000000	0.0
92	0x00000000	0.0
93	0x00000000	0.0
94	0x00000000	0.0
95	0x00000000	0.0
96	0x00000000	0.0
97	0x00000000	0.0
98	0x00000000	0.0
99	0x00000000	0.0
100	0x00000000	0.0
101	0x00000000	0.0
102	0x00000000	0.0
103	0x00000000	0.0
104	0x00000000	0.0
105	0x00000000	0.0
106	0x00000000	0.0
107	0x00000000	0.0
108	0x00000000	0.0
109	0x00000000	0.0
110	0x00000000	0.0
111	0x00000000	0.0
112	0x00000000	0.0
113	0x00000000	0.0
114	0x00000000	0.0
115	0x00000000	0.0
116	0x00000000	0.0
117	0x00000000	0.0
118	0x00000000	0.0
119	0x00000000	0.0
120	0x00000000	0.0
121	0x00000000	0.0
122	0x00000000	0.0
123	0x00000000	0.0
124	0x00000000	0.0
125	0x00000000	0.0
126	0x00000000	0.0
127	0x00000000	0.0

action_model._continuous_distribution.log_sigma f4 [1, 2]
0	0x00000000	0.0
1	0x00000000	0.0

action_model._continuous_distribution.mu.weight f4 [2, 128]
0	0x3c95b764	0.018275924
1	0xba218c8b	-0.0006162605
2	0x3ca2a5b7	0.01985441
3	0xbc8eff4a	-0.017455716
4	0xbae5ec2a	-0.0017541696
5	0xbcc5294f	-0.024067549
6	0x3cb3ff93	0.021972453
7	0x3befb4ed	0.007315269
8	0xba976ab6	-0.0011552188
9	0x3ad3852b	0.001613771
10	0x3aa8c4e7	0.0012876064
11	0x3d18e705	0.037329692
12	0xbd134ecd	-0.035963822
13	0x3c2bd285	0.0104872035
14	0xbb9ff0a7	-0.004880983
15	0xbcbd3097	-0.023094459
16	0x3bcb25a2	0.0061995545
17	0xbc1a0d47	-0.00940258
18	0x3c6f03a8	0.014588274
19	0xbcb25640	-0.021769643
20	0x3c0fa993	0.008768457
21	0x3c136388	0.008995898
22	0x3b4861c6	0.0030575856
23	0x3c53d5c0	0.01292938
24	0xbcb0fb0d	-0.021604085
25	0xb987027a	-0.00025751052
26	0x3c3d0910	0.011537805
27	0xb98a595b	-0.00026387986
28	0x3bea12b3	0.0071433424
29	0xbb403fff	-0.002933502
30	0xbcb452f7	-0.022012217
31	0xbcadf34b	-0.021234175
32	0xbc974183	-0.018463856
33	0x3cb5f82a	0.02221306
34	0x3d6b50f2	0.057450242
35	0xbcd9bd6b	-0.02657958
36	0xbca5d29d	-0.02024203
37	0xba597fff	-0.0008296966
38	0x3ccc22ed	0.024918998
39	0x38e89e38	0.000110920926
40	0xbc9cd57a	-0.019144762
41	0x3b8addef	0.0042378823
42	0x3c89187d	0.01673531
43	0x3cadf4a3	0.021234816
44	0x3bf9e0a3	0.0076256557
45	0x3cb4193e	0.021984693
46	0xbb871ba3	-0.0041231676
47	0xbc84fe04	-0.016234405
48	0xbbc57bd4	-0.0060267244
49	0x3cf3fded	0.029784167
50	0xbc0ace2f	-0.00847201
51	0x3c116bec	0.008875828
52	0x3b2c4fbd	0.0026292645
53	0x3d2b96ae	0.041891746
54	0x3c97c19b	0.018524935
55	0x3cae0e9b	0.021247199
56	0xbc81d9fd	-0.015851015
57	0xbafc3c15	-0.001924398
58	0xbd01161c	-0.031515226
59	0x3c1479f0	0.009062275
60	0x3c9f33e8	0.01943393
61	0xbcdc3588	-0.026880994
62	0xbc2b180b	-0.010442744
63	0xbd2b5bfe	-0.041835777
64	0x3b533a77	0.0032230893
65	0x3d0d4def	0.03449815
66	0xbc0ac52b	-0.00846986
67	0xbc046186	-0.008079892
68	0xbc3d9422	-0.011570962
69	0x3d2ccaa7	0.04218545
70	0x3d07cc22	0.03315366
71	0xbb072597	-0.002062177
72	0xbcab84ad	-0.020937288
73	0xbb4be0bb	-0.0031109292
74	0x3c9f58aa	0.019451458
75	0xbce7afb7	-0.02828203
76	0xbc5dbd18	-0.013533853
77	0x3d1ad7c3	0.037803423
78	0x3b765da8	0.0037592445
79	0xbc05786d	-0.0081463875
80	0xbbd5ec5b	-0.00652842
81	0x3c4fa4c7	0.012673563
82	0x3c06eebc	0.00823563
83	0xbc706b37	-0.0146739995
84	0x3bdaabfb	0.0066733337
85	0xbca86f43	-0.020560866
86	0x3ca46915	0.020069638
87	0xbce6369d	-0.028102214
88	0xb9b638c1	-0.0003475603
89	0xbd1b0936	-0.03785058
90	0x3bcc6f53	0.006238857
91	0xbc1eed18	-0.009700082
92	0x3c2d2b83	0.010569456
93	0x3c52663d	0.012841758
94	0x3c93aa77	0.01802562
95	0x3cedb4ba	0.029016841
96	0xbbb8c0ab	-0.005638202
97	0xbc41e4a7	-0.0118343
98	0xbbdfbe02	-0.0068280706
99	0xbb0923e2	-0.002092593
100	0xbcb4777a	-0.022029627
101	0xbba386ec	-0.004990449
102	0xbc885e23	-0.01664645
103	0x3be29d20	0.0069157034
104	0xbc61696a	-0.013758043
105	0xbcd82113	-0.026382959
106	0xbbcf5d1f	-0.0063282396
107	0x3c15773b	0.009122665
108	0x3c342c4b	0.010996888
109	0xbc0abae9	-0.008467414
110	0xbb19a08b	-0.0023441638
111	0x3cba6bd9	0.022756504
112	0x3c96b22a	0.018395502
113	0x3c4a0e21	0.01233247
114	0xbcaa2f6b	-0.020774564
115	0x3c75d428	0.015004195
116	0xbd3ba264	-0.045809165
117	0xbc140b2f	-0.0090358695
118	0xbc518335	-0.01278763
119	0xbc5a2820	-0.013315231
120	0x3bfa1958	0.0076324157
121	0xb9f5738f	-0.0004681614
122	0x3cd6e38f	0.026231555
123	0xbc69a515	-0.01426055
124	0x3ca4f9a3	0.020138567
125	0xb814f973	-3.5518267e-05
126	0x3bc69c05	0.0060610794
127	0xbc35eaf3	-0.01110338
128	0x3d19ab23	0.037516724
129	0x3c085f63	0.008323523
130	0x3880dd13	6.144694e-05
131	0xbcf5cd78	-0.030005202
132	0xbc2812fc	-0.0102584325
133	0xbc8591f6	-0.016304951
134	0x3b6cd022	0.00361348
135	0x3c4a539b	0.012349035
136	0x3d2ab1a5	0.04167332
137	0xbc3a169d	-0.0113579305
138	0x3d154627	0.036443856
139	0x3b74bd20	0.0037344173
140	0x3c92270f	0.01784089
141	0x3c8eb1ee	0.017418828
142	0xbb46bf70	-0.0030326508
143	0x3cb0430b	0.021516344
144	0x3c619712	0.013768928
145	0x3c31528b	0.010822902
146	0xbb7f0f42	-0.0038919006
147	0x3caa054b	0.020754477
148	0x3c8a20fb	0.01686143
149	0x3a06488b	0.0005122504
150	0x3d188165	0.037232775
151	0x3bd45c28	0.0064807124
152	0xbc14477f	-0.009050249
153	0x3c3d47ba	0.0115527455
154	0x3be05e6f	0.006847195
155	0x3b0a265f	0.002108
156	0x3ccfb68b	0.025355598
157	0xb9f1e917	-0.00046140768
158	0xbd0d4e36	-0.034498416
159	0x3c8fca40	0.017552495
160	0xbd2c0435	-0.0419962
161	0xbb24930b	-0.0025112059
162	0x3ad314b7	0.0016104196
163	0x3bac265f	0.0052535976
164	0xbc759ddb	-0.014991249
165	0xbc137b0f	-0.009001507
166	0xbb86d62f	-0.004114888
167	0xbc24b990	-0.010054007
168	0x3d0efe08	0.03491023
169	0x3b39d28f	0.0028354262
170	0xbc91afde	-0.017784055
171	0x3c768a5d	0.015047637
172	0xbb181e1e	-0.002321131
173	0xbd09755a	-0.03355918
174	0x3b8b52ea	0.0042518275
175	0xbcd925bb	-0.02650725
176	0x3c5de2ff	0.01354289
177	0x3c23f063	0.010006043
178	0xbad9c330	-0.0016613957
179	0x3c98e91d	0.018665845
180	0xbce4e94d	-0.027943278
181	0xbc43d633	-0.011952925
182	0x3c62862b	0.013825933
183	0x3c96145d	0.018320257
184	0xbc79728a	-0.015225062
185	0xbc17a2b7	-0.009255103
186	0xbce01e10	-0.027358085
187	0x3bca49f3	0.006173366
188	0xbcd48e12	-0.02594665
189	0xbc289273	-0.010288822
190	0xba086336	-0.0005202772
191	0x3ba95826	0.005167979
192	0x3be0f3c0	0.0068649948
193	0x3c3fe9fe	0.011713503
194	0xbca6a42a	-0.020341951
195	0x3c2674eb	0.010159711
196	0xbb8d679b	-0.0043153292
197	0x3b69da0f	0.0035682952
198	0x3bef3d37	0.0073009985
199	0x3d0b1a1f	0.033960458
200	0xbc19cfe8	-0.009387948
201	0xbcb060e9	-0.021530585
202	0x3c39b1d9	0.011333906
203	0x3ca7f7e4	0.020503946
204	0xbd11d036	-0.035598956
205	0xbc822323	-0.015885895
206	0xbc61e83d	-0.01378828
207	0x3c8e222b	0.017350277
208	0xbc3a5baf	-0.011374398
209	0x3b398684	0.0028308937
210	0x3c28ea7d	0.010309813
211	0xbc489fb7	-0.01224511
212	0xbc3f7f7f	-0.011688112
213	0xbbf2acd2	-0.0074058557
214	0xbcd1203f	-0.025528071
215	0xbb63f10d	-0.0034781129
216	0xb94a46d3	-0.00019290605
217	0x3beec4f7	0.0072866636
218	0xbd1f7a77	-0.03893515
219	0x3c194fd4	0.009357411
220	0xb93b14c9	-0.00017841453
221	0x3c7c99af	0.0154175
222	0xbc8165a5	-0.015795538
223	0xbcb95a6b	-0.022626122
224	0xbc885f25	-0.016646931
225	0x3c328ba7	0.0108975535
226	0xbb9bf148	-0.0047589876
227	0xbc92c048	-0.017913952
228	0x3d6d75e5	0.05797376
229	0xbb0a2a33	-0.0021082282
230	0x3c085ef7	0.008323423
231	0xbbe1d1af	-0.0068914513
232	0xbc05144b	-0.008122514
233	0x3cf7634f	0.030198721
234	0x3a1f0efd	0.0006067602
235	0x3b43f593	0.0029901012
236	0x3c263bc3	0.010146084
237	0xbb0f9174	-0.0021906765
238	0xbcc49717	-0.023997827
239	0x3c1069f7	0.0088143265
240	0x3aacb98a	0.0013177854
241	0xbd072bff	-0.033000942
242	0x3b15c28c	0.0022851555
243	0x3cc4b9ec	0.024014436
244	0x3b1fd0df	0.0024385971
245	0xbbd52c5f	-0.0065055336
246	0xba04979f	-0.00050579937
247	0x3c852bf7	0.016256316
248	0xbc3af2be	-0.011410413
249	0x3c409bbc	0.01175588
250	0x3c9a5145	0.01883758
251	0x3b2aa99b	0.0026041034
252	0xbc153c6b	-0.009108643
253	0x3bf53e80	0.007484257
254	0xbadd3417	-0.0016876486
255	0x3c074610	0.00825645

action_model._continuous_distribution.mu.bias f4 [2]
0	0x00000000	0.0
1	0x00000000	0.0

network_body._body_endoder.seq_layers.0.weight f4 [128, 6]
0	0xbebc2d32	-0.3675323
1	0x3eff8a57	0.49910232
2	0x3ad72aa1	0.0016415903
3	0xbe78ff82	-0.24316218
4	0x3eec542e	0.46157974
5	0x3eb611eb	0.35560545
6	0xbf4a54a4	-0.790354
7	0xbf3d389d	-0.7391451
8	0x3d73637d	0.05942105
9	0x3e54ecf5	0.20793517
10	0x3dc86831	0.09785498
11	0xbeba477a	-0.36382657
12	0x3e817288	0.25282693
13	0xbe94d4af	-0.29068515
14	0x3eb2db06	0.34932727
15	0x3e429531	0.19002225
16	0xbd6b80fd	-0.05749606
17	0xbebb96b0	-0.36638403
18	0x3e14d413	0.14534025
19	0x3efc7b57	0.4931285
20	0xbeb90d75	-0.3614308
21	0xbf5243e9	-0.8213487
22	0x3dfc7dd7	0.123286895
23	0xbe035c5b	-0.128282
24	0xbe3583ce	-0.17726061
25	0xbf022b08	-0.5084691
26	0x3edad5fb	0.4274138
27	0x3eb65278	0.35609794
28	0x3f74b19d	0.95583516
29	0xbeee6183	-0.4655877
30	0x3e5011fe	0.20319363
31	0xbea396de	-0.3195104
32	0x3e8ed5ec	0.27897584
33	0x3ece441e	0.40286344
34	0x3db60417	0.08887499
35	0x3c49fdd3	0.012328583
36	0x3c2c8b9c	0.010531332
37	0xbd6378c1	-0.05553508
38	0xbdb0e7d8	-0.08637971
39	0x3f0a8673	0.54111403
40	0xbeb382be	-0.35060686
41	0xbd06f29d	-0.032946218
42	0x3ee9b33d	0.4564456
43	0xbf5e26f2	-0.86778176
44	0x3eb8cb37	0.3609254
45	0xbdb3dd87	-0.08782487
46	0x3eb517b9	0.3536966
47	0xbe041fa6	-0.12902698
48	0xbf78c268	-0.9717164
49	0x3f39896d	0.7247532
50	0xbe9009f7	-0.28132603
51	0xbe8f7767	-0.28020784
52	0xbedb897d	-0.42878333
53	0x3f316e98	0.6930938
54	0x3f626080	0.884285
55	0xbf00b1eb	-0.5027148
56	0xbf12beab	-0.57322186
57	0xbd3b4a4f	-0.045725163
58	0x3ddd9fba	0.10821481
59	0xbf1eec38	-0.6207919
60	0xbec9672f	-0.39336535
61	0xbb8872e2	-0.0041640857
62	0xbf027722	-0.5096303
63	0xbe9d69f9	-0.30744913
64	0x3d7b0703	0.061285984
65	0x3ef0d1fa	0.470352
66	0x3e812a6f	0.25227687
67	0x3e5cad89	0.21550573
68	0x3e4dc692	0.2009528
69	0x3e4b6363	0.19862132
70	0xbd544b51	-0.05182964
71	0x3e04518e	0.12921736
72	0x3b827ee3	0.003982411
73	0x3e5a8b99	0.21342315
74	0x3db3a46a	0.08771594
75	0x3e4e0a06	0.20121011
76	0xbed6426b	-0.41847548
77	0x3eeebd03	0.4662858
78	0x3e135d97	0.1439117
79	0x3f3b6586	0.7320179
80	0xbd0280ca	-0.031861104
81	0xbe6d1ddb	-0.2315592
82	0x3e2f608f	0.17126678
83	0x3e82be89	0.25535992
84	0x3e3f9ea2	0.18712857
85	0xbf0d4248	-0.5517926
86	0x3c919a1a	0.017773677
87	0xbe3d7d1c	-0.18504757
88	0xbe24c50b	-0.16090791
89	0x3de7fa1d	0.11327002
90	0xbead39e9	-0.33833244
91	0x3ec9fa1a	0.39448625
92	0x3eb41155	0.35169473
93	0x3e9c1785	0.30486694
94	0xbe74b16e	-0.23895809
95	0xbf18474f	-0.5948381
96	0xbe9acf0c	-0.3023609
97	0xbeddcd93	-0.43320903
98	0x3e2cd32c	0.1687743
99	0x3c5e1d85	0.013556843
100	0x3ee9b3f1	0.45645097
101	0xbf432698	-0.76230764
102	0xbe9c31ff	-0.30506894
103	0xbef2bed9	-0.4741123
104	0x3eced305	0.4039537
105	0x3d2d06c1	0.04224277
106	0x3f1df8d7	0.61707824
107	0xbf077cd0	-0.52924824
108	0x3f399872	0.7249824
109	0xbe3e8051	-0.18603636
110	0xbe3d8963	-0.1850944
111	0xbc56a710	-0.013101354
112	0x3f285486	0.6575397
113	0x3f0a2d70	0.5397558
114	0x3e95cbfa	0.29257184
115	0xbdb16af4	-0.08662978
116	0xbeadb982	-0.33930594
117	0x3dddbcf8	0.108270586
118	0xbf3c1e7b	-0.7348401
119	0x3e90e4f0	0.28299665
120	0xbddbc15d	-0.107302405
121	0xbe6fbbf1	-0.23411538
122	0x3eace3b8	0.33767486
123	0xbd861984	-0.065478355
124	0xbf705c3b	-0.9389073
125	0x3eeb0099	0.45898893
126	0x3c82f12b	0.015984138
127	0xbef4485e	-0.47711462
128	0xbdab569a	-0.08366127
129	0x3f10e637	0.5660128
130	0xbec2eadc	-0.38069808
131	0x3f02c2b2	0.5107833
132	0xbecf521f	-0.4049234
133	0xbf141599	-0.57845455
134	0x3e2481ce	0.16065142
135	0x3ecbe4e9	0.39823082
136	0xbed1ec6b	-0.41000685
137	0x3e8d7251	0.2762628
138	0x3ba1c889	0.0049372357
139	0x3e1c91e4	0.15290028
140	0xbe523a35	-0.20530017
141	0x3e0dbae9	0.13840832
142	0x3ef472ae	0.47743744
143	0x3ec57b55	0.38570657
144	0x3e9fde1f	0.31224152
145	0xbe8468df	-0.2586126
146	0x3ec945e6	0.3931114
147	0xbf31e3e5	-0.69488364
148	0x3f0d0246	0.55081594
149	0x3f098360	0.5371609
150	0xbd540359	-0.051761005
151	0x3dc2db92	0.09514536
152	0x3e496c4b	0.19670217
153	0xbe37da53	-0.17954378
154	0x3e909c11	0.2824407
155	0xbdf4f338	-0.11960453
156	0xbf09f549	-0.538899
157	0x3eb19c77	0.34689686
158	0x3d5aaa6f	0.053385194
159	0x3f165a42	0.5873147
160	0xbe9c0064	-0.30469048
161	0xbdf43be1	-0.119254835
162	0x3e145289	0.1448461
163	0x3f967c4a	1.175668
164	0xbebfded0	-0.3747468
165	0xbeacd316	-0.33754796
166	0x3e996e4b	0.2996696
167	0xbec4d4fd	-0.38443747
168	0x3d84a09f	0.064759485
169	0xbdbecbaf	-0.09316193
170	0x3ea7462f	0.32670733
171	0x3dbe2a3f	0.092854016
172	0x3dc4cf9e	0.09609912
173	0x3bdb747f	0.006697237
174	0xbf3023c6	-0.68804586
175	0x3f1037f4	0.5633538
176	0x3ba6d06c	0.005090764
177	0xbe24d07a	-0.16095152
178	0x3e6cd6f7	0.23128878
179	0xbebd1783	-0.36932
180	0x3dc26a31	0.09492911
181	0x3f2d05cd	0.67586976
182	0x3ee95bff	0.45578
183	0xbf1498e7	-0.5804581
184	0xbe53fe72	-0.20702532
185	0x3f1634e1	0.58674437
186	0xbf28b634	-0.6590302
187	0xbebf741b	-0.3739327
188	0x3d92c57a	0.07166572
189	0xbee24ac6	-0.44197673
190	0xbef9ab30	-0.48763418
191	0x3b860ed0	0.0040911213
192	0xbd23f86f	-0.040031847
193	0x3eb80751	0.35943082
194	0x3f268e5e	0.65060985
195	0x3decd82d	0.1156467
196	0x3e847709	0.25872067
197	0xbd9e2f86	-0.07723908
198	0xbdb00a27	-0.085956864
199	0xbe930614	-0.28715575
200	0xbe333f9b	-0.17504732
201	0x3e72f9c5	0.23728092
202	0x3ee49660	0.44645977
203	0xbe95dc0f	-0.29269454
204	0xbdef7ba1	-0.11693502
205	0x3e65b317	0.22431599
206	0x3f12ea39	0.57388645
207	0x3e8443ce	0.2583298
208	0xbdca8394	-0.09888378
209	0x3d6a995d	0.057275165
210	0x3d4952c8	0.049151212
211	0xbee24435	-0.44192663
212	0xbf05b5e3	-0.5223066
213	0xbe53bb41	-0.206769
214	0xbcbc881a	-0.023014117
215	0xbe7fad49	-0.24968447
216	0x3eb7e777	0.3591878
217	0xbf000457	-0.5000662
218	0xbece097a	-0.40241605
219	0xbe9dbe5c	-0.30809295
220	0x3da0b190	0.07846367
221	0x3e97a163	0.29615316
222	0x3e8af46b	0.271396
223	0xbfa405c2	-1.2814257
224	0xbec3e593	-0.3826109
225	0xbd44b131	-0.048020545
226	0xbe6c3fc1	-0.23071195
227	0x3da6dfc5	0.081481494
228	0xbea168b5	-0.31525198
229	0x3f2896d8	0.6585517
230	0x3dc0c5a7	0.09412699
231	0x3edb4479	0.42825678
232	0xbdfcb6fb	-0.12339588
233	0x3ebd6edb	0.3699864
234	0x3e62126e	0.22077343
235	0x3eaf9dd1	0.34300092
236	0xbd332db8	-0.043744773
237	0xbedf42a8	-0.43605542
238	0x3db05a78	0.086110055
239	0xbf1d60fb	-0.61476105
240	0xbe4b7d80	-0.19872093
241	0x3f970335	1.1797854
242	0xbccde512	-0.025133643
243	0xbe69c8c0	-0.22830486
244	0xbf2d9df2	-0.6781913
245	0xbdcec758	-0.100966156
246	0xbe282b2d	-0.1642272
247	0x3cb80624	0.022463866
248	0xbea96df7	-0.3309171
249	0xbef84a90	-0.48494387
250	0x3e842d04	0.25815594
251	0xbd3e197e	-0.04641103
252	0xbcd9dd04	-0.026594646
253	0xbd85fa6e	-0.06541906
254	0x3ebe1b68	0.37130284
255	0xbedfd05e	-0.4371366

network_body._body_endoder.seq_layers.0.bias f4 [128]
0	0x00000000	0.0
1	0x00000000	0.0
2	0x00000000	0.0
3	0x00000000	0.0
4	0x00000000	0.0
5	0x00000000	0.0
6	0x00000000	0.0
7	0x00000000	0.0
8	0x00000000	0.0
9	0x00000000	0.0
10	0x00000000	0.0
11	0x00000000	0.0
12	0x00000000	0.0
13	0x00000000	0.0
14	0x00000000	0.0
15	0x00000000	0.0
16	0x00000000	0.0
17	0x00000000	0.0
18	0x00000000	0.0
19	0x00000000	0.0
20	0x00000000	0.0
21	0x00000000	0.0
22	0x00000000	0.0
23	0x00000000	0.0
24	0x00000000	0.0
25	0x00000000	0.0
26	0x00000000	0.0
27	0x00000000	0.0
28	0x00000000	0.0
29	0x00000000	0.0
30	0x00000000	0.0
31	0x00000000	0.0
32	0x00000000	0.0
33	0x00000000	0.0
34	0x00000000	0.0
35	0x00000000	0.0
36	0x00000000	0.0
37	0x00000000	0.0
38	0x00000000	0.0
39	0x00000000	0.0
40	0x00000000	0.0
41	0x00000000	0.0
42	0x00000000	0.0
43	0x00000000	0.0
44	0x00000000	0.0
45	0x00000000	0.0
46	0x00000000	0.0
47	0x00000000	0.0
48	0x00000000	0.0
49	0x00000000	0.0
50	0x00000000	0.0
51	0x00000000	0.0
52	0x00000000	0.0
53	0x00000000	0.0
54	0x00000000	0.0
55	0x00000000	0.0
56	0x00000000	0.0
57	0x00000000	0.0
58	0x00000000	0.0
59	0x00000000	0.0
60	0x00000000	0.0
61	0x00000000	0.0
62	0x00000000	0.0
63	0x00000000	0.0
64	0x00000000	0.0
65	0x00000000	0.0
66	0x00000000	0.0
67	0x00000000	0.0
68	0x00000000	0.0
69	0x00000000	0.0
70	0x00000000	0.0
71	0x00000000	0.0
72	0x00000000	0.0
73	0x00000000	0.0
74	0x00000000	0.0
75	0x00000000	0.0
76	0x00000000	0.0
77	0x00000000	0.0
78	0x00000000	0.0
79	0x00000000	0.0
80	0x00000000	0.0
81	0x00000000	0.0
82	0x00000000	0.0
83	0x00000000	0.0
84	0x00000000	0.0
85	0x00000000	0.0
86	0x00000000	0.0
87	0x00000000	0.0
88	0x00000000	0.0
89	0x00000000	0.0
90	0x00000000	0.0
91	0x00000000	0.0
92	0x00000000	0.0
93	0x00000000	0.0
94	0x00000000	0.0
95	0x00000000	0.0
96	0x00000000	0.0
97	0x00000000	0.0
98	0x00000000	0.0
99	0x00000000	0.0
100	0x00000000	0.0
101	0x00000000	0.0
102	0x00000000	0.0
103	0x00000000	0.0
104	0x00000000	0.0
105	0x00000000	0.0
106	0x00000000	0.0
107	0x00000000	0.0
108	0x00000000	0.0
109	0x00000000	0.0
110	0x00000000	0.0
111	0x00000000	0.0
112	0x00000000	0.0
113	0x00000000	0.0
114	0x00000000	0.0
115	0x00000000	0.0
116	0x00000000	0.0
117	0x00000000	0.0
118	0x00000000	0.0
119	0x00000000	0.0
120	0x00000000	0.0
121	0x00000000	0.0
122	0x00000000	0.0
123	0x00000000	0.0
124	0x00000000	0.0
125	0x00000000	0.0
126	0x00000000	0.0
127	0x00000000	0.0

network_body._body_endoder.seq_layers.2.weight f4 [128, 128]
0	0xbe19ac8b	-0.15007226
1	0x3d824289	0.06360347
2	0x3dfa89ed	0.122333385
3	0xbcdc5e78	-0.026900515
4	0xbe0463c2	-0.1292868
5	0xbd9d4df8	-0.07680887
6	0x3d248106	0.04016211
7	0xbd8add53	-0.067804955
8	0x3d1549a6	0.03644719
9	0x3be0fb02	0.00686586
10	0x3e0cf862	0.13766626
11	0x3d666e17	0.056257334
12	0x3b4d94bc	0.003136917
13	0xbd784ee6	-0.06062212
14	0x3d936174	0.07196322
15	0xbd9b5e25	-0.07586316
16	0xbda1528c	-0.07877073
17	0xbc9d4175	-0.019196251
18	0xbcf391eb	-0.029732665
19	0xbde8c659	-0.11365957
20	0xb90a6154	-0.00013196963
21	0xbe138ca9	-0.14409126
22	0x3cad6265	0.021165082
23	0x3c3a177d	0.011358139
24	0xbdb0f781	-0.086409576
25	0xbd50e72a	-0.051001705
26	0xbce4204d	-0.027847433
27	0x3d8c64f0	0.0685519
28	0x3e0a30fb	0.13495247
29	0x3da281b4	0.07934895
30	0xbd9aa372	-0.07550706
31	0x3bd74d6d	0.006570509
32	0xbd3200d8	-0.043457836
33	0x3e00f439	0.12593164
34	0x3d4981d2	0.049196072
35	0x3ddd0c0f	0.107933156
36	0xbe27441d	-0.16334577
37	0xbcb03f78	-0.02151464
38	0x3d94b241	0.07260562
39	0xbcdea9f4	-0.02718065
40	0x3d3b65c5	0.045751352
41	0xbdd4e4f9	-0.103952356
42	0xbb587f81	-0.0033034983
43	0x3d8587dc	0.06520054
44	0xbb46049e	-0.0030215154
45	0xbdd41f44	-0.10357526
46	0x3e2398e2	0.15976289
47	0xbd8e327e	-0.06943224
48	0x3dcc557d	0.09977243
49	0xbd8b0e1e	-0.06789802
50	0xbd08041f	-0.033207055
51	0x3da54c93	0.08071246
52	0x3c5b3077	0.013378254
53	0x3cc9160c	0.024546646
54	0x3dce79ea	0.10081847
55	0x3e034760	0.12820196
56	0xbddbdeb7	-0.10735839
57	0xbe3c095d	-0.18362947
58	0xbe075a1c	-0.13217968
59	0xbe2e5199	-0.17023315
60	0xbcc9d842	-0.024639253
61	0x3d2ae216	0.04171952
62	0xbc965ae8	-0.018353894
63	0xbb041010	-0.0020151176
64	0xbd157c31	-0.03649539
65	0x3d7167d0	0.058936894
66	0x3dc6cb8c	0.09706792
67	0xbc88166a	-0.01661225
68	0x3d1d940e	0.038471274
69	0xbd89c9a7	-0.06727915
70	0xbe3cbb71	-0.18430878
71	0x3c97f236	0.018548112
72	0xbe31c6f0	-0.17361045
73	0x3c88408b	0.016632339
74	0xbe41f67c	-0.18941683
75	0x3da27d69	0.07934076
76	0xbe2825ee	-0.16420719
77	0xbdb1f703	-0.08689692
78	0x3dc9eca5	0.098595895
79	0xbd2827be	-0.041053526
80	0xbd6e2bdf	-0.058147307
81	0xbd8ac8bd	-0.06776569
82	0xbd72fbfc	-0.059322342
83	0xbd96a3ac	-0.07355437
84	0x3d87f52f	0.06638562
85	0x3c32e84e	0.010919644
86	0xbd5c4416	-0.05377587
87	0xbda4cd9a	-0.08047028
88	0xbde5a476	-0.11213009
89	0xbd558a6f	-0.052133974
90	0x3d8b18b0	0.06791818
91	0xbdd7b929	-0.10533363
92	0xbe2051bb	-0.15656178
93	0xbda2298c	-0.07918081
94	0xbde31e65	-0.11089782
95	0xbdc55d19	-0.096368976
96	0x3e1b2b7b	0.15153305
97	0xbdf32546	-0.11872344
98	0x3c68634c	0.0141838305
99	0xbcd5ee6a	-0.026114661
100	0x3cb4f477	0.022089226
101	0x3d80bf60	0.06286502
102	0xbe1071aa	-0.1410586
103	0x3d56551f	0.05232727
104	0x3b84027c	0.0040286165
105	0x3c28a9f8	0.01029443
106	0x3e34b4d5	0.17647107
107	0xbd5b5398	-0.053546518
108	0xbd0d6a0a	-0.034524955
109	0xbe3ec532	-0.18629912
110	0x3d23a2ed	0.0399503
111	0x3dfb591d	0.122728564
112	0x3cefd776	0.029277544
113	0x3d1a5eb5	0.037687976
114	0xbd2ded94	-0.0424629
115	0xbc967a55	-0.01836888
116	0xbdd4b967	-0.10386925
117	0x3cb771f2	0.0223932
118	0xbd77f76c	-0.060538694
119	0xbd985eb6	-0.0743994
120	0x3ac7462b	0.0015203407
121	0xbd232cbe	-0.03983759
122	0x3c82be3b	0.01595985
123	0x3c09c2aa	0.008408228
124	0x3b9c754e	0.004774726
125	0xbc2bf732	-0.010495948
126	0xbe3d55f1	-0.18489815
127	0xbb95724b	-0.004560744
128	0xbb8738dd	-0.0041266517
129	0xbdb2941b	-0.08719655
130	0x3da380ca	0.07983549
131	0x3e09bfbb	0.13452046
132	0x3d12ee03	0.035871517
133	0xbd86f0e9	-0.06588919
134	0xbe0518b4	-0.12997705
135	0xbc89ac08	-0.016805664
136	0xbd3a5fe7	-0.045501616
137	0xbd3ba5cd	-0.045812417
138	0x3ce8df07	0.02842666
139	0x3ad8eb8f	0.0016549694
140	0xbdbf7fb5	-0.0935053
141	0x3cf4792e	0.02984294
142	0xbe63ca9b	-0.22245257
143	0x3c0790fe	0.008274315
144	0xbe11dcca	-0.1424438
145	0x3cdddfd2	0.027084265
146	0x3e44433d	0.19166274
147	0x3e197489	0.14985861
148	0xbd9ca611	-0.07648862
149	0xbdbf302a	-0.093353584
150	0xbd0d44c5	-0.03448941
151	0x3d0dda6a	0.034632124
152	0x3d039c94	0.032131746
153	0xbd801b11	-0.062551625
154	0xbda9f443	-0.08298542
155	0xbe470152	-0.19434097
156	0x3d2bc5f1	0.04193682
157	0x3cc389c4	0.023869403
158	0xbd43ed89	-0.047833953
159	0x3d2826b4	0.041052535
160	0xbcb078d7	-0.021541996
161	0xbc02867f	-0.007966637
162	0xbbdf50ee	-0.0068150675
163	0xbd27b01b	-0.04093943
164	0x3df72ef4	0.120695025
165	0x3b052b5b	0.0020320031
166	0x3e0bd07e	0.13653752
167	0x3dc080a4	0.09399536
168	0xbcebede5	-0.02879996
169	0xbb062f4c	-0.0020474968
170	0xbcb53756	-0.022121113
171	0xbdf7155a	-0.12064619
172	0x3e48bee0	0.19604063
173	0xbd1bdc26	-0.038051747
174	0x3d1ab5cf	0.037771042
175	0xbb4a553f	-0.0030873565
176	0x3e08f585	0.13374908
177	0xbe94aacc	-0.29036558
178	0xbd04e640	-0.032446146
179	0x3d24abcb	0.040202897
180	0x3d9dda06	0.077076
181	0x3ae94886	0.0017798103
182	0xbd61c07c	-0.055115208
183	0xbde7e569	-0.113230534
184	0x3de967c4	0.11396745
185	0x3c1e2389	0.009652027
186	0xbd1f3a61	-0.038874034
187	0x3dd6dfad	0.104918815
188	0xbe2c8123	-0.16846137
189	0xbddd47be	-0.10804699
190	0xbdaf74f5	-0.0856723
191	0xbe291ff1	-0.16516091
192	0x3e142d19	0.14470328
193	0xbd9d0331	-0.07666624
194	0x3d81d870	0.0634011
195	0xbc938e61	-0.018012227
196	0xbbe26bef	-0.0069098393
197	0x3ccd2976	0.025044184
198	0xbd3eff65	-0.046630282
199	0x3d54099f	0.051766988
200	0x3e3f2cfe	0.18669507
201	0x3e2135fa	0.15743247
202	0x3b8f9200	0.004381418
203	0x3d7091eb	0.05873291
204	0x3d07d74a	0.0331643
205	0x3ae4aa8a	0.0017445844
206	0xbc988a91	-0.018620761
207	0xbdcb7b67	-0.099356465
208	0xbdcdc316	-0.10046975
209	0xbc9f935c	-0.019479446
210	0x3d6046c1	0.054754976
211	0x3dd2ff8e	0.103026494
212	0xbe223e21	-0.15844013
213	0xbcad4db2	-0.021155212
214	0x3db60a74	0.088887125
215	0x3c86c5b7	0.0164517
216	0x3c84d9c4	0.01621712
217	0x3dc0a47a	0.094063714
218	0x3d959f4d	0.07305775
219	0xbcea9260	-0.02863425
220	0x3ce09f5d	0.02741974
221	0x3d702384	0.05862762
222	0xbcf399ee	-0.029736485
223	0x3d2a6fe2	0.041610606
224	0xbda4b710	-0.08042729
225	0xbdde6960	-0.108599424
226	0x3d682113	0.056672167
227	0x3d7f8599	0.062383268
228	0x3d3a2eea	0.045454897
229	0xbd5a4d9d	-0.053296674
230	0xbd7dc1e3	-0.061952483
231	0xbca6f55e	-0.020380672
232	0x3df5035d	0.11963532
233	0x3d9fc57f	0.07801341
234	0x3d1529d7	0.036416855
235	0xbb8911cc	-0.0041830298
236	0x3d143285	0.03618099
237	0xbdd0efe3	-0.10202005
238	0x3d19afa6	0.037521027
239	0xbe1aec0e	-0.1512911
240	0x3db5526f	0.088536136
241	0xbe1affd4	-0.15136653
242	0xbbb9ca25	-0.0056698495
243	0x3e0a1974	0.13486272
244	0xbd51d778	-0.051230878
245	0xbd019dbf	-0.03164458
246	0xbd8f373b	-0.06992956
247	0xbddf2be5	-0.10897044
248	0xbda8b511	-0.08237661
249	0xbc808b9e	-0.015691575
250	0x3d84da71	0.06486977
251	0xbe36dd0b	-0.17857759
252	0xbda7b63a	-0.08189054
253	0x3d49c02f	0.049255546
254	0xbd995d94	-0.07488552
255	0x3d305621	0.04305089

network_body._body_endoder.seq_layers.2.bias f4 [128]
0	0x00000000	0.0
1	0x00000000	0.0
2	0x00000000	0.0
3	0x00000000	0.0
4	0x00000000	0.0
5	0x00000000	0.0
6	0x00000000	0.0
7	0x00000000	0.0
8	0x00000000	0.0
9	0x00000000	0.0
10	0x00000000	0.0
11	0x00000000	0.0
12	0x00000000	0.0
13	0x00000000	0.0
14	0x00000000	0.0
15	0x00000000	0.0
16	0x00000000	0.0
17	0x00000000	0.0
18	0x00000000	0.0
19	0x00000000	0.0
20	0x00000000	0.0
21	0x00000000	0.0
22	0x00000000	0.0
23	0x00000000	0.0
24	0x00000000	0.0
25	0x00000000	0.0
26	0x00000000	0.0
27	0x00000000	0.0
28	0x00000000	0.0
29	0x00000000	0.0
30	0x00000000	0.0
31	0x00000000	0.0
32	0x00000000	0.0
33	0x00000000	0.0
34	0x00000000	0.0
35	0x00000000	0.0
36	0x00000000	0.0
37	0x00000000	0.0
38	0x00000000	0.0
39	0x00000000	0.0
40	0x00000000	0.0
41	0x00000000	0.0
42	0x00000000	0.0
43	0x00000000	0.0
44	0x00000000	0.0
45	0x00000000	0.0
46	0x00000000	0.0
47	0x00000000	0.0
48	0x00000000	0.0
49	0x00000000	0.0
50	0x00000000	0.0
51	0x00000000	0.0
52	0x00000000	0.0
53	0x00000000	0.0
54	0x00000000	0.0
55	0x00000000	0.0
56	0x00000000	0.0
57	0x00000000	0.0
58	0x00000000	0.0
59	0x00000000	0.0
60	0x00000000	0.0
61	0x00000000	0.0
62	0x00000000	0.0
63	0x00000000	0.0
64	0x00000000	0.0
65	0x00000000	0.0
66	0x00000000	0.0
67	0x00000000	0.0
68	0x00000000	0.0
69	0x00000000	0.0
70	0x00000000	0.0
71	0x00000000	0.0
72	0x00000000	0.0
73	0x00000000	0.0
74	0x00000000	0.0
75	0x00000000	0.0
76	0x00000000	0.0
77	0x00000000	0.0
78	0x00000000	0.0
79	0x00000000	0.0
80	0x00000000	0.0
81	0x00000000	0.0
82	0x00000000	0.0
83	0x00000000	0.0
84	0x00000000	0.0
85	0x00000000	0.0
86	0x00000000	0.0
87	0x00000000	0.0
88	0x00000000	0.0
89	0x00000000	0.0
90	0x00000000	0.0
91	0x00000000	0.0
92	0x00000000	0.0
93	0x00000000	0.0
94	0x00000000	0.0
95	0x00000000	0.0
96	0x00000000	0.0
97	0x00000000	0.0
98	0x00000000	0.0
99	0x00000000	0.0
100	0x00000000	0.0
101	0x00000000	0.0
102	0x00000000	0.0
103	0x00000000	0.0
104	0x00000000	0.0
105	0x00000000	0.0
106	0x00000000	0.0
107	0x00000000	0.0
108	0x00000000	0.0
109	0x00000000	0.0
110	0x00000000	0.0
111	0x00000000	0.0
112	0x00000000	0.0
113	0x00000000	0.0
114	0x00000000	0.0
115	0x00000000	0.0
116	0x00000000	0.0
117	0x00000000	0.0
118	0x00000000	0.0
119	0x00000000	0.0
120	0x00000000	0.0
121	0x00000000	0.0
122	0x00000000	0.0
123	0x00000000	0.0
124	0x00000000	0.0
125	0x00000000	0.0
126	0x00000000	0.0
127	0x00000000	0.0

value_heads.value_heads.extrinsic.weight f4 [1, 128]
0	0xbd0ede13	-0.034879755
1	0xbe2534cd	-0.16133423
2	0x3d5a4e16	0.053297125
3	0xbd75c82b	-0.06000535
4	0x3e0f0c4f	0.13969539
5	0xbe3d70af	-0.18500017
6	0xbd44d889	-0.048058067
7	0x3e2e58e7	0.17026101
8	0x3e4d26bd	0.20034309
9	0xbd95625b	-0.072941504
10	0xbdd0135d	-0.10159943
11	0x3e5a597c	0.21323198
12	0x3e341634	0.17586595
13	0xbdb44486	-0.08802132
14	0x3d782b1c	0.060587987
15	0x3e265239	0.16242303
16	0xbd6018c3	-0.054711115
17	0xbde388f7	-0.11110108
18	0x3db474b8	0.08811325
19	0xbe22fbea	-0.1591641
20	0x3e3d0888	0.18460286
21	0xbe0f3c60	-0.13987875
22	0xbd11ef4c	-0.035628602
23	0xbce4234f	-0.027848868
24	0x3da4006c	0.08007893
25	0xbd7c576f	-0.06160682
26	0x3c1ce32e	0.009575648
27	0xbdf7ae12	-0.12093748
28	0x3d2e4d18	0.04255399
29	0x3d0563f9	0.032566044
30	0xbd61501d	-0.055008043
31	0x3bda67ba	0.006665197
32	0x3e2e58a0	0.17025995
33	0xbd638602	-0.05554772
34	0xbe55885e	-0.20852801
35	0x3e5378dd	0.20651574
36	0x3e4ad76f	0.19808744
37	0x3dee89cb	0.11647376
38	0x3e3fc1f1	0.18726327
39	0x3dd90c8b	0.105980955
40	0x3dcd9acb	0.1003929
41	0xbe1fd2a2	-0.15607694
42	0xbd773860	-0.060356498
43	0x3dbc1963	0.0918453
44	0x3d6d4d0d	0.05793481
45	0x3dc2d423	0.09513118
46	0xbe19956f	-0.1499841
47	0x3e57f3dd	0.2108912
48	0xbdfd81ed	-0.12378297
49	0xbe32af2c	-0.17449635
50	0xbdb3b92f	-0.08775555
51	0xbc72cb68	-0.014819004
52	0xbdfd9b6e	-0.123831615
53	0xbe59263a	-0.21205989
54	0x3d0a84ea	0.033818163
55	0x3d7a1c76	0.0610623
56	0xbda3748b	-0.07981213
57	0x3e3a098a	0.18167701
58	0x3e329d7e	0.17442891
59	0x3cffeb42	0.03124011
60	0xbe3b5a04	-0.18296057
61	0xbe0b57a3	-0.1360765
62	0x3da940f6	0.082643434
63	0x3dbb72aa	0.0915273
64	0xbe42f21b	-0.19037668
65	0x3e57afc1	0.21063139
66	0x3e0dcdee	0.13848087
67	0xbcf810ee	-0.03028151
68	0xbd233ed6	-0.039854847
69	0xbccdd77a	-0.025127161
70	0x3e2e6228	0.17029631
71	0x3db2c8f9	0.08729739
72	0x3ca3aadb	0.019978931
73	0xbcfed032	-0.031105135
74	0x3ddefd67	0.108881764
75	0x3e148b96	0.14506373
76	0x3daef5aa	0.085429505
77	0xbd1a06bd	-0.037604082
78	0xbd9e8afa	-0.077413514
79	0xbe47a05b	-0.19494765
80	0x3e1b4ca8	0.15165961
81	0x3e140eca	0.14458767
82	0xbcdfe310	-0.027329952
83	0x3e3bdad3	0.18345194
84	0xba8200a5	-0.0009918405
85	0xbdbb1847	-0.0913549
86	0x3dda6db9	0.10665459
87	0xbe370bff	-0.1787567
88	0x3a27545b	0.00063831144
89	0xbdb9cbe1	-0.0907209
90	0x3ccf388d	0.02529552
91	0xbe543df7	-0.20726763
92	0xbe1f98ce	-0.15585634
93	0xbc709e80	-0.014686227
94	0xbe09c044	-0.1345225
95	0xbe16d791	-0.1473067
96	0x3dfeab06	0.12434964
97	0xbe3a81a4	-0.18213516
98	0xbe09e90c	-0.13467807
99	0xbd1e2fc0	-0.038619757
100	0xbd8f3c34	-0.06993905
101	0x3d8b4dff	0.06801986
102	0xbd817874	-0.06321803
103	0xbe2c0189	-0.1679746
104	0x3c03c39a	0.0080422405
105	0xbd2c93a4	-0.04213299
106	0xbda4302a	-0.08016999
107	0xbe2bc824	-0.16775566
108	0xbd77ad67	-0.060468104
109	0x3e3ee2bf	0.18641184
110	0x3db3de3a	0.08782621
111	0xbcc39b54	-0.023877777
112	0xbe35ec6a	-0.17765966
113	0x3da67b76	0.08129017
114	0x3e32519e	0.17413947
115	0xbe3c984a	-0.18417469
116	0xbd849583	-0.064738296
117	0xbdd52e92	-0.10409273
118	0x3d990279	0.07471175
119	0x3e1da382	0.15394405
120	0xbd8c878e	-0.068617925
121	0xbc43660f	-0.011926188
122	0x3e1124f8	0.14174259
123	0xbda6ea30	-0.081501365
124	0x3e56e415	0.20985444
125	0x3d81ba9f	0.06334423
126	0xbd7776b4	-0.06041594
127	0x3e259f59	0.16174068
