results/ppo/EscapeRoomAgent/EscapeRoomAgent-4660.pt (torch, 149906 bytes, 12 tensors)

network_body._body_endoder.seq_layers.0.weight f4 [128, 6]
0	0x3f2060fb	0.6264798
1	0x3d158624	0.03650488
2	0xbe08810e	-0.1333048
3	0x3d7eb393	0.062182974
4	0x3eaf6f46	0.34264582
5	0xbe309991	-0.17246081
6	0xbdbd0a70	-0.092305064
7	0xbf400dfe	-0.7502135
8	0xbbd9d8f5	-0.0066481777
9	0xbeef1d40	-0.46702003
10	0xbe5d92b0	-0.21637988
11	0xbf16ca6b	-0.58902615
12	0xbe2d380a	-0.16915908
13	0x3f282f0e	0.656968
14	0xbe94a7a8	-0.29034162
15	0xbed01c31	-0.40646508
16	0x3d8c1737	0.068403654
17	0xbd27e4ff	-0.040989872
18	0x3e9a4021	0.3012705
19	0x3f48f489	0.7849813
20	0x3f2c1a9a	0.6722809
21	0xbc34995d	-0.011022893
22	0x3edd78e6	0.432563
23	0x3d99fa13	0.07518401
24	0x3e619b09	0.22031797
25	0xbea3afdd	-0.3197011
26	0xbedc0a05	-0.42976394
27	0xbec03b67	-0.3754532
28	0x3eb11ff9	0.34594706
29	0x3dd33c37	0.103142194
30	0x3ebd72f8	0.37001777
31	0xbe91dc9a	-0.28488618
32	0x3f72cbb7	0.94842094
33	0xbe88debd	-0.26732436
34	0xbe36da84	-0.17856795
35	0xbef56f56	-0.47936505
36	0x3d234290	0.0398584
37	0x3bc19154	0.005907217
38	0x3ec73489	0.3890727
39	0xbdece4fe	-0.11567114
40	0x3e26f11f	0.16302918
41	0x3edcec32	0.43148953
42	0x3f13fbd3	0.5780613
43	0xbf32c4d2	-0.69831574
44	0x3d36dd3f	0.04464459
45	0x3e776787	0.24160586
46	0x3ee0a0e0	0.43872738
47	0xbf569ece	-0.83836067
48	0xbecca7d7	-0.39971802
49	0xbef45b17	-0.47725746
50	0x3eeec65d	0.46635714
51	0xbe76a30f	-0.2408564
52	0x3f3e50b7	0.7434191
53	0xbf0119d5	-0.5043004
54	0x3e7a4d4d	0.2444355
55	0x3eb87ab2	0.3603111
56	0xbf153793	-0.58287925
57	0xbd5d7cf2	-0.054074235
58	0xbe8609b5	-0.2617928
59	0xbe801880	-0.25018692
60	0x3ea006a2	0.3125506
61	0xbf521909	-0.8206945
62	0xbc1be6b3	-0.009515452
63	0xbe082e9b	-0.13299029
64	0x3e27ecf6	0.16398987
65	0x3ea66a5e	0.32503027
66	0x3d9c8367	0.076422505
67	0xbd9d997f	-0.07695293
68	0xbf153521	-0.58284193
69	0xbee3ee13	-0.44517574
70	0x3aad23bd	0.0013209503
71	0x3e78a681	0.24282266
72	0xbe631741	-0.2217684
73	0xbe821c0c	-0.25412023
74	0x3e6a2783	0.22866635
75	0x3e6d0b3a	0.23148814
76	0xbefbbbbe	-0.49166673
77	0x3e919dc1	0.2844067
78	0x3e98bcb9	0.29831484
79	0x3ee8124e	0.45326465
80	0x3e77c4c6	0.24196157
81	0x3e2ddcb9	0.1697873
82	0x3ebc879a	0.36822206
83	0xbd6aaae6	-0.057291888
84	0x3dac321f	0.08407997
85	0x3ea2c81e	0.31793302
86	0xbf5773b3	-0.8416092
87	0xbe66c0f1	-0.22534539
88	0x3e825f5d	0.2546338
89	0x3f379d3a	0.71724284
90	0xbe80c004	-0.25146496
91	0x3f1d0211	0.6133128
92	0x3e754f62	0.23956063
93	0xbdb0ed82	-0.08639051
94	0x3d808eea	0.06277259
95	0xbd7e4a6c	-0.062082693
96	0x3e144949	0.14481081
97	0xbf3ff9bf	-0.7499046
98	0xbe8c44b6	-0.27396172
99	0xbe226631	-0.15859295
100	0xbe6341f6	-0.22193131
101	0xbf6edc03	-0.9330446
102	0xbf135bc8	-0.5756192
103	0x3e26ee67	0.16301881
104	0xbe8bae5a	-0.27281457
105	0x3d922562	0.071360365
106	0xbef2ebd0	-0.47445536
107	0xbe9eb3df	-0.30996606
108	0x3e9e5aae	0.30928558
109	0xbe0e201a	-0.13879433
110	0x3eb59403	0.35464486
111	0x3f735b27	0.9506096
112	0xbd61946a	-0.05507318
113	0x3d1e0d95	0.03858717
114	0x3e01b96a	0.12668386
115	0x3f1b2989	0.6061025
116	0x3f029fba	0.51024973
117	0x3ee257c7	0.44207594
118	0x3ed0bb57	0.4076793
119	0xbe8fd505	-0.28092209
120	0x3f17c5e8	0.59286356
121	0x3dc5a762	0.09651066
122	0x3f260765	0.64855033
123	0xbc5e4d2b	-0.013568203
124	0xbf147114	-0.57985044
125	0xbd4856d7	-0.048910942
126	0xbc2f9085	-0.0107156085
127	0x3f0296e7	0.5101151
128	0xbdb32c8e	-0.087487325
129	0xbe693d27	-0.22777234
130	0x3e12669b	0.14296953
131	0xbf0387cb	-0.5137908
132	0x3e02f413	0.1278842
133	0x3ed80488	0.42190957
134	0xbf009ed5	-0.5024236
135	0x3e470f76	0.19439492
136	0x3ed56fac	0.4168676
137	0x3e479960	0.19492102
138	0xbef11530	-0.47086477
139	0xbebc397b	-0.36762604
140	0x3efc7a18	0.493119
141	0x3e6b2061	0.2296157
142	0x3ef3187f	0.47479627
143	0xbf26867d	-0.6504896
144	0x3f42f9db	0.761625
145	0x3e696c48	0.22795212
146	0xbdb8cd64	-0.0902355
147	0xbe8085b4	-0.25102007
148	0x3d0b2012	0.03396613
149	0x3f12727f	0.5720596
150	0xbe1b0450	-0.15138364
151	0xbe543c2a	-0.20726076
152	0xbed44ddb	-0.4146565
153	0xbf5ea74c	-0.86974025
154	0x3e3439df	0.17600201
155	0xbec10600	-0.3769989
156	0xbecdc17e	-0.40186685
157	0xbe187920	-0.14889956
158	0xbe6b7300	-0.22993088
159	0xbea9b46e	-0.3314547
160	0xbe8295a0	-0.2550478
161	0xbf1435e5	-0.57894737
162	0x3c9860d5	0.01860086
163	0xbe29f83a	-0.16598597
164	0xbd924647	-0.071423106
165	0xbe310c8e	-0.17289945
166	0xbf2708a5	-0.65247566
167	0xbf2cbd3d	-0.67476255
168	0xbe428fda	-0.19000188
169	0xbe47a407	-0.19496165
170	0xbb8ce6ba	-0.0042999657
171	0xbf5adfd2	-0.8549777
172	0x3e0ba500	0.13637161
173	0xbf0aca5a	-0.54215014
174	0xbe884e93	-0.26622447
175	0xbdade9b1	-0.08491839
176	0x3cd44a45	0.02591432
177	0xbeac38eb	-0.33637175
178	0x3cd7c7e5	0.026340434
179	0xbe6d4651	-0.23171355
180	0x3ed961a4	0.42457306
181	0x3ddf4cd6	0.10903327
182	0x3e4d38ef	0.2004125
183	0x3f2ca54e	0.67439735
184	0x3f0c40cd	0.5478638
185	0x3f02caca	0.5109068
186	0xbef02d3e	-0.46909517
187	0xbeed5aba	-0.4635828
188	0x3f43c3cc	0.7647064
189	0x3f259428	0.64679193
190	0xbcf847e6	-0.030307721
191	0xbe43ba05	-0.1911393
192	0xbd878c70	-0.06618583
193	0xbd47953e	-0.048726313
194	0xbe58a18c	-0.21155375
195	0x3e989350	0.2979989
196	0xbf3eceb8	-0.7453418
197	0x3da8504f	0.08218443
198	0x3e40a29c	0.1881203
199	0xbe35da4e	-0.17759058
200	0x3ed82887	0.4221842
201	0xbeaed69f	-0.34148118
202	0x3b9160b5	0.004436577
203	0xbec18ae4	-0.37801278
204	0xbf3ef1ae	-0.74587524
205	0x3def94b3	0.11698284
206	0x3dcc8be4	0.099876195
207	0x3f5ecec3	0.87034243
208	0xbdb6a9cb	-0.08919104
209	0x3eae0baf	0.3399329
210	0x3ee6f6a7	0.45110056
211	0xbe725c9c	-0.2366814
212	0xbd82262d	-0.06354938
213	0xbcbf0052	-0.023315582
214	0x3dcbb09a	0.099457934
215	0xbd4989f1	-0.049203817
216	0x3f039f02	0.514145
217	0xbf114b89	-0.5675588
218	0xbd90724f	-0.07053053
219	0x3ec24998	0.37946773
220	0xbe18997e	-0.14902303
221	0xbee0be6d	-0.43895283
222	0xbd78326a	-0.060594954
223	0x3d1ede5e	0.038786285
224	0x3f1f1337	0.62138695
225	0x3edbce36	0.42930764
226	0x3f094dc5	0.5363429
227	0x3f57f58f	0.8435907
228	0x3edcec73	0.43149146
229	0x3f0a5267	0.54031986
230	0x3e102397	0.14076076
231	0x3e06e201	0.13172151
232	0x3e195911	0.14975382
233	0x3f0f6709	0.56016594
234	0xbedfc2d3	-0.43703327
235	0xbee72cce	-0.4515137
236	0xbf12361b	-0.5711381
237	0x3e005d2a	0.1253554
238	0x3db5862f	0.08863484
239	0xbdccb96d	-0.09996305
240	0x3f67ac97	0.90497726
241	0xbe5b5caf	-0.21422075
242	0x3ecb7961	0.39741042
243	0x3b9846a8	0.0046470948
244	0x3ddca230	0.10773122
245	0xbd3a26d5	-0.04544719
246	0xbef8f5b6	-0.48624963
247	0x3f237e74	0.6386483
248	0x3c3e222d	0.011604828
249	0x3ef4b29f	0.47792527
250	0x3e9a2e7b	0.30113587
251	0x3f24f124	0.6443045
252	0xbe203ce7	-0.15648232
253	0x3f3358d1	0.700574
254	0x3c81f206	0.015862476
255	0xbf0e4156	-0.55568445

network_body._body_endoder.seq_layers.0.bias f4 [128]
0	0x00000000	0.0
1	0x00000000	0.0
2	0x00000000	0.0
3	0x00000000	0.0
4	0x00000000	0.0
5	0x00000000	0.0
6	0x00000000	0.0
7	0x00000000	0.0
8	0x00000000	0.0
9	0x00000000	0.0
10	0x00000000	0.0
11	0x00000000	0.0
12	0x00000000	0.0
13	0x00000000	0.0
14	0x00000000	0.0
15	0x00000000	0.0
16	0x00000000	0.0
17	0x00000000	0.0
18	0x00000000	0.0
19	0x00000000	0.0
20	0x00000000	0.0
21	0x00000000	0.0
22	0x00000000	0.0
23	0x00000000	0.0
24	0x00000000	0.0
25	0x00000000	0.0
26	0x00000000	0.0
27	0x00000000	0.0
28	0x00000000	0.0
29	0x00000000	0.0
30	0x00000000	0.0
31	0x00000000	0.0
32	0x00000000	0.0
33	0x00000000	0.0
34	0x00000000	0.0
35	0x00000000	0.0
36	0x00000000	0.0
37	0x00000000	0.0
38	0x00000000	0.0
39	0x00000000	0.0
40	0x00000000	0.0
41	0x00000000	0.0
42	0x00000000	0.0
43	0x00000000	0.0
44	0x00000000	0.0
45	0x00000000	0.0
46	0x00000000	0.0
47	0x00000000	0.0
48	0x00000000	0.0
49	0x00000000	0.0
50	0x00000000	0.0
51	0x00000000	0.0
52	0x00000000	0.0
53	0x00000000	0.0
54	0x00000000	0.0
55	0x00000000	0.0
56	0x00000000	0.0
57	0x00000000	0.0
58	0x00000000	0.0
59	0x00000000	0.0
60	0x00000000	0.0
61	0x00000000	0.0
62	0x00000000	0.0
63	0x00000000	0.0
64	0x00000000	0.0
65	0x00000000	0.0
66	0x00000000	0.0
67	0x00000000	0.0
68	0x00000000	0.0
69	0x00000000	0.0
70	0x00000000	0.0
71	0x00000000	0.0
72	0x00000000	0.0
73	0x00000000	0.0
74	0x00000000	0.0
75	0x00000000	0.0
76	0x00000000	0.0
77	0x00000000	0.0
78	0x00000000	0.0
79	0x00000000	0.0
80	0x00000000	0.0
81	0x00000000	0.0
82	0x00000000	0.0
83	0x00000000	0.0
84	0x00000000	0.0
85	0x00000000	0.0
86	0x00000000	0.0
87	0x00000000	0.0
88	0x00000000	0.0
89	0x00000000	0.0
90	0x00000000	0.0
91	0x00000000	0.0
92	0x00000000	0.0
93	0x00000000	0.0
94	0x00000000	0.0
95	0x00000000	0.0
96	0x00000000	0.0
97	0x00000000	0.0
98	0x00000000	0.0
99	0x00000000	0.0
100	0x00000000	0.0
101	0x00000000	0.0
102	0x00000000	0.0
103	0x00000000	0.0
104	0x00000000	0.0
105	0x00000000	0.0
106	0x00000000	0.0
107	0x00000000	0.0
108	0x00000000	0.0
109	0x00000000	0.0
110	0x00000000	0.0
111	0x00000000	0.0
112	0x00000000	0.0
113	0x00000000	0.0
114	0x00000000	0.0
115	0x00000000	0.0
116	0x00000000	0.0
117	0x00000000	0.0
118	0x00000000	0.0
119	0x00000000	0.0
120	0x00000000	0.0
121	0x00000000	0.0
122	0x00000000	0.0
123	0x00000000	0.0
124	0x00000000	0.0
125	0x00000000	0.0
126	0x00000000	0.0
127	0x00000000	0.0

network_body._body_endoder.seq_layers.2.weight f4 [128, 128]
0	0xbe9b58ce	-0.3034119
1	0x3d200666	0.039068602
2	0x3db34acc	0.08754501
3	0xbe254fee	-0.16143772
4	0x3c18fc4f	0.009337499
5	0x3d8e764d	0.06956158
6	0xbc94d545	-0.018168101
7	0xbcb029d3	-0.021504318
8	0x3d9fc674	0.07801524
9	0xbd218390	-0.03943211
10	0x3b2ea85d	0.0026650645
11	0xbd9a9851	-0.07548583
12	0xbce7bd3c	-0.028288476
13	0xbba68047	-0.00508121
14	0x3e09bc89	0.13450827
15	0xbd33242f	-0.04373568
16	0xbd9a00fb	-0.07519718
17	0x3d21e84f	0.039528187
18	0x3e17db5e	0.14829776
19	0x3d7189f9	0.05896947
20	0x3dcbf1b8	0.099582136
21	0xbdc10c61	-0.09426189
22	0x3e174873	0.14773731
23	0x3d5401bd	0.05175947
24	0xbe12a328	-0.14320052
25	0x3d8f0b51	0.0698458
26	0xbd070b9e	-0.032970063
27	0x3d1f175c	0.038840637
28	0xbd8f0cc3	-0.06984856
29	0x3d9308dd	0.07179425
30	0xbd086e10	-0.03330809
31	0xbd1e30ff	-0.038620945
32	0x3ca9b351	0.020715388
33	0xbd2a7bf9	-0.041622136
34	0x3d6c7f3a	0.05773852
35	0xbda0714a	-0.07834108
36	0xbda996d2	-0.0828072
37	0x3d68e26a	0.05685655
38	0x3d6eab43	0.058268797
39	0x3dbd24a3	0.092355035
40	0xbd5d955f	-0.05409753
41	0x3c66c9bd	0.014086184
42	0x3cd2e062	0.02574176
43	0x3d2e734e	0.042590432
44	0xbdaebdb0	-0.08532274
45	0xbdfe6394	-0.12421337
46	0xbd1bc614	-0.0380307
47	0xbe150f2d	-0.1455657
48	0x3cdc98d1	0.026928337
49	0xbd616981	-0.055032257
50	0x3cf85128	0.030312136
51	0x3e29a1af	0.16565584
52	0x3d953db3	0.07287159
53	0x3ccbda82	0.024884466
54	0xb9c3148f	-0.00037208616
55	0x3db3519e	0.087558016
56	0xbe0c5321	-0.13703586
57	0x3dd91676	0.10599987
58	0x3dabc90e	0.083879575
59	0xbe11e6a1	-0.14248134
60	0x3d4e3b34	0.05034943
61	0xbd4c1c73	-0.04983182
62	0x3ce074e6	0.027399492
63	0x3d341d5a	0.043973304
64	0xbd1ebb07	-0.038752582
65	0xbd9096e6	-0.070600316
66	0xbd504ab2	-0.050852485
67	0xbd3098ef	-0.0431146
68	0xbcc4b15c	-0.024010353
69	0x3e287477	0.16450678
70	0xbc93d778	-0.01804708
71	0x3e8039c0	0.2504406
72	0xbcb6ac1f	-0.02229887
73	0x3c32dad7	0.010916433
74	0x3e1d16c1	0.15340711
75	0x3cae593c	0.021282785
76	0x3d9901c2	0.074710384
77	0xbe120113	-0.14258222
78	0x3ced95ef	0.029002158
79	0xbdb6c6bc	-0.08924624
80	0xbce1d040	-0.027565122
81	0x3c271b53	0.010199386
82	0xbde38ae3	-0.11110475
83	0xbd45b5ee	-0.048269205
84	0xbd69e2f9	-0.057101224
85	0x3d1b8f68	0.03797856
86	0xbbd73a95	-0.006568263
87	0xbd75dc80	-0.06002474
88	0xbbba07dd	-0.005677207
89	0xbe130b2f	-0.14359735
90	0x3df1ff51	0.11816276
91	0xbd5e38e2	-0.054253466
92	0x3d661115	0.056168634
93	0xbd87d35c	-0.066321105
94	0xbd5c5f30	-0.053801715
95	0x3c27285a	0.010202492
96	0xbd56b067	-0.052414324
97	0xbd015e23	-0.031583916
98	0x3ccf6254	0.025315441
99	0x3db9b1c6	0.09067111
100	0xbd1fcf63	-0.03901614
101	0xbdf68f2f	-0.12039029
102	0xbdf5bc8b	-0.11998852
103	0xbc2997a6	-0.010351097
104	0x3df1b1fc	0.11801526
105	0xbd26d1e5	-0.040727515
106	0xbdbfa89a	-0.0935833
107	0x3e227da8	0.15868247
108	0xbc282173	-0.010261881
109	0x3d98ce56	0.074612305
110	0x3d9c1888	0.076218665
111	0xbdafc7f9	-0.08583064
112	0x3c16c943	0.009203258
113	0xbd33adca	-0.04386691
114	0xbbfbcc31	-0.0076842536
115	0xba9c3683	-0.0011918101
116	0x3bad0737	0.005280401
117	0xbd18611a	-0.03720198
118	0x3c343952	0.010999994
119	0xbdd3c397	-0.1034004
120	0xbdf18cb2	-0.117944136
121	0xbe773e48	-0.24144852
122	0xbe245018	-0.16046178
123	0xbdf077df	-0.117416136
124	0x3d272038	0.04080221
125	0xbd6fc210	-0.05853468
126	0xbdc83d7b	-0.097773515
127	0x3df459f1	0.119312175
128	0xbd75f8a0	-0.06005156
129	0x3ce3199f	0.027722178
130	0xbd14cf87	-0.036330726
131	0x3cc31c17	0.023817105
132	0xbe971b75	-0.29513136
133	0xbc07ce6b	-0.00828896
134	0x3d8e9495	0.069619335
135	0xbdb8ff28	-0.09033042
136	0x3df2730f	0.11838352
137	0xbe11f48d	-0.14253445
138	0xbd65d3ad	-0.056110073
139	0xbd8de475	-0.0692834
140	0xbb926dae	-0.0044686412
141	0x3e02a83b	0.12759487
142	0x3d8c00e4	0.068361074
143	0x3dd13470	0.1021508
144	0x3e28440b	0.16432206
145	0x3a6243f3	0.0008631341
146	0x3c93fbc9	0.018064396
147	0x3c3b7b74	0.011443008
148	0xbe33fa10	-0.1757586
149	0xbe4454ca	-0.1917297
150	0x3d446289	0.047945533
151	0xbcc27600	-0.023737907
152	0x3d8bcd7e	0.06826304
153	0xbd83d180	-0.06436443
154	0x3cb2a090	0.021805078
155	0x3e0fb053	0.14032106
156	0xbdad461a	-0.084606364
157	0xbab4817a	-0.0013771497
158	0x3dbbcee1	0.091703184
159	0x3d9857ef	0.07438647
160	0x3daa5d09	0.08318526
161	0x3e383307	0.17988215
162	0xbdcc8765	-0.09986762
163	0xbe0fc4ea	-0.1403996
164	0x3dd0cbff	0.10195159
165	0x3d8b9561	0.06815601
166	0x3d52407a	0.05133102
167	0xbb24b34f	-0.002513129
168	0x3d5d18c1	0.053978685
169	0xbe0a7dc2	-0.13524535
170	0xbd1c7334	-0.038195804
171	0xbdf5108c	-0.11966047
172	0x3da0b764	0.07847479
173	0x3cf6f606	0.03014661
174	0x3dac61bb	0.08417078
175	0x3dc94d4a	0.09829195
176	0xbc65790f	-0.014005913
177	0xbda98c96	-0.08278768
178	0x3e0a33ca	0.13496318
179	0x3dc0831f	0.09400009
180	0xbddf540a	-0.10904701
181	0xbd8b1547	-0.06791168
182	0xbd2361b2	-0.03988809
183	0x3e138d80	0.14409447
184	0xbd83da54	-0.06438127
185	0xbdea94f4	-0.11454192
186	0x3d07e593	0.033177923
187	0x3daaae62	0.08334042
188	0x3e26cd3f	0.16289233
189	0xba407fab	-0.0007343243
190	0x3da97e9a	0.082761005
191	0x3dc4c9ae	0.0960878
192	0xbe1eeade	-0.15519282
193	0x3e1f74c6	0.1557189
194	0xbe02d852	-0.12777832
195	0xbd6aae14	-0.05729492
196	0x3d312961	0.043252353
197	0xbd936600	-0.07197189
198	0xbcae7bc2	-0.021299247
199	0x3d52bd76	0.051450215
200	0xbe1521ab	-0.14563625
201	0xbc6f8525	-0.0146191465
202	0x3de8bdea	0.11364348
203	0xbe18098d	-0.14847393
204	0x3e001e5d	0.12511583
205	0xbddc11f0	-0.10745609
206	0xbd353185	-0.04423668
207	0xbe7c0eeb	-0.24615066
208	0x3dd2f75a	0.10301085
209	0xbc115d39	-0.008872324
210	0x3b17a09d	0.0023136504
211	0xbd92b39a	-0.071631625
212	0xbdf33852	-0.118759766
213	0x3d0aeef0	0.033919275
214	0xbb8da91d	-0.0043231384
215	0xbd6092a7	-0.05482736
216	0x3dc11eac	0.09429678
217	0xbe21acb7	-0.15788542
218	0x3cd833cd	0.026391888
219	0x3dbbdf9e	0.09173511
220	0x3e1f907c	0.1558246
221	0x3d07d914	0.033166006
222	0xbd102536	-0.035191737
223	0xbdef84c6	-0.116952464
224	0x3dcd7f53	0.10034051
225	0xbe16e6eb	-0.14736526
226	0x3ced94cd	0.029001618
227	0x3d59103c	0.052993998
228	0xbd11eb95	-0.03562506
229	0x3e11443d	0.14186187
230	0x3d81b57a	0.06333442
231	0x3d004184	0.03131248
232	0x3de0ee14	0.1098291
233	0x3d37c1ac	0.044862434
234	0xbe1db9ad	-0.15402861
235	0x3d08df4b	0.033416074
236	0xb969c7c7	-0.00022295034
237	0x3d9791a7	0.07400828
238	0xbd846675	-0.06464855
239	0xbc1e8a17	-0.009676478
240	0x3d4b17af	0.049583133
241	0x3b20e71e	0.002455182
242	0xbda0a472	-0.078438655
243	0x3bd4f582	0.0064989934
244	0x3c0be00f	0.008537306
245	0x3d61a5fd	0.05508994
246	0xbdf44484	-0.11927131
247	0x3df5f9ef	0.12010562
248	0xbb853d53	-0.0040661483
249	0xbc630ca3	-0.013857993
250	0xbd0f5c41	-0.03500009
251	0x3db258be	0.087083325
252	0x3cfbdbfa	0.030744541
253	0xbdf265f6	-0.11835854
254	0x3ca12d4f	0.019674925
255	0xbd378b7e	-0.044810764

network_body._body_endoder.seq_layers.2.bias f4 [128]
0	0x00000000	0.0
1	0x00000000	0.0
2	0x00000000	0.0
3	0x00000000	0.0
4	0x00000000	0.0
5	0x00000000	0.0
6	0x00000000	0.0
7	0x00000000	0.0
8	0x00000000	0.0
9	0x00000000	0.0
10	0x00000000	0.0
11	0x00000000	0.0
12	0x00000000	0.0
13	0x00000000	0.0
14	0x00000000	0.0
15	0x00000000	0.0
16	0x00000000	0.0
17	0x00000000	0.0
18	0x00000000	0.0
19	0x00000000	0.0
20	0x00000000	0.0
21	0x00000000	0.0
22	0x00000000	0.0
23	0x00000000	0.0
24	0x00000000	0.0
25	0x00000000	0.0
26	0x00000000	0.0
27	0x00000000	0.0
28	0x00000000	0.0
29	0x00000000	0.0
30	0x00000000	0.0
31	0x00000000	0.0
32	0x00000000	0.0
33	0x00000000	0.0
34	0x00000000	0.0
35	0x00000000	0.0
36	0x00000000	0.0
37	0x00000000	0.0
38	0x00000000	0.0
39	0x00000000	0.0
40	0x00000000	0.0
41	0x00000000	0.0
42	0x00000000	0.0
43	0x00000000	0.0
44	0x00000000	0.0
45	0x00000000	0.0
46	0x00000000	0.0
47	0x00000000	0.0
48	0x00000000	0.0
49	0x00000000	0.0
50	0x00000000	0.0
51	0x00000000	0.0
52	0x00000000	0.0
53	0x00000000	0.0
54	0x00000000	0.0
55	0x00000000	0.0
56	0x00000000	0.0
57	0x00000000	0.0
58	0x00000000	0.0
59	0x00000000	0.0
60	0x00000000	0.0
61	0x00000000	0.0
62	0x00000000	0.0
63	0x00000000	0.0
64	0x00000000	0.0
65	0x00000000	0.0
66	0x00000000	0.0
67	0x00000000	0.0
68	0x00000000	0.0
69	0x00000000	0.0
70	0x00000000	0.0
71	0x00000000	0.0
72	0x00000000	0.0
73	0x00000000	0.0
74	0x00000000	0.0
75	0x00000000	0.0
76	0x00000000	0.0
77	0x00000000	0.0
78	0x00000000	0.0
79	0x00000000	0.0
80	0x00000000	0.0
81	0x00000000	0.0
82	0x00000000	0.0
83	0x00000000	0.0
84	0x00000000	0.0
85	0x00000000	0.0
86	0x00000000	0.0
87	0x00000000	0.0
88	0x00000000	0.0
89	0x00000000	0.0
90	0x00000000	0.0
91	0x00000000	0.0
92	0x00000000	0.0
93	0x00000000	0.0
94	0x00000000	0.0
95	0x00000000	0.0
96	0x00000000	0.0
97	0x00000000	0.0
98	0x00000000	0.0
99	0x00000000	0.0
100	0x00000000	0.0
101	0x00000000	0.0
102	0x00000000	0.0
103	0x00000000	0.0
104	0x00000000	0.0
105	0x00000000	0.0
106	0x00000000	0.0
107	0x00000000	0.0
108	0x00000000	0.0
109	0x00000000	0.0
110	0x00000000	0.0
111	0x00000000	0.0
112	0x00000000	0.0
113	0x00000000	0.0
114	0x00000000	0.0
115	0x00000000	0.0
116	0x00000000	0.0
117	0x00000000	0.0
118	0x00000000	0.0
119	0x00000000	0.0
120	0x00000000	0.0
121	0x00000000	0.0
122	0x00000000	0.0
123	0x00000000	0.0
124	0x00000000	0.0
125	0x00000000	0.0
126	0x00000000	0.0
127	0x00000000	0.0

action_model._continuous_distribution.log_sigma f4 [1, 2]
0	0x00000000	0.0
1	0x00000000	0.0

action_model._continuous_distribution.mu.weight f4 [2, 128]
0	0xbd25a561	-0.04044092
1	0xb8c6e064	-9.483172e-05
2	0xbcb7bbbb	-0.022428384
3	0x3d4088ab	0.047005337
4	0xbc24af2f	-0.010051533
5	0x3c7d8190	0.015472785
6	0x3cf09998	0.029370114
7	0x3b73f768	0.0037226323
8	0x3c9feaab	0.019521078
9	0xbc9984fc	-0.01874017
10	0xbc1d27b2	-0.009591984
11	0xbad1abba	-0.0015996613
12	0xbc6a0368	-0.014283039
13	0xbbd4357d	-0.006476103
14	0x3c84bda7	0.016203715
15	0x3c0a4208	0.008438595
16	0xbc7db21b	-0.015484358
17	0xbbfa12ba	-0.007631627
18	0x3b730f35	0.0037087922
19	0xbbc034b0	-0.005865656
20	0xbc37f15c	-0.011226978
21	0xbcfffaca	-0.031247515
22	0x3cc7437b	0.02432417
23	0x3ca698fc	0.02033662
24	0x3c558d8a	0.013034234
25	0xbcc2f9c5	-0.02380074
26	0x3bb76f39	0.0055979756
27	0x3c0c242c	0.008553546
28	0x3ca56538	0.020189866
29	0xbb98a3a7	-0.0046581808
30	0x3c0d6b0b	0.008631478
31	0xbc559303	-0.013035539
32	0xbcc7b84c	-0.024379872
33	0x3b46a0cb	0.0030308242
34	0xbcc3ad14	-0.023886241
35	0xbbe84223	-0.0070879622
36	0x3cc0065d	0.023440534
37	0xbc92ad7b	-0.017904988
38	0x3d395737	0.04524919
39	0x3c17959f	0.009251981
40	0x3cfae7b7	0.030628068
41	0x3b33072b	0.0027317505
42	0x3ca31ae7	0.019910289
43	0x3cae8c0f	0.02130702
44	0x3c900bb0	0.017583698
45	0xbc520ff8	-0.01282119
46	0xbbb3210e	-0.005466587
47	0x3c3ef384	0.011654738
48	0x3c9e9cef	0.019361941
49	0xbaf1d4e8	-0.0018450292
50	0x3c48c572	0.012254106
51	0x3d202eb7	0.03910705
52	0x3bce4ca0	0.0062957555
53	0xbc901c4f	-0.017591624
54	0xbd055598	-0.03255233
55	0x3b9acfb3	0.0047244667
56	0xbc53f6cf	-0.012937262
57	0x3bb19eab	0.005420526
58	0xbd30320e	-0.043016486
59	0x3a0aedef	0.0005299737
60	0x3c5b93ff	0.013401984
61	0xbc8907bf	-0.016727326
62	0x3b061141	0.0020457061
63	0xbbc93d30	-0.0061413273
64	0x3c4ca297	0.012489936
65	0xbc314fc6	-0.010822242
66	0xbc947283	-0.01812101
67	0x3ae5434b	0.0017491368
68	0xbc97c315	-0.01852564
69	0x3c8c7a26	0.017148089
70	0x3b9697af	0.004595719
71	0x3c7bdfa7	0.015373147
72	0x3ca5e133	0.020248985
73	0xbc64425b	-0.013931836
74	0xbc2a8cd7	-0.010409555
75	0xbc340e40	-0.010989726
76	0xbcb9dac4	-0.022687323
77	0x3cdea0c8	0.027176276
78	0xbc8b79f4	-0.017025925
79	0xbce664aa	-0.028124172
80	0xbcda1f9a	-0.026626397
81	0xbcc79c7c	-0.02436661
82	0x3c3c590b	0.011495839
83	0xbc29ef13	-0.010371941
84	0x3c913df8	0.017729744
85	0x3cc3f8b7	0.023922307
86	0x3c3305df	0.010926693
87	0x3d503922	0.050835736
88	0x3bead8d2	0.0071669603
89	0x39cd67c3	0.00039177955
90	0xbc6a01fb	-0.014282699
91	0x3c9ceb6e	0.01915523
92	0xbbc6c76d	-0.006066254
93	0x3aa67223	0.001269881
94	0x3c19d964	0.009390209
95	0x3ba4be2b	0.0050275526
96	0x3b84f87e	0.004057943
97	0x3c23e64f	0.01000364
98	0x3c59cfd2	0.013294177
99	0x3c9012ad	0.01758703
100	0x3cada8b2	0.021198604
101	0xbd156f96	-0.03648337
102	0xbc91dc25	-0.017805168
103	0xbc99681c	-0.018726401
104	0xbba8a165	-0.005146193
105	0xbae35340	-0.0017343536
106	0x3cbf856a	0.023379046
107	0x3c759445	0.0149889635
108	0x3cbccc1f	0.023046551
109	0x3ca0e53d	0.01964056
110	0xbcbab2c7	-0.022790326
111	0xbc0eb0d7	-0.008709154
112	0x3b9bc5ea	0.004753818
113	0xbd1ed248	-0.03877476
114	0xbba52adc	-0.0050405096
115	0x3b14b257	0.0022689307
116	0x3a3195cd	0.0006774336
117	0xbc9fb373	-0.019494748
118	0x3be8c035	0.007102991
119	0x3bd76e68	0.0065744407
120	0x3c51f62d	0.012815041
121	0xbb1e8237	-0.00241865
122	0x3c5f63af	0.013634606
123	0xbc682a32	-0.014170216
124	0xbc788bd7	-0.015170059
125	0xbaf518f7	-0.0018699457
126	0x3bae2d53	0.0053154617
127	0x3c61dcda	0.013785565
128	0xbb9a75df	-0.0047137584
129	0x3c2e6bb7	0.010645798
130	0xbaa9b943	-0.0012948889
131	0x39c09dfa	0.00036738795
132	0xbcb552ab	-0.022134146
133	0x3bfa106d	0.0076313526
134	0x3b27fc18	0.0025632437
135	0xbc5bb845	-0.0134106325
136	0xbc408d6d	-0.0117524685
137	0x3b7ebae8	0.003886873
138	0xbcfac872	-0.030613158
139	0xbc76e9ab	-0.015070359
140	0x3aa727d0	0.0012752954
141	0xbbd6508f	-0.006540365
142	0xb9a1158f	-0.00030724375
143	0xbd1f83fd	-0.038944233
144	0xbd09221f	-0.033479806
145	0x3b57143b	0.0032818455
146	0x3b923388	0.0044617094
147	0x3cbd4698	0.02310495
148	0xbaff6d15	-0.0019487465
149	0xbc8d516c	-0.017250739
150	0x3d46f18d	0.048570205
151	0xbc052b77	-0.008128039
152	0x3b88d556	0.0041758223
153	0x3c30de17	0.010795138
154	0xbc23b7a0	-0.00999251
155	0x3d0ec96e	0.034860067
156	0x3b0ed5b0	0.0021794848
157	0x3aa9e8ae	0.0012963021
158	0xbc8e8df9	-0.017401682
159	0x3c1297cb	0.008947323
160	0xbd066bc3	-0.032817613
161	0xbc82dede	-0.015975412
162	0x3a2f5106	0.00066877936
163	0x3c16684a	0.009180138
164	0x3c84d000	0.016212463
165	0x3c5269e8	0.012842633
166	0x3be7542f	0.007059596
167	0xbc77384a	-0.015089104
168	0x3ad4a610	0.0016223807
169	0xbd085eb1	-0.03329343
170	0x3a3447d2	0.0006877157
171	0xbc7e4f3a	-0.015521819
172	0xbd37662b	-0.04477517
173	0xbb279987	-0.0025573687
174	0xbb95cfd7	-0.0045718956
175	0x3bc19982	0.005908192
176	0x3cbf4a3f	0.023350833
177	0xbc7f5a90	-0.015585557
178	0x3c8a49c7	0.016880883
179	0x3cb97b03	0.022641664
180	0xbb2c2077	-0.0026264468
181	0xbc65252f	-0.013985916
182	0x3b1b40e5	0.0023689803
183	0xbb7e8795	-0.0038838137
184	0xbcc3e9dd	-0.023915226
185	0x3b9d43f6	0.0047993613
186	0xbb2516fa	-0.0025190697
187	0x3ce12ca0	0.0274871
188	0x3b2880e7	0.0025711597
189	0x3c9e5d3e	0.01933157
190	0xbbf345bd	-0.007424085
191	0xbc2ffc70	-0.010741338
192	0x3cd434c3	0.025904065
193	0x3b07fc6f	0.0020749827
194	0x3cc765ee	0.024340596
195	0x3ca39de7	0.019972755
196	0x3b340330	0.002746772
197	0x3c7b60a5	0.015342866
198	0x3c8d0d0e	0.017218139
199	0xbc03c4df	-0.008042543
200	0xbc22e967	-0.009943343
201	0xbbb2497c	-0.005440889
202	0x3ca2d103	0.019875055
203	0x3c3fec1b	0.011714007
204	0x3c15a08c	0.009132516
205	0x3d435aa5	0.047693867
206	0x3bcdbeda	0.006278855
207	0xbc89556f	-0.01676437
208	0x3c32bb53	0.010908919
209	0xbb007882	-0.0019603078
210	0xbc427d6a	-0.011870721
211	0xbc805f25	-0.015670368
212	0xbcb34ab2	-0.021886203
213	0x3d11be5e	0.03558194
214	0xbc73ec8f	-0.014887943
215	0x3cb7e3e3	0.022447532
216	0x3c5984b2	0.013276266
217	0x3cdeadcd	0.027182484
218	0xbc493354	-0.012280304
219	0xbc247f16	-0.010040065
220	0xbc2aec2f	-0.010432287
221	0xbcf0b19a	-0.029381562
222	0x3d030697	0.031988706
223	0x3a83880c	0.0010035052
224	0xbc69f530	-0.014279649
225	0xbcbe952f	-0.023264496
226	0x3c87543b	0.016519656
227	0x3b3f1737	0.0029158124
228	0xbd0b783d	-0.034050215
229	0xbce8eca3	-0.02843315
230	0xbcc57521	-0.024103703
231	0xbceaf5af	-0.028681604
232	0x3c190edb	0.009341921
233	0x3abb504b	0.0014290897
234	0xbc1eac5d	-0.009684649
235	0x3c1eca0a	0.009691725
236	0xbc892718	-0.016742274
237	0xbc0be630	-0.008538768
238	0xbbec1e63	-0.007205771
239	0xbc8c1955	-0.017101923
240	0xbc8a08e7	-0.016849948
241	0xbb0f20ab	-0.002183954
242	0xbc79fb32	-0.015257644
243	0xbbbf474d	-0.005837357
244	0x3bb29476	0.005449827
245	0xbce02758	-0.02736251
246	0xbd081c38	-0.033230036
247	0xbb61bdb0	-0.0034445338
248	0xbc0a3dd0	-0.008437589
249	0xbca8b3e5	-0.020593593
250	0x3cd22247	0.02565111
251	0x3cf54eba	0.029944766
252	0x3cd5f5e8	0.026118234
253	0xbbec9d5f	-0.0072209085
254	0x3cfb1c38	0.030653104
255	0xbcb3023b	-0.02185165

action_model._continuous_distribution.mu.bias f4 [2]
0	0x00000000	0.0
1	0x00000000	0.0

network_body._body_endoder.seq_layers.0.weight f4 [128, 6]
0	0xbe55d99d	-0.20883794
1	0x3edb927e	0.42885202
2	0xbc851a54	-0.016247906
3	0x3e656dff	0.22405241
4	0xbd0e5046	-0.034744523
5	0x3f536982	0.8258287
6	0xbaac2319	-0.0013133019
7	0xbe9fbb09	-0.31197384
8	0x3e1aebbc	0.15128988
9	0xbf2b29cb	-0.66860646
10	0xbe80dabf	-0.2516689
11	0x3d95c465	0.0731285
12	0x3e5ad9e0	0.21372175
13	0xbed140e8	-0.40869832
14	0x3e366a70	0.1781404
15	0xbec66674	-0.3875004
16	0x3e9f3fe1	0.31103423
17	0x3e57e313	0.21082716
18	0x3dd3b79b	0.10337754
19	0xbefce864	-0.4939605
20	0x3ec3881e	0.38189787
21	0x3d18d522	0.037312634
22	0xbf434d82	-0.7629014
23	0xbe2b7e5b	-0.1674742
24	0xbecbc98b	-0.39802203
25	0xbed71758	-0.42009997
26	0xbede986a	-0.43475658
27	0xbcac7fd7	-0.021057053
28	0x3bd595fa	0.0065181227
29	0x3eb2c0b1	0.34912637
30	0x3ec88046	0.39160365
31	0xbe856c82	-0.26059347
32	0xbe34dd5d	-0.17662568
33	0x3f04e3a1	0.51909834
34	0x3e1ce79a	0.15322724
35	0xbe986878	-0.29767203
36	0xbf6ae75a	-0.91759264
37	0xbe88c7d1	-0.26714948
38	0x3eb13269	0.34608772
39	0x3ba55a9f	0.0050462033
40	0xbe214435	-0.15748675
41	0xbead577c	-0.33855808
42	0xbe91db87	-0.284878
43	0xbe5bf842	-0.21481422
44	0xbe25b974	-0.16184026
45	0x3f19d696	0.6009306
46	0xbeaed232	-0.3414474
47	0x3e7e50e7	0.2483555
48	0xbe9b6787	-0.30352423
49	0x3ea4ecdc	0.3221196
50	0xbe54161c	-0.20711559
51	0x3e3cdd09	0.18443693
52	0xbe0066a7	-0.12539159
53	0xbdf1d401	-0.11808015
54	0xbc82b85a	-0.015957046
55	0xbe0d6cf6	-0.13811097
56	0xbe068832	-0.13137892
57	0x3ea12583	0.31473932
58	0x3d4aa8d8	0.04947743
59	0xbe7bc8bb	-0.24588291
60	0xbed1574a	-0.4088691
61	0xbda0ad8d	-0.07845602
62	0xbdc37686	-0.09544091
63	0x3eab9cdb	0.3351811
64	0xbed3760b	-0.41300997
65	0xbef4fb3f	-0.47847936
66	0xbf33b1a1	-0.70192915
67	0x3ac113a7	0.0014730588
68	0x3ed17d40	0.4091587
69	0xbf188333	-0.59575194
70	0x3e3feee6	0.18743476
71	0xbf461a6c	-0.77384067
72	0xbe4d7f1f	-0.20068024
73	0x3e2a83f2	0.16651896
74	0xbd8bace1	-0.068200834
75	0xbe7866ba	-0.24257937
76	0xbf30d456	-0.69074
77	0x3d4b1ff4	0.04959102
78	0x3ede4f40	0.43419838
79	0xbd8fd69d	-0.07023356
80	0x3ea4b2fb	0.321678
81	0xbe7e0da8	-0.24809897
82	0xbe82f32f	-0.2557616
83	0x3f1b312b	0.606219
84	0x3f34c232	0.7060882
85	0x3e9f44be	0.31107134
86	0x3e9245a7	0.28568766
87	0x3f479a78	0.77970076
88	0x3da948c7	0.08265834
89	0xbe39dffa	-0.18151847
90	0x3e829ec8	0.25511765
91	0x3dd71430	0.10501897
92	0x3e5e395f	0.21701573
93	0x3e5926cd	0.21206208
94	0x3e82de26	0.2556011
95	0xbd8ab850	-0.06773436
96	0xbe476ebf	-0.1947584
97	0xbef44e9b	-0.4771622
98	0xbe97f11f	-0.29676148
99	0x3dcc8b86	0.099875495
100	0xbf50e4ed	-0.81599313
101	0xbebd63f5	-0.36990324
102	0x3ece1077	0.40246937
103	0xbd45740f	-0.048206385
104	0xbf75ba32	-0.95987236
105	0x3ea49a01	0.32148746
106	0x3cec1554	0.028818764
107	0x3f5520fd	0.8325346
108	0x3e985691	0.29753545
109	0xbf0c423e	-0.5478858
110	0x3ed40843	0.41412553
111	0xbf0aaab9	-0.5416675
112	0x3e542a3e	0.20719239
113	0xbed04f56	-0.4068553
114	0x3eaef553	0.34171543
115	0xbe2d0e18	-0.16899908
116	0xbeedf9f8	-0.46479774
117	0xbe1230dc	-0.14276451
118	0x3ec3b926	0.38227195
119	0x3eb06660	0.34453106
120	0x3d7ab0db	0.06120382
121	0xbd64315c	-0.055711135
122	0xbf07ad48	-0.5299878
123	0x3cd89558	0.0264384
124	0x3d485670	0.04891056
125	0xbee9696c	-0.45588243
126	0x3e7dee2d	0.24797888
127	0xbe58369b	-0.2111458
128	0x3ea005e1	0.31254485
129	0xbe697b9a	-0.22801057
130	0x3ebe21f4	0.3713528
131	0x3e5290b4	0.20563012
132	0xbef33f69	-0.47509316
133	0xbcca19e9	-0.024670558
134	0x3f198325	0.59965736
135	0x3e012244	0.12610728
136	0x3eb2974c	0.34881055
137	0x3f19b754	0.6004536
138	0x3f0d0303	0.5508272
139	0x3d829ed9	0.06377954
140	0xbee217ef	-0.44158885
141	0xbef881d5	-0.48536554
142	0xbf80e899	-1.0070983
143	0x3e31010e	0.17285559
144	0xbe84ff90	-0.2597623
145	0xbcb7c4c9	-0.022432702
146	0x3ead4a67	0.33845827
147	0xbf0abd06	-0.54194677
148	0x3d5bb6ed	0.05364125
149	0xbee778d4	-0.45209372
150	0x3eed1661	0.46306136
151	0xbde776fa	-0.1130199
152	0xbc8ec73e	-0.01742899
153	0xbeed0467	-0.4629242
154	0xbd3454c3	-0.044026148
155	0xbf82adc0	-1.0209274
156	0xbf350573	-0.7071144
157	0x3ea3e428	0.32010007
158	0x3e7184b7	0.23585783
159	0x3cbb08fc	0.022831433
160	0x3f29e95c	0.66371703
161	0xbc044a08	-0.008074291
162	0x3d7e9ec8	0.062163144
163	0xbe6cddd4	-0.23131496
164	0xbef37da3	-0.4755679
165	0x3e0ef6e9	0.13961376
166	0x3ecec934	0.4038788
167	0xbf22a09d	-0.63526326
168	0x3dd3f02e	0.10348545
169	0x3c948186	0.018128168
170	0xb9e7972d	-0.00044172388
171	0x3e96e599	0.29472044
172	0x3e042759	0.12905635
173	0x3ed4a50b	0.41532168
174	0x3eac2a14	0.33625853
175	0xbe85b76b	-0.261165
176	0xbe17eddf	-0.14836834
177	0xbe019328	-0.12653792
178	0xbe97a69a	-0.29619294
179	0x3d399c3e	0.04531502
180	0xbb8aef2b	-0.004239937
181	0xbe6e8952	-0.23294571
182	0x3e833418	0.25625682
183	0xbe6ebe13	-0.23314695
184	0xbb8a092f	-0.0042125206
185	0xbeb79df1	-0.35862687
186	0x3f10859e	0.56453884
187	0x3e0b79ef	0.13620733
188	0x3ec91999	0.39277342
189	0xbe0ebb0d	-0.13938542
190	0xbefe3c9e	-0.49655622
191	0xbddc6c66	-0.10762863
192	0xbf88754f	-1.06608
193	0xbe8819b5	-0.26582113
194	0xbe27c3c7	-0.16383277
195	0x3d15c601	0.036565784
196	0x3e442a29	0.19156708
197	0x3e9c64e5	0.30545726
198	0x3ebf50e3	0.373664
199	0xbe3269b0	-0.17423129
200	0x3da2e17f	0.07953166
201	0x3f2b691f	0.6695728
202	0xbda82e44	-0.082119495
203	0xbd8f9205	-0.07010273
204	0xbea3a478	-0.31961417
205	0x3ebd25a4	0.3694278
206	0x3f7129de	0.9420451
207	0xbe079093	-0.13238744
208	0x3ea8914c	0.32923353
209	0xbe3601c8	-0.17774117
210	0xbdac1d98	-0.08404082
211	0x3dd771b7	0.10519736
212	0x3e87b180	0.2650261
213	0x3ed4d007	0.41564962
214	0x3f0bf1e1	0.5466595
215	0xbdbb44b9	-0.09143967
216	0x3c8a8d26	0.016913008
217	0x3dd509de	0.10402273
218	0x3e086a06	0.13321695
219	0x3eac4339	0.33645037
220	0x3f213fe7	0.6298813
221	0xbe946b10	-0.28987932
222	0x3d6423aa	0.055698074
223	0xbf474187	-0.7783436
224	0x3f50403f	0.8134803
225	0xbe5bf5bc	-0.21480459
226	0xbc52ada4	-0.012858782
227	0x3e875979	0.2643545
228	0xbe03894c	-0.12845343
229	0xbf0064b7	-0.5015368
230	0x3ed2a582	0.41141897
231	0xbda99f13	-0.08282294
232	0x3f0aaa35	0.54165965
233	0xbe262ee3	-0.16228823
234	0x3f37ad0a	0.7174841
235	0xbeecf85d	-0.46283236
236	0xbe843dc6	-0.2582838
237	0x3dd37d28	0.10326606
238	0x3ed4ec91	0.41586736
239	0xbefba073	-0.4914585
240	0x3eeeffe0	0.46679592
241	0x3ee0b124	0.43885148
242	0xbf0727a9	-0.5279489
243	0xbde571cc	-0.11203346
244	0x3dc4d153	0.09610238
245	0x3e96dfaa	0.29467517
246	0xbefae796	-0.4900481
247	0xbe7187e1	-0.2358699
248	0x3d89c9ad	0.0672792
249	0x3d90c39c	0.070685595
250	0x3f47b05a	0.78003466
251	0x3c3dae5f	0.011577218
252	0xbddc48c1	-0.10756064
253	0xbeb7ff06	-0.35936755
254	0xbdce519c	-0.100741595
255	0xbe755748	-0.23959076

network_body._body_endoder.seq_layers.0.bias f4 [128]
0	0x00000000	0.0
1	0x00000000	0.0
2	0x00000000	0.0
3	0x00000000	0.0
4	0x00000000	0.0
5	0x00000000	0.0
6	0x00000000	0.0
7	0x00000000	0.0
8	0x00000000	0.0
9	0x00000000	0.0
10	0x00000000	0.0
11	0x00000000	0.0
12	0x00000000	0.0
13	0x00000000	0.0
14	0x00000000	0.0
15	0x00000000	0.0
16	0x00000000	0.0
17	0x00000000	0.0
18	0x00000000	0.0
19	0x00000000	0.0
20	0x00000000	0.0
21	0x00000000	0.0
22	0x00000000	0.0
23	0x00000000	0.0
24	0x00000000	0.0
25	0x00000000	0.0
26	0x00000000	0.0
27	0x00000000	0.0
28	0x00000000	0.0
29	0x00000000	0.0
30	0x00000000	0.0
31	0x00000000	0.0
32	0x00000000	0.0
33	0x00000000	0.0
34	0x00000000	0.0
35	0x00000000	0.0
36	0x00000000	0.0
37	0x00000000	0.0
38	0x00000000	0.0
39	0x00000000	0.0
40	0x00000000	0.0
41	0x00000000	0.0
42	0x00000000	0.0
43	0x00000000	0.0
44	0x00000000	0.0
45	0x00000000	0.0
46	0x00000000	0.0
47	0x00000000	0.0
48	0x00000000	0.0
49	0x00000000	0.0
50	0x00000000	0.0
51	0x00000000	0.0
52	0x00000000	0.0
53	0x00000000	0.0
54	0x00000000	0.0
55	0x00000000	0.0
56	0x00000000	0.0
57	0x00000000	0.0
58	0x00000000	0.0
59	0x00000000	0.0
60	0x00000000	0.0
61	0x00000000	0.0
62	0x00000000	0.0
63	0x00000000	0.0
64	0x00000000	0.0
65	0x00000000	0.0
66	0x00000000	0.0
67	0x00000000	0.0
68	0x00000000	0.0
69	0x00000000	0.0
70	0x00000000	0.0
71	0x00000000	0.0
72	0x00000000	0.0
73	0x00000000	0.0
74	0x00000000	0.0
75	0x00000000	0.0
76	0x00000000	0.0
77	0x00000000	0.0
78	0x00000000	0.0
79	0x00000000	0.0
80	0x00000000	0.0
81	0x00000000	0.0
82	0x00000000	0.0
83	0x00000000	0.0
84	0x00000000	0.0
85	0x00000000	0.0
86	0x00000000	0.0
87	0x00000000	0.0
88	0x00000000	0.0
89	0x00000000	0.0
90	0x00000000	0.0
91	0x00000000	0.0
92	0x00000000	0.0
93	0x00000000	0.0
94	0x00000000	0.0
95	0x00000000	0.0
96	0x00000000	0.0
97	0x00000000	0.0
98	0x00000000	0.0
99	0x00000000	0.0
100	0x00000000	0.0
101	0x00000000	0.0
102	0x00000000	0.0
103	0x00000000	0.0
104	0x00000000	0.0
105	0x00000000	0.0
106	0x00000000	0.0
107	0x00000000	0.0
108	0x00000000	0.0
109	0x00000000	0.0
110	0x00000000	0.0
111	0x00000000	0.0
112	0x00000000	0.0
113	0x00000000	0.0
114	0x00000000	0.0
115	0x00000000	0.0
116	0x00000000	0.0
117	0x00000000	0.0
118	0x00000000	0.0
119	0x00000000	0.0
120	0x00000000	0.0
121	0x00000000	0.0
122	0x00000000	0.0
123	0x00000000	0.0
124	0x00000000	0.0
125	0x00000000	0.0
126	0x00000000	0.0
127	0x00000000	0.0

network_body._body_endoder.seq_layers.2.weight f4 [128, 128]
0	0xbda65a4a	-0.0812269
1	0xbd1aa640	-0.037756205
2	0x3dda0565	0.1064556
3	0xbd50bd6c	-0.050961897
4	0x3a84cce8	0.0010131868
5	0xbe10404b	-0.14087026
6	0xbd8e265a	-0.06940909
7	0xbc8dad86	-0.017294656
8	0xbd8698c3	-0.06572106
9	0xbd73753a	-0.059437968
10	0x3d71a2db	0.0589932
11	0x3cfd7818	0.030941054
12	0xbe71c6db	-0.23611014
13	0xbd32e4e3	-0.043675315
14	0xbdbb4381	-0.09143735
15	0x3df48d6a	0.11941035
16	0xbe10f609	-0.14156355
17	0x3d859f19	0.06524486
18	0xbc750207	-0.014954097
19	0xbe41e03c	-0.18933195
20	0xbbf08b6d	-0.0073408396
21	0x3e218990	0.15775132
22	0xbd0c3c5e	-0.034237258
23	0xbd0acc05	-0.033885974
24	0xbc02d0c4	-0.007984344
25	0x3cc22241	0.023697974
26	0xbd0bbc85	-0.034115333
27	0xbe117175	-0.14203437
28	0xbd18db4b	-0.03731851
29	0xbd14fa52	-0.036371537
30	0x3de13059	0.1099555
31	0xbd0b4525	-0.03400149
32	0x3cdf3aac	0.027249657
33	0x3df6d02b	0.12051424
34	0xbd38209e	-0.04495298
35	0x3d0d798e	0.03453975
36	0xbd98cb4d	-0.074606515
37	0x3dd16517	0.102243595
38	0x3e1ed0c9	0.15509333
39	0x3daafd97	0.0834915
40	0xbda370f9	-0.07980532
41	0x3d10d327	0.03535762
42	0xbe9105c5	-0.28324714
43	0x3dd2af30	0.102873206
44	0xbdd4e62c	-0.10395464
45	0x3bd0ec61	0.006375835
46	0xbd4882dc	-0.048952922
47	0xbd489689	-0.048971687
48	0x3c980722	0.018558089
49	0x3e3095d5	0.17244656
50	0x3d8658bf	0.06559896
51	0x3c5c32de	0.013439862
52	0xbdaf2dde	-0.0855367
53	0x3e64892b	0.2231795
54	0xbcbeaf52	-0.023276959
55	0xbdf8d8a4	-0.12150696
56	0xbdb33e8a	-0.08752163
57	0xbd34b405	-0.044116993
58	0x3db382c4	0.08765176
59	0x3d479820	0.048729062
60	0x3d9ce0cd	0.07660065
61	0xbd3bdda0	-0.045865655
62	0xbd9469db	-0.07246753
63	0xbd93d0df	-0.072175734
64	0x3d73b301	0.059496883
65	0xbe2dfcff	-0.16991042
66	0x3cd075a3	0.025446719
67	0xbde1c789	-0.110243864
68	0x3d864111	0.06555379
69	0xbddcdcba	-0.10784288
70	0x3c4ef232	0.012630986
71	0x3daa27f1	0.083083995
72	0xbe3b486b	-0.18289344
73	0x3de93580	0.113871574
74	0xbdd7ed40	-0.10543299
75	0x3d08cd89	0.03339914
76	0x3de765f9	0.112987466
77	0x3dddc97e	0.10829447
78	0xbe05f3b2	-0.13081244
79	0x3b4756f1	0.0030416811
80	0x3d8cfc85	0.06884102
81	0x3e141964	0.14462811
82	0xbe0c50c8	-0.1370269
83	0x3d083f09	0.03326324
84	0xbe1431bd	-0.14472099
85	0xbdd3cc4c	-0.10341701
86	0xbd9b70b1	-0.075898536
87	0x3e502bd0	0.20329213
88	0x3dcfc851	0.10145629
89	0xbde4c55b	-0.11170455
90	0xbe2cc0c3	-0.16870408
91	0x3c646bf9	0.013941758
92	0xbd9b1480	-0.075722694
93	0xbdd2bf61	-0.10290409
94	0xbcec29a4	-0.02882845
95	0xbdd817e7	-0.10551434
96	0x3dcdba91	0.1004535
97	0xbda14c23	-0.0787585
98	0xbc32cdf2	-0.010913359
99	0x3ce0d106	0.02744342
100	0x3e174a64	0.14774472
101	0xbb5a70f1	-0.0033331478
102	0xbe0340ca	-0.12817684
103	0x3e6e6d1c	0.2328381
104	0x3ccb6177	0.024826748
105	0x3d9bde74	0.07610789
106	0x3b5e84a0	0.0033953562
107	0xbdf77830	-0.12083471
108	0xbd3a453a	-0.045476176
109	0xbd3db3b5	-0.04631396
110	0xbcf19267	-0.029488755
111	0x3d1a7001	0.03770447
112	0xbdb9275e	-0.09040712
113	0xbcb33943	-0.02187789
114	0x3c980c4e	0.018560555
115	0xbc921181	-0.017830612
116	0xbe234887	-0.15945636
117	0xbe04dd58	-0.12975061
118	0xbc0bb4f8	-0.008527033
119	0xbd4a87ae	-0.0494458
120	0x3d973cdc	0.07384655
121	0xbd06287e	-0.03275346
122	0xbc86e13e	-0.016464826
123	0xbd96238b	-0.07330998
124	0xbd59fa1c	-0.05321704
125	0x3c8f46dd	0.017489845
126	0x3d1838d7	0.03716358
127	0xbdf59113	-0.11990561
128	0x3c929bb5	0.017896513
129	0xbbf3a448	-0.0074353553
130	0x3db1121f	0.086460344
131	0x3e90689d	0.28204814
132	0xbd4b1f0f	-0.049590167
133	0xbd7d9aa0	-0.06191504
134	0xbd8e7f11	-0.0695783
135	0x3d299086	0.041397594
136	0xbb680ba3	-0.0035407327
137	0x3cc660e1	0.024216117
138	0xbc3bbc4f	-0.0114584705
139	0xbdec2a3a	-0.115314916
140	0x3c24caa6	0.010058081
141	0xbd89719f	-0.06711125
142	0x3d862cd9	0.06551523
143	0x3d93c08e	0.07214461
144	0x3ddd4215	0.1080362
145	0xbd127efd	-0.035765637
146	0x3dab7019	0.0837099
147	0x3d35846f	0.04431575
148	0xbd387dd4	-0.045041874
149	0xbe0c7a0d	-0.13718434
150	0x3d71a322	0.058993466
151	0x3dc1f9b2	0.09471454
152	0xbd800744	-0.06251386
153	0x3d4ccd07	0.050000217
154	0x3dc6b576	0.0970258
155	0xbce5ab01	-0.028035643
156	0xbe312087	-0.17297564
157	0x3ce9844e	0.02850547
158	0x3dad52d0	0.08463061
159	0xbdbdbbe3	-0.09264352
160	0xbcd072ca	-0.02544536
161	0xbdd482d7	-0.10376518
162	0x3d59d527	0.053181794
163	0xbde5b6f0	-0.11216533
164	0xbe326ef6	-0.1742514
165	0xbcd8ea54	-0.026478924
166	0xbe33a2f8	-0.17542636
167	0xbda23766	-0.07920723
168	0xbde4fcd0	-0.11181033
169	0xbdc15153	-0.094393395
170	0xbdc6e0c7	-0.097108416
171	0xbc831978	-0.016003355
172	0xbc48803a	-0.012237603
173	0x3ca89130	0.020577043
174	0xbd98ddce	-0.07464181
175	0xbc5e12c5	-0.01355428
176	0x3d2a7154	0.041611984
177	0x3d2589df	0.040414687
178	0xbdd19be4	-0.10234812
179	0xbcb2dae0	-0.021832883
180	0xbd37c637	-0.044866767
181	0xbcb9b7f7	-0.02267073
182	0xb930a709	-0.00016846893
183	0x3a52bc3c	0.00080389134
184	0xbcd9abfc	-0.026571266
185	0x3e01bfce	0.12670824
186	0x3b3f229e	0.002916492
187	0xbc373f46	-0.011184519
188	0x3c219ac9	0.009863564
189	0x3d70ea2f	0.058817085
190	0x3d2e6c89	0.042583976
191	0x3d520c26	0.051281117
192	0x3c3c5cdf	0.011496752
193	0xbdebc5a1	-0.11512304
194	0xbe29a1b8	-0.16565597
195	0x3d521464	0.051288977
196	0xbe095862	-0.13412622
197	0xbccd4efe	-0.02506208
198	0x3c247401	0.010037423
199	0xbda4eb5a	-0.08052702
200	0x3e2b6850	0.16739011
201	0xbd50414c	-0.050843522
202	0xbdf5173b	-0.119673215
203	0xbe806911	-0.2508016
204	0x3d97fd95	0.07421414
205	0x3e127431	0.14302136
206	0xbbd668fe	-0.0065432778
207	0xbd226d9e	-0.03965532
208	0x3d293d7d	0.041318405
209	0xbcb6bdc9	-0.022307293
210	0x3dce9f1f	0.10088944
211	0xbdaf4d3d	-0.08559654
212	0xbd5cba09	-0.053888354
213	0x3de3bd05	0.11120037
214	0x3c0a78c4	0.008451644
215	0x3cad711d	0.0211721
216	0xbe3b729d	-0.1830544
217	0x3e2a94e4	0.1665836
218	0x3d957ced	0.07299218
219	0xbd9fbfa9	-0.07800228
220	0xbe1d5dde	-0.15367839
221	0xbcde73a9	-0.02715476
222	0xbcefa9f7	-0.02925585
223	0xbd9a6482	-0.075387016
224	0x3da09ef9	0.07842822
225	0xbd531b14	-0.051539496
226	0x3d4188f2	0.04724974
227	0xbca193e8	-0.019723848
228	0xbdbb1b31	-0.09136046
229	0xbd8590b2	-0.06521739
230	0xbdb882b9	-0.09009308
231	0x3da056c3	0.078290485
232	0xbdc08531	-0.09400404
233	0xbb511055	-0.0031900604
234	0xbd177815	-0.036979754
235	0xbcaf38bd	-0.02138936
236	0x3e3dc391	0.18531634
237	0x3cf9a9b4	0.030476429
238	0xbb53badb	-0.003230742
239	0xbd621dd2	-0.05520422
240	0x3e086508	0.1331979
241	0x3d5e6b97	0.054301824
242	0x3bf9d199	0.007623863
243	0xbd17b168	-0.037034422
244	0xbd1b3cc9	-0.037899766
245	0x3e393d38	0.1808976
246	0xbcb856d9	-0.02250235
247	0x3e057b13	0.1303523
248	0x3df18f63	0.11794927
249	0xbdc87fe7	-0.097900204
250	0xbd1bb28f	-0.038012084
251	0xbca21095	-0.019783298
252	0xbde8dbb0	-0.11370027
253	0xbdf54776	-0.11976521
254	0xbe13dba3	-0.14439254
255	0xbd1bfb0f	-0.038081225

network_body._body_endoder.seq_layers.2.bias f4 [128]
0	0x00000000	0.0
1	0x00000000	0.0
2	0x00000000	0.0
3	0x00000000	0.0
4	0x00000000	0.0
5	0x00000000	0.0
6	0x00000000	0.0
7	0x00000000	0.0
8	0x00000000	0.0
9	0x00000000	0.0
10	0x00000000	0.0
11	0x00000000	0.0
12	0x00000000	0.0
13	0x00000000	0.0
14	0x00000000	0.0
15	0x00000000	0.0
16	0x00000000	0.0
17	0x00000000	0.0
18	0x00000000	0.0
19	0x00000000	0.0
20	0x00000000	0.0
21	0x00000000	0.0
22	0x00000000	0.0
23	0x00000000	0.0
24	0x00000000	0.0
25	0x00000000	0.0
26	0x00000000	0.0
27	0x00000000	0.0
28	0x00000000	0.0
29	0x00000000	0.0
30	0x00000000	0.0
31	0x00000000	0.0
32	0x00000000	0.0
33	0x00000000	0.0
34	0x00000000	0.0
35	0x00000000	0.0
36	0x00000000	0.0
37	0x00000000	0.0
38	0x00000000	0.0
39	0x00000000	0.0
40	0x00000000	0.0
41	0x00000000	0.0
42	0x00000000	0.0
43	0x00000000	0.0
44	0x00000000	0.0
45	0x00000000	0.0
46	0x00000000	0.0
47	0x00000000	0.0
48	0x00000000	0.0
49	0x00000000	0.0
50	0x00000000	0.0
51	0x00000000	0.0
52	0x00000000	0.0
53	0x00000000	0.0
54	0x00000000	0.0
55	0x00000000	0.0
56	0x00000000	0.0
57	0x00000000	0.0
58	0x00000000	0.0
59	0x00000000	0.0
60	0x00000000	0.0
61	0x00000000	0.0
62	0x00000000	0.0
63	0x00000000	0.0
64	0x00000000	0.0
65	0x00000000	0.0
66	0x00000000	0.0
67	0x00000000	0.0
68	0x00000000	0.0
69	0x00000000	0.0
70	0x00000000	0.0
71	0x00000000	0.0
72	0x00000000	0.0
73	0x00000000	0.0
74	0x00000000	0.0
75	0x00000000	0.0
76	0x00000000	0.0
77	0x00000000	0.0
78	0x00000000	0.0
79	0x00000000	0.0
80	0x00000000	0.0
81	0x00000000	0.0
82	0x00000000	0.0
83	0x00000000	0.0
84	0x00000000	0.0
85	0x00000000	0.0
86	0x00000000	0.0
87	0x00000000	0.0
88	0x00000000	0.0
89	0x00000000	0.0
90	0x00000000	0.0
91	0x00000000	0.0
92	0x00000000	0.0
93	0x00000000	0.0
94	0x00000000	0.0
95	0x00000000	0.0
96	0x00000000	0.0
97	0x00000000	0.0
98	0x00000000	0.0
99	0x00000000	0.0
100	0x00000000	0.0
101	0x00000000	0.0
102	0x00000000	0.0
103	0x00000000	0.0
104	0x00000000	0.0
105	0x00000000	0.0
106	0x00000000	0.0
107	0x00000000	0.0
108	0x00000000	0.0
109	0x00000000	0.0
110	0x00000000	0.0
111	0x00000000	0.0
112	0x00000000	0.0
113	0x00000000	0.0
114	0x00000000	0.0
115	0x00000000	0.0
116	0x00000000	0.0
117	0x00000000	0.0
118	0x00000000	0.0
119	0x00000000	0.0
120	0x00000000	0.0
121	0x00000000	0.0
122	0x00000000	0.0
123	0x00000000	0.0
124	0x00000000	0.0
125	0x00000000	0.0
126	0x00000000	0.0
127	0x00000000	0.0

value_heads.value_heads.extrinsic.weight f4 [1, 128]
0	0x3d6b4c93	0.057446074
1	0x3e3ad7f5	0.18246444
2	0xbdd3e708	-0.103468
3	0xbe315ae3	-0.17319827
4	0xbd941087	-0.07229715
5	0x3dc6897b	0.09694191
6	0xbe00fb2c	-0.12595814
7	0xbe3a034f	-0.18165325
8	0x3d4da4cc	0.05020599
9	0x3e4ea51f	0.20180176
10	0x3e47b502	0.19502643
11	0x3c594c04	0.013262752
12	0xbe317623	-0.17330222
13	0xbd111137	-0.035416808
14	0x3b16c2a5	0.00230042
15	0xbdba8b62	-0.091086164
16	0x3dd172d6	0.10226981
17	0x3b64d00f	0.0034914052
18	0xbd41e0ad	-0.04733341
19	0x3e3d5bff	0.18492125
20	0x3e51542c	0.20442265
21	0x3dba4f98	0.090972126
22	0xb9ad2df0	-0.00033031357
23	0xbdccc63b	-0.09998747
24	0xbce09801	-0.027416231
25	0xbd8e2be3	-0.069419645
26	0x3e05c114	0.13061935
27	0xbc1606e8	-0.00915692
28	0xbd8f3149	-0.06991822
29	0xbd6fccff	-0.05854511
30	0xbe311e97	-0.17296825
31	0xbc85155c	-0.016245537
32	0xbd1db975	-0.038506944
33	0xbe436e1d	-0.19084974
34	0xbe205c32	-0.1566017
35	0xbd87356b	-0.066019855
36	0x3e50698e	0.20352766
37	0x3e207c86	0.15672502
38	0xbdd5a73b	-0.10432287
39	0xbcddcac1	-0.02707422
40	0xbd481491	-0.04884774
41	0x3dee0251	0.116215356
42	0x3e583c0e	0.21116659
43	0xbe1c7d80	-0.1528225
44	0xbd3c44fe	-0.045964234
45	0xbdd16f6a	-0.10226329
46	0x3e3fbefa	0.18725196
47	0x3e025df8	0.12731159
48	0xbd15f5f0	-0.036611497
49	0xbd11e675	-0.03562017
50	0xbd1aa9ba	-0.03775952
51	0x3e3b340c	0.18281573
52	0xbdaf4905	-0.08558849
53	0xbe25ff9a	-0.16210786
54	0x3e4e8bff	0.20170592
55	0x3e3b7b42	0.18308738
56	0x3dff5120	0.12466645
57	0xbdde8f41	-0.10867167
58	0xbd91a4e1	-0.07111526
59	0x3ca599b3	0.020214891
60	0xbc50b541	-0.012738527
61	0x3dc24f20	0.09487748
62	0xbd8bc86c	-0.06825337
63	0x3e0a9902	0.1353493
64	0xbcf7d78a	-0.030254144
65	0xbe018dc5	-0.12651737
66	0x3e49ea59	0.19718303
67	0x3c435c4d	0.011923862
68	0xbe4f40c9	-0.20239557
69	0x3cc39108	0.023872867
70	0xba737f1c	-0.0009288655
71	0xbc06f194	-0.008236308
72	0x3da5091c	0.08058378
73	0x3dafd34d	0.08585224
74	0x3e0b6b19	0.13615073
75	0xbe56d61b	-0.20980112
76	0x3c5fc377	0.013657442
77	0xbd4c114d	-0.049821187
78	0xbceb7655	-0.028742949
79	0x3e54648e	0.20741484
80	0xbe242c76	-0.16032586
81	0x3e31aacd	0.17350312
82	0x3d33f245	0.043932218
83	0x3e02f459	0.12788524
84	0xbe216cc2	-0.15764144
85	0xbd99cad6	-0.07509391
86	0x3e53637b	0.20643418
87	0x3c78388f	0.015150203
88	0x3c62725c	0.013821211
89	0x3c09d2ab	0.008412044
90	0x3cc963fb	0.024583807
91	0x3ddd5dfe	0.10808943
92	0x3e15c658	0.14626443
93	0xbe21daf7	-0.15806185
94	0x3d99afaa	0.075042084
95	0x3e0d27bd	0.1378469
96	0xbd963c2d	-0.07335696
97	0x3d77ead0	0.06052667
98	0x3dbebbc6	0.09313159
99	0xbe001f01	-0.12511827
100	0xbda1a1a5	-0.078921594
101	0x3e0bb7a2	0.13644269
102	0x3b8c7cd1	0.00428734
103	0xbcb382ef	-0.02191302
104	0xbe50754f	-0.2035725
105	0x3dd9f535	0.10642473
106	0x3c9f7eb8	0.019469604
107	0xbd802471	-0.06256951
108	0xbe0b20bb	-0.13586704
109	0x3d73c503	0.059514057
110	0xbd5e8635	-0.05432721
111	0x3ddd6022	0.108093515
112	0x3e2ec145	0.17065914
113	0xbdb0636f	-0.086127155
114	0xbb496b7a	-0.0030734227
115	0xbc606f4c	-0.01369841
116	0xbd9e5ae5	-0.077321805
117	0xbd727dc0	-0.059201956
118	0xbd06b098	-0.032883257
119	0x3ced9056	0.028999489
120	0x3d87f108	0.0663777
121	0x3da1dab1	0.0790304
122	0x3be23347	0.0069030854
123	0xbdac8a87	-0.084248595
124	0x3d55124b	0.0520194
125	0x3cdc4a2b	0.026890835
126	0xbdb3fda9	-0.08788616
127	0xbdfdc91d	-0.12391875
