results/ppo/EscapeRoomAgent/EscapeRoomAgent-41561.pt (torch, 481927 bytes, 43 tensors)

discrete_act_size_vector f4 [1, 2]
000000 00 00 80 3f 00 00 80 3f
       1.0 1.0

network_body._body_endoder.seq_layers.0.weight f4 [128, 16]
000000 a4 a3 08 3f cb 68 3b 3d 6d 00 20 bf 40 e0 16 bf
       0.53374696 0.045754235 -0.6250065 -0.5893593
000010 60 e0 84 be 76 de 2c bd 9e 4b 44 bd 35 7f 86 bc
       -0.25952435 -0.042204343 -0.047923677 -0.016418079
000020 66 1b 27 3d 9a 40 b0 bd bc 98 3f 3e 6d 6b 95 3e
       0.040797614 -0.08606072 0.18710607 0.29183522
000030 65 3e 0c 3e 57 ee 59 3d 7e d1 e9 bd c1 31 48 3c
       0.13695677 0.053205814 -0.114169106 0.0122188935
000040 70 a9 ec 3d 18 35 72 3e 1e 37 88 be f9 91 c2 be
       0.11555755 0.23653066 -0.2660455 -0.38001993
000050 87 ea 85 be 82 96 bf be 71 35 ce 3d 86 76 a3 be
       -0.26155493 -0.37419516 0.10068787 -0.31926364
000060 04 71 86 3e 5b 5e e0 3e 2f 93 0c be 13 95 59 be
       0.262581 0.43821988 -0.13728021 -0.21248274
000070 99 d5 bb be bb 4b af be bc bd 54 be 4b e7 e0 3d
       -0.366864 -0.34237465 -0.20775503 0.10981616
000080 80 fe ff bc 60 13 af 3e c1 30 87 3c 3a 73 d8 3b
       -0.031249285 0.3419447 0.01650274 0.006605533
000090 13 0f 5a be a4 bf cf 3e db be 12 bf eb ab 07 3f
       -0.21294813 0.40575898 -0.5732247 0.529967
0000a0 f8 06 84 3d ab e6 a4 be f6 88 ac 3d e3 72 d8 3e
       0.06446642 -0.32207236 0.08424561 0.42275152
0000b0 50 2a 12 3e f2 34 52 3e 2c be 60 3e 84 fb 94 3e
       0.14273953 0.2052801 0.21947545 0.2909814
0000c0 64 09 d3 be 9b d9 b6 3d 4b 4b ea 3d 76 ec 05 be
       -0.41218102 0.08928224 0.11440142 -0.13078484
0000d0 03 53 f2 3d e1 c0 6c be 5b a5 a1 be 59 50 86 be
       0.118322395 -0.23120452 -0.3157147 -0.26233175
0000e0 ac 07 79 3e 97 22 e4 be 04 83 94 3e a4 77 00 3f
       0.24319333 -0.4455764 0.29006207 0.5018256
0000f0 40 55 b4 3d 1d 06 11 bd 03 74 8b bd 73 05 b9 bc
       0.08805323 -0.03540622 -0.06809237 -0.022585606
000100 d0 26 30 be c7 3a 9b 3e 6f 4a 70 be ff 09 cc 3e
       -0.17202306 0.3031828 -0.23465894 0.39851376
000110 de 91 0e ba 97 99 a6 bd f1 5d 1a 3d a1 cb c2 bd
       -0.0005438606 -0.08134764 0.037687246 -0.095114954
000120 10 ef 61 be bd cd f4 3c f1 80 b0 3d 87 a7 0e bd
       -0.22063851 0.02988326 0.086183436 -0.034827735
000130 c4 b9 60 be 62 d4 f9 3e 8a ea 7d 3e f6 10 54 3e
       -0.21945864 0.48794848 0.24796501 0.20709595
000140 3c 44 73 3b ad 30 2b 3f 7e ba 93 3e e5 07 6e 3d
       0.0037119528 0.6687115 0.2885322 0.058112998
000150 5a dc 4b bc 97 75 6c bd 76 72 e4 3d 9f e9 74 3e
       -0.012442673 -0.05772933 0.11154644 0.23917244
000160 10 a3 d8 3e ef 0b d7 3d 14 53 75 3e 7b ff 11 be
       0.42311907 0.10500323 0.23957473 -0.14257614
000170 40 fa b2 bd 18 66 d7 3d b7 93 03 3f a7 ca 73 3e
       -0.08739138 0.1051752 0.5139727 0.23807774
000180 cf 4e ad be d3 cc 0d be 97 eb 8b 3d ba 67 5e bd
       -0.3384919 -0.13847665 0.068320446 -0.05429814
000190 1b a8 ee be ce 07 98 3e 04 15 85 be d8 1e d6 3d
       -0.4661263 0.29693455 -0.25992596 0.10455102
0001a0 ce b5 14 3e 38 12 4b ba 53 fb d4 3d 87 2e 0e be
       0.14522478 -0.000774655 0.10399499 -0.13884936
0001b0 a7 d1 a6 be f2 cc 13 bf ea 90 d7 3d 33 ea a4 3d
       -0.32581827 -0.57734597 0.10525687 0.080524825
0001c0 13 ee 45 be 48 63 bb ba 3d ff d9 3d 1b f1 bb 3d
       -0.193291 -0.0014296556 0.10644386 0.091768466
0001d0 57 e4 a9 3d 9d 6d b7 bd f4 da 43 be e7 0f 09 3d
       0.082955055 -0.08956454 -0.19126493 0.03346243
0001e0 05 d9 03 be 56 6b e7 bd d4 f2 50 3d 4c a4 58 3c
       -0.12875755 -0.112997696 0.05101283 0.013222765
0001f0 a4 0e 68 bc f8 c9 ad 3d ed 5b cc bd 8a 9f f9 be
       -0.014163647 0.08485788 -0.09978471 -0.4875453
000200 dc c7 1e 3e fb d7 1e 3e a8 84 9d 3d e1 85 ee 3c
       0.15505928 0.15512078 0.07691318 0.029116573
000210 2f 26 05 3e 64 78 4a bd af 5d 18 3f 8d 59 6f bd
       0.13002847 -0.04943122 0.5951795 -0.05843501
000220 10 7e f2 be 23 84 f4 bd 27 48 68 3e e5 d4 33 3e
       -0.47361803 -0.119392656 0.22683774 0.17561682
000230 c4 4f 9c 3c 63 19 3d be ba 7d a8 be 8a cd 64 be
       0.019081004 -0.18466716 -0.32908422 -0.22344032
000240 02 76 d0 bd a5 67 29 be 5d e0 09 be ff 80 c5 3d
       -0.10178758 -0.16543444 -0.13464494 0.09643745
000250 a0 82 c7 3d 99 30 05 3d bf fd 04 be 1a 08 03 3e
       0.097417116 0.03251705 -0.12987421 0.12796059
000260 83 90 34 3e bf fd 8c 3e 99 ca 55 3e c0 4e 6b be
       0.17633252 0.27537343 0.20878066 -0.2297926
000270 31 d2 7d 3d cc 36 05 bb 27 2b 3f 3e 9e 78 5a 3e
       0.061968032 -0.002032685 0.18668805 0.21335074
000280 0b e9 b5 bc 18 41 36 3f d7 1b 92 bc a9 95 ee 3c
       -0.02220585 0.71193075 -0.01783554 0.029124098
000290 40 d3 09 be fa f3 08 bd a5 7d 02 3f dd ee e1 3e
       -0.13459492 -0.0334358 0.5097297 0.4412755
0002a0 62 33 b5 3e eb 83 8b 3c 5b 12 ab 3e ca 40 8e 3e
       0.35390764 0.017030677 0.33412442 0.27783805
0002b0 1c 31 9c bd a4 f7 5a bd 92 92 e9 3d a5 5b 2d be
       -0.07626554 -0.053458825 0.11404909 -0.16929491
0002c0 61 7e 96 3c 8b 7d 51 be e7 c5 f6 be 01 35 98 be
       0.018370809 -0.20458047 -0.48197863 -0.2972794
0002d0 03 53 73 be cd 42 70 be 59 3f fd 3d cb c2 88 3d
       -0.23762135 -0.23462982 0.12365598 0.06677779
0002e0 6a 45 21 3f 19 f3 ba be 81 d8 ad 3c b6 a4 a0 3b
       0.6299654 -0.36513594 0.021221401 0.0049024476
0002f0 17 d1 fe bd f8 e0 35 bd 9a fb 73 bd 40 66 a9 bd
       -0.124422245 -0.044404 -0.059566118 -0.08271456
000300 d6 7c 02 be 6a 59 bb 3c 67 48 29 3d 37 01 57 3d
       -0.12742934 0.022869784 0.041328814 0.052491393
000310 cb 17 88 be 26 0b c7 3d 62 b7 b6 be 23 5b ab ba
       -0.26580653 0.09718923 -0.35686785 -0.0013073426
000320 94 5a 6f bd c4 da b4 3e 44 e6 73 3d 4d 7e 58 be
       -0.05843599 0.35323155 0.05954577 -0.2114193
000330 0d 71 4b bf a6 12 72 3e 2e 1e cc 3d f9 03 2f 3f
       -0.79469377 0.23639926 0.09966694 0.68365437
000340 94 26 0f be 1f 90 9f be 1d 70 02 3e 35 6d 39 3e
       -0.1397956 -0.31164643 0.1273808 0.18108065
000350 66 ce cc be be c9 25 3d 15 3c 9e bd 58 e5 17 be
       -0.4000122 0.0404756 -0.077263035 -0.14833581
000360 98 71 fb 3c b8 d7 62 3e b2 99 05 be f4 06 82 3e
       0.030693814 0.22152603 -0.13046911 0.2539593
000370 72 6d 0d 3e 73 c8 48 be 69 d9 a4 3d 3b 28 6b 3e
       0.13811281 -0.19607715 0.0804928 0.22964565
000380 87 a4 98 3b 75 22 ad bc 01 e3 b7 3e 3f e6 c8 bd
       0.004658285 -0.021134594 0.35915378 -0.09809541
000390 a4 85 01 bf e8 fd 93 bd 54 74 ec 3e af 8d b3 be
       -0.50594544 -0.07226163 0.461825 -0.35069034
0003a0 01 ae bd bd 30 e0 50 be 19 cf 13 3e 78 94 d9 3e
       -0.09261704 -0.2039802 0.1443447 0.42496085
0003b0 78 a5 bf 3d ae 8d 82 3e 27 86 a7 bd a0 4b cd bd
       0.093577325 0.25498718 -0.081798844 -0.1002419
0003c0 53 0a 9a be a8 43 83 be fe 6f 3e 3e 1a db 19 3e
       -0.30086002 -0.25637555 0.18597409 0.15024987
0003d0 72 ad a2 3d 92 d8 6d be 07 3f af bd 40 d4 0f bf
       0.07943238 -0.23227146 -0.085569434 -0.5618324
0003e0 be 3a f0 3d 4c 69 33 bd c0 90 ff bd a4 17 1b 3d
       0.11729954 -0.04380159 -0.12478781 0.037864342
0003f0 31 58 2b be dc d6 6a 3e 3d 85 d8 3e 45 e9 45 3d
       -0.16732861 0.22933525 0.42289153 0.048318166

network_body._body_endoder.seq_layers.0.bias f4 [128]
000000 00 00 00 00 00 00 00 00 0d e9 78 3b 37 be d3 b9
       0.0 0.0 0.0037980706 -0.00040386777
000010 86 49 80 bb 17 c7 8c bb bd d2 3e 3b 9c 65 9a bb
       -0.0039150147 -0.0042961943 0.002911731 -0.00471182
000020 54 e6 4b ba 00 00 00 00 90 65 4d bb 00 00 00 00
       -0.0007778157 0.0 -0.0031341054 0.0
000030 21 f6 25 bb 91 46 84 3b da bb 9e bb 0d 76 64 3b
       -0.0025323706 0.0040367325 -0.004844171 0.0034860403
000040 00 00 00 00 bb 0c d6 3a bd c5 88 bb dc 3a 70 bb
       0.0 0.0016330698 -0.004173963 -0.0036656177
000050 00 00 00 00 00 00 00 00 00 00 00 00 f2 1b 22 39
       0.0 0.0 0.0 0.00015459934
000060 d0 9d 4d 3b 1f 38 5f ba 00 00 00 00 75 d8 22 3b
       0.003137458 -0.00085151376 0.0 0.0024848257
000070 00 00 00 00 18 ca 77 bb 39 da 6f 3b 00 00 00 00
       0.0 -0.0037809666 0.0036598577 0.0
000080 63 bd 51 bb 00 00 00 00 00 00 00 00 85 3a 62 bb
       -0.0032003752 0.0 0.0 -0.0034519744
000090 f2 42 67 bb 00 00 00 00 6c 91 d6 a7 00 00 00 00
       -0.0035287705 0.0 -5.95546e-15 0.0
0000a0 00 00 00 00 ff 4e 30 bb 00 00 00 00 00 00 00 00
       0.0 -0.0026902554 0.0 0.0
0000b0 a6 bf 43 3b 00 00 00 00 80 6c 15 bb 00 00 00 00
       0.002986887 0.0 -0.0022800267 0.0
0000c0 40 9f 8e bb 00 00 00 00 00 00 00 00 00 00 00 00
       -0.00435248 0.0 0.0 0.0
0000d0 00 00 00 00 fa c9 8b bb 00 00 00 00 3f 49 62 3b
       0.0 -0.004266021 0.0 0.0034528521
0000e0 00 00 00 00 00 00 00 00 00 00 00 00 00 00 00 00
       0.0 0.0 0.0 0.0
0000f0 00 00 00 00 00 00 00 00 4b c9 75 3b ad c7 81 bb
       0.0 0.0 0.0037504013 -0.003960571
000100 b4 32 9c bb 00 00 00 00 00 00 00 00 00 00 00 00
       -0.0047667865 0.0 0.0 0.0
000110 bd b5 88 bb 00 00 00 00 7e 4c 4c bb 00 00 00 00
       -0.0041720555 0.0 -0.0031173523 0.0
000120 85 51 b4 ba 00 00 00 00 68 17 61 3b 1e af 7d 3a
       -0.0013757205 0.0 0.0034346227 0.00096772786
000130 00 00 00 00 00 00 00 00 70 7a 6a b6 49 00 62 3b
       0.0 0.0 -3.4939985e-06 0.0034485033
000140 5c 17 77 3b 00 00 00 00 00 00 00 00 48 c0 72 3a
       0.0037703132 0.0 0.0 0.00092602195
000150 00 00 00 00 2e ea 97 b9 b5 3b 78 3b 00 00 00 00
       0.0 -0.00028975442 0.0037877385 0.0
000160 8a 7f 86 ba f9 0b e5 ba a0 6f 0f 3b 00 00 00 00
       -0.0010261398 -0.0017474882 0.0021886602 0.0
000170 00 00 00 00 78 d7 8c bb 00 00 00 00 5e 7f f4 b7
       0.0 -0.004298147 0.0 -2.9146377e-05
000180 00 00 00 00 00 00 00 00 0e f2 bc 3a 00 00 00 00
       0.0 0.0 0.00144154 0.0
000190 35 c2 c9 ad 00 00 00 00 00 00 00 00 d3 2b 95 bb
       -2.29373e-11 0.0 0.0 -0.0045523434
0001a0 cf 96 83 bb ff 19 5c 3a 00 00 00 00 00 00 00 00
       -0.0040157805 0.00083962077 0.0 0.0
0001b0 8b f8 63 3b 12 b2 53 3b 00 00 00 00 14 18 63 3b
       0.0034785594 0.0032302183 0.0 0.0034651803
0001c0 00 00 00 00 00 00 00 00 d2 fc 44 3b ea 2c 55 39
       0.0 0.0 0.003005792 0.00020329995
0001d0 bf dc 1e b7 00 00 00 00 3a 19 87 bb 00 00 00 00
       -9.46893e-06 0.0 -0.0041228803 0.0
0001e0 f1 3c b8 3a 00 00 00 00 b8 48 ac ba 00 00 00 00
       0.0014056248 0.0 -0.001314423 0.0
0001f0 73 62 84 bb 6c 6d 55 ba 9a 94 72 3b 4d ac 9b bb
       -0.0040400564 -0.00081416103 0.0037014843 -0.0047507645

network_body._body_endoder.seq_layers.2.weight f4 [128, 128]
000000 21 2b ba 3d 0e 82 09 bc c2 3e 5e 3d ac 06 ca 3c
       0.090902574 -0.008392824 0.05425907 0.024661385
000010 c3 5a bc 3c e4 26 a3 bd 34 3c 51 be 09 7f 62 bc
       0.022992497 -0.07966402 -0.20433122 -0.013824233
000020 25 3b 8c 3d 0a 0c 26 3d 57 52 b2 bd 8f 4e 97 bc
       0.068472184 0.040538825 -0.08707111 -0.018470077
000030 4e 47 b7 bd 63 00 7b 3d 3e ac db bc c6 00 f7 3d
       -0.08949147 0.061279666 -0.02681553 0.120606944
000040 9a 1f d0 3d 58 f8 d5 bc 81 c7 67 3d db 81 fd bd
       0.101622775 -0.026119396 0.056586746 -0.123782836
000050 71 74 61 bc 98 92 12 be a6 2d 04 be 22 7b 30 bd
       -0.013760672 -0.14313734 -0.12908038 -0.04308618
000060 2f 0f d6 3d a3 e7 10 3d cc 1f d8 bd 93 87 42 bd
       0.10452115 0.035377156 -0.1055294 -0.047492575
000070 5b d8 b3 bd 45 7b 28 bd 9d 57 3c bd f0 e0 38 bd
       -0.08781501 -0.041133184 -0.045981992 -0.045136392
000080 30 19 29 bd e6 28 3d bd 45 65 fe bd 48 bb a7 3d
       -0.041283786 -0.046181582 -0.124216594 0.08190018
000090 e3 61 20 be 1e 92 c5 3d 86 fe 70 3d d7 1b 67 bc
       -0.15662341 0.0964701 0.058836482 -0.014105759
0000a0 ce 2e 20 bd 6c 10 f1 bc a4 a6 ba bd 6e 58 db 3d
       -0.039107136 -0.029426776 -0.091138154 0.10710226
0000b0 02 c5 01 bd 58 ad d0 3d 68 dc 3b 3b 21 cd b6 3d
       -0.031682022 0.10189313 0.0028665308 0.08925844
0000c0 9e ca d1 3b 36 01 73 3d 72 f3 e2 bb 89 82 7e 3d
       0.0064023277 0.059327327 -0.0069259936 0.062136207
0000d0 f8 bb 18 bd 5a be d1 bc 39 cc ae bd e7 9a fc bc
       -0.037288636 -0.025603462 -0.08535046 -0.030835582
0000e0 a4 d3 02 be 0f 5c 93 bd e6 0d d0 bd f8 fe ec bd
       -0.12776047 -0.07195293 -0.10158901 -0.11572069
0000f0 0e 68 bb bd 78 bf f8 3d ae 69 3d 3d 6f 4c 19 bd
       -0.09150706 0.12145895 0.046243362 -0.03742641
000100 97 2a 47 3d 0f 4f 38 3e 55 89 2f 3d 2a e5 35 3d
       0.0486246 0.17998908 0.04285558 0.044408
000110 be 80 8a 3d 0d 81 60 3e 72 38 a7 bd 03 88 d8 3d
       0.06762837 0.21924229 -0.08165063 0.10572817
000120 d8 11 b4 bd 08 f3 a4 bd 1f 77 8b 3e f2 97 f2 bc
       -0.08792466 -0.08054167 0.2723932 -0.029613469
000130 0d 4e 34 bd 09 e3 37 3d b5 03 99 3d 65 0d b3 bd
       -0.044019748 0.044894252 0.0747141 -0.08742789
000140 bd 48 7e bc b5 be a1 bd 8f 43 2a 3d 4a 75 03 3e
       -0.015520272 -0.078977026 0.041568335 0.12837711
000150 7f d7 4a bc e3 05 fd 3d 43 2a 3a 3e 13 b2 43 bd
       -0.01238048 0.123546384 0.18180184 -0.047777247
000160 e4 7b 13 bd d8 5b 0a 3e bd 61 be 3c 60 7c 0a bd
       -0.036006823 0.13511598 0.023239965 -0.03381002
000170 e1 bf 23 3d d1 9a 54 3e e3 39 48 bd 2d 71 bb 3c
       0.03997791 0.20762183 -0.04888333 0.022881115
000180 1e e9 6c bd 8b a7 12 3c 1e 17 ce 3d 49 b9 bf bd
       -0.057839505 0.008951078 0.10063003 -0.09361512
000190 87 47 72 3b 5b 00 31 3d 48 4a 8b bd 98 4c e5 3d
       0.0036968903 0.04321323 -0.068012774 0.1119625
0001a0 23 2c 22 bd d8 9b 29 3d 4c 51 eb bd 28 5d a1 3d
       -0.039592873 0.04140839 -0.114901155 0.07879096
0001b0 d9 bb 28 3e 0d 0b 34 3c 6c 37 23 bd 04 f2 64 3c
       0.16477908 0.010988963 -0.039847776 0.013973717
0001c0 2f f3 e0 bd f5 33 a3 3d 85 f1 f2 3d 2b aa 46 bd
       -0.109838836 0.079688944 0.118624724 -0.04850213
0001d0 36 cb 75 3d 34 6b 11 ba 24 09 90 3d b6 1c c0 bd
       0.06000825 -0.00055472855 0.070329934 -0.09380476
0001e0 96 28 b5 3d ce bc 57 3d a3 27 c0 bc c8 a2 01 3d
       0.08845632 0.052670293 -0.0234564 0.03164938
0001f0 7f db 30 3b 21 41 45 bb b0 9c 96 bd 5e 3b 0f be
       0.0026986299 -0.0030098634 -0.073541045 -0.1398749
000200 3b a5 50 bd 99 06 36 3a 33 da 3f 3e 17 ce 51 3e
       -0.050938826 0.0006943732 0.1873558 0.20488773
000210 4b a2 86 3d ca 9f 4f bc f8 e1 36 bd 2c 5a 56 3d
       0.06573924 -0.012672374 -0.044649094 0.05233209
000220 f5 f7 03 3e 97 dc 34 bd 70 95 8b bd 67 13 cf bd
       0.12887557 -0.044155683 -0.06815612 -0.101111226
000230 b9 8f f9 bd 15 6e 47 3d 0c e6 41 be b1 77 42 3c
       -0.12185616 0.048688967 -0.18935412 0.011869357
000240 bf 7a a2 bd 69 44 27 be c0 0b c1 3b 96 d7 9a bd
       -0.07933568 -0.1633469 0.0058912933 -0.07560651
000250 14 f6 74 3d 5b c9 2b be 6a 36 4c be 88 ac 53 bd
       0.05980499 -0.1677603 -0.19942632 -0.05167821
000260 32 33 d9 bd 2b dd 35 3e ae c0 ac bd ed 97 1a bc
       -0.10605468 0.1776015 -0.08435188 -0.009435636
000270 1a d6 57 bd d0 ba 94 bd 54 07 fa bd f5 ec a2 bd
       -0.052694418 -0.07262194 -0.12208429 -0.07955352
000280 9a 82 cc 3d c9 0f 87 bd 98 62 90 3d b8 6c 4d 3d
       0.09985848 -0.06594808 0.07050055 0.05015251
000290 cd fe 84 bc 2a 54 24 3e f6 d2 9e bd d0 5e bc bc
       -0.01623478 0.16047731 -0.07755081 -0.022994429
0002a0 f6 9f 9d bc ea 66 f2 bc 13 d8 c3 3d 71 00 10 be
       -0.019241314 -0.029590089 0.09562697 -0.14062668
0002b0 f3 ac 57 bd b4 29 c6 bc 1e 6e 29 bd df f2 81 3c
       -0.05265517 -0.024189807 -0.04136478 0.01586288
0002c0 f4 16 46 be 86 ac 3b 3d 03 20 f5 3b f6 22 53 bd
       -0.19344693 0.045818828 0.0074806227 -0.051547013
0002d0 22 55 d6 3d f7 87 31 be f8 3c 67 bb f5 73 20 3e
       0.104654565 -0.17337023 -0.0035284143 0.15669234
0002e0 5e 16 4b be 76 19 d0 3c 7b 2f 0b 3e a5 e2 b6 3d
       -0.19832751 0.025402766 0.13592331 0.08929948
0002f0 e8 83 bd 3c c8 22 47 3d af 7f 07 be e3 7f b8 3d
       0.023134187 0.048617154 -0.13232301 0.090087675
000300 78 97 86 bd 8c 2d f5 3c b2 0f af 3c 3e b8 1a 3d
       -0.06571859 0.029928945 0.021369789 0.037773363
000310 8c 18 2a bc f4 c2 65 be bb 2d 97 bb ca dc d4 bd
       -0.010381829 -0.2243765 -0.004613606 -0.10393675
000320 f7 df ff 3c a2 02 d5 3b 3e 84 8c 3d aa 64 cd 3d
       0.031234724 0.006500558 0.06861161 0.10028966
000330 da 03 52 be 8b e0 0f 3e 35 44 fc bd 44 b5 99 bc
       -0.20509282 0.140505 -0.12317697 -0.018763192
000340 46 0a 38 3d c7 93 96 3c b8 a0 fa 3d 41 7e 2c 3e
       0.044931673 0.018381013 0.12237686 0.16845037
000350 ed 2b 89 3c 3e 11 9d 3c c5 94 1e bd 11 92 25 bd
       0.016744578 0.01917326 -0.038716096 -0.040422503
000360 db 38 b1 3d 97 72 22 3e 82 e8 b1 bb e8 a4 40 3d
       0.086534224 0.15864025 -0.0054293284 0.047032267
000370 1d fd 86 3d a1 95 f9 bd 96 96 a9 bd fb f4 2b be
       0.06591246 -0.121867426 -0.08280675 -0.16792671
000380 b7 19 90 3c 8c 5b 2e be d2 e0 4d 3e df e7 16 bd
       0.017590387 -0.1702711 0.20105293 -0.036842223
000390 fe 18 b6 bd 5c 8d ad 3d bc 10 75 bd 8f 8a 48 3d
       -0.08891486 0.08474228 -0.059830412 0.048960265
0003a0 c4 3c da bc b8 5e cd 3c f6 7d 96 3d bf 7c 9f bd
       -0.026640303 0.02506958 0.07348244 -0.07787465
0003b0 f0 a7 58 bd 6c 20 80 3e 39 28 19 bd 9e 38 ff 3d
       -0.052894533 0.25024736 -0.037391875 0.12461971
0003c0 d2 d5 86 bb de 24 c0 3d 62 dd bf bd 89 ab c1 3b
       -0.004114845 0.09382032 -0.09368397 0.005910341
0003d0 38 b0 a3 3d 0b 5f 47 3c c6 02 12 3d 78 d9 da 3d
       0.079925954 0.012168656 0.035647176 0.1068601
0003e0 98 07 13 3d 5a 56 bf bd 65 fb 8d 3d 3a 3c 24 be
       0.035895914 -0.09342642 0.06932715 -0.160386
0003f0 0c dd 0e 3e 63 f0 ce 3b 39 ee 5d 3d 48 e9 b8 3c
       0.1395151 0.0063152774 0.054182265 0.022572175

network_body._body_endoder.seq_layers.2.bias f4 [128]
000000 fd b1 c1 3a 14 67 78 bb e1 dd 45 3b 7f ce 73 bb
       0.0014777776 -0.0037903236 0.0030192065 -0.0037201939
000010 21 93 09 3a 00 00 00 00 ac 39 ce 28 2d a0 93 bb
       0.0005248059 0.0 2.2895605e-14 -0.0045051784
000020 c2 2e 78 3b 40 4d 81 3b 00 00 00 00 00 00 00 00
       0.0037869667 0.0039459765 0.0 0.0
000030 f4 82 dc 3a 4e 0c fe 39 00 00 00 00 ee 20 50 bb
       0.0016823695 0.00048455823 0.0 -0.003175791
000040 34 51 1f 3b 36 44 eb 3a 66 b7 03 bc 00 00 00 00
       0.0024309875 0.0017949406 -0.008039331 0.0
000050 00 00 00 00 cb dc cc 33 00 00 00 00 83 21 a8 3a
       0.0 9.539652e-08 0.0 0.001282737
000060 00 00 00 00 00 00 00 00 a9 40 66 3b 13 0a 77 ba
       0.0 0.0 0.0035133755 -0.00094238034
000070 06 f5 bc bb 00 00 00 00 00 00 00 00 a3 e0 e5 ba
       -0.0057665138 0.0 0.0 -0.001753826
000080 52 c2 4c bb c6 16 1e 3b 00 00 00 00 00 00 00 00
       -0.0031243754 0.002412246 0.0 0.0
000090 d5 34 86 bb 4e bd af a2 77 5f 67 b9 02 d6 e6 ba
       -0.0040956535 -4.763428e-18 -0.0002206544 -0.0017611387
0000a0 8d 4c 36 ba 00 00 00 00 00 00 00 00 00 00 00 00
       -0.0006954156 0.0 0.0 0.0
0000b0 24 41 7c 3b 07 61 60 1a 00 00 00 00 d2 ae 9c 3a
       0.0038490975 4.6400492e-23 0.0 0.0011953956
0000c0 00 00 00 00 06 3d 05 10 00 00 00 00 71 ee 91 bb
       0.0 2.6276636e-29 0.0 -0.0044534733
0000d0 98 24 55 bb cd 9a 99 b4 00 00 00 00 c6 ee 6d 3b
       -0.0032523032 -2.8611103e-07 0.0 0.003630565
0000e0 77 45 2d b9 c5 ea 70 3b dd f9 7c 3b b6 28 68 3b
       -0.00016524443 0.0036761027 0.0038601079 0.0035424656
0000f0 da a0 5c bb 00 00 00 00 2b 8e 9f bb a6 bb 62 bb
       -0.003366521 0.0 -0.0048692427 -0.003459671
000100 00 00 00 00 e3 a7 88 bb 9b 14 2b ba 00 00 00 00
       0.0 -0.0041704043 -0.0006526203 0.0
000110 b0 e9 93 bb 00 00 00 00 2a 78 23 ba 62 d8 a3 a1
       -0.0045139417 0.0 -0.00062358624 -1.1102586e-18
000120 00 00 00 00 fd 43 e7 0a d7 06 e7 ba 70 a0 5f bb
       0.0 2.2270065e-32 -0.001762594 -0.0034122728
000130 00 00 00 00 e3 18 43 3b 00 00 00 00 00 00 00 00
       0.0 0.0029769472 0.0 0.0
000140 5c 02 a2 3a 00 00 00 00 c4 68 db ba e3 b7 4f bb
       0.0012360322 0.0 -0.0016739597 -0.0031695298
000150 3a 51 f1 b9 93 65 d3 0f 08 62 c3 b8 00 00 00 00
       -0.0004602762 2.0845331e-29 -9.316584e-05 0.0
000160 16 04 f8 38 8a 96 fb 39 be 16 f4 ba 30 f1 a7 ba
       0.000118263226 0.0004798661 -0.00186225 -0.0012812968
000170 00 00 00 00 6c 78 9a 08 3b f7 8d bb 00 00 00 00
       0.0 9.296849e-34 -0.0043324507 0.0
000180 0a 96 0a 39 00 00 00 00 00 00 00 00 4a 36 7f 3b
       0.000132166 0.0 0.0 0.003894227
000190 00 00 00 00 64 df 88 b8 40 1e 27 3b 55 27 64 bb
       0.0 -6.526595e-05 0.0025500208 -0.0034813483
0001a0 00 00 00 00 54 5a 60 3b d6 19 03 ba 00 00 00 00
       0.0 0.0034233527 -0.0005001103 0.0
0001b0 80 ee 1f bb 71 e8 84 3b 38 e4 7f bb ae c7 9d 38
       -0.0024403632 0.0040560295 -0.003904594 7.5235366e-05
0001c0 99 7f 7e 3b 99 d4 98 bb 00 00 00 00 00 00 00 00
       0.0038833378 -0.0046640155 0.0 0.0
0001d0 00 00 00 00 00 00 00 00 ee 73 e6 ba 00 00 00 00
       0.0 0.0 -0.0017582157 0.0
0001e0 1f 75 8c bb e5 a4 3b bb 00 00 00 00 09 4e 84 bb
       -0.004286423 -0.002863222 0.0 -0.004037623
0001f0 00 00 00 00 00 00 00 00 b6 0f 88 bb 00 00 00 00
       0.0 0.0 -0.0041522635 0.0

action_model._continuous_distribution.log_sigma f4 [1, 2]
000000 23 c7 b5 3c d1 4d d1 3c
       0.022189682 0.025549801

action_model._continuous_distribution.mu.weight f4 [2, 128]
000000 bb 86 e1 3b 60 76 f5 ba ad 56 98 3c 9e 0b 21 bb
       0.006882516 -0.0018727295 0.018596018 -0.0024573575
000010 f4 16 ce 3c 97 c2 ca 3a 18 d5 d8 bb 68 9a 4e bb
       0.02515743 0.0015469369 -0.0066171996 -0.0031525139
000020 09 36 51 3c 5b 1f 0e 3c 23 04 aa 3c ba 73 07 3c
       0.012769231 0.008674468 0.020753926 0.008267337
000030 a5 b1 66 3c d6 08 48 3c b2 16 93 bc 48 58 c5 bc
       0.01408044 0.012209138 -0.017955158 -0.024089947
000040 ba 62 83 3c 59 ed 81 3c e0 4e cd 3a 7a d6 c7 bc
       0.016038287 0.015860246 0.0015663765 -0.024394263
000050 47 62 a0 3c 00 7d f6 bc 83 6e 1a 3c f3 49 ac 3c
       0.019578112 -0.030088902 0.009425762 0.021031355
000060 b8 c6 f7 3b bd bf 55 bc 5b 70 a6 3c c4 f3 99 bc
       0.007561531 -0.013046202 0.020317247 -0.018792994
000070 fa 03 58 39 87 04 99 bc df ea 47 bd 1b 8a 75 3a
       0.00020600847 -0.018678917 -0.048807975 0.00093665876
000080 ad c6 ac bc 70 cc 24 3d ab dc e4 3c af 81 82 ba
       -0.02109083 0.04023403 0.027937254 -0.0009956862
000090 1b fd b8 bc 1e 81 1e 3a 6f 1b ab 3b 55 24 fb ba
       -0.022581628 0.00060464616 0.005221776 -0.0019160608
0000a0 44 9c a6 bc 18 fb 6c 3c ed ef 89 3c 2d a7 e9 3c
       -0.020338185 0.014464162 0.016838038 0.028522098
0000b0 88 e7 c8 3b 07 35 6c bc 9b 96 75 3c 9e fc 64 3c
       0.0061311163 -0.01441694 0.01498952 0.013976244
0000c0 30 c1 da 3c 43 f4 ab b8 c5 00 ec bc 2b d6 74 bb
       0.026703447 -8.199413e-05 -0.02880896 -0.00373591
0000d0 7d 11 07 bd 79 6a e8 3b af 26 ed ba 84 34 93 3c
       -0.032975662 0.0070927707 -0.0018093194 0.017969377
0000e0 42 0b 08 3c c2 75 6d 3b 5e cc 95 3c 6d cb 39 3d
       0.008303465 0.003623352 0.018285926 0.045360018
0000f0 8b fc 95 bc 00 13 bd 3c 51 fe 0f 3b a5 c0 5c bc
       -0.018308898 0.023080349 0.0021971653 -0.013473664
000100 b6 33 38 3c 10 54 92 bc b5 ec 42 bb 37 ce e1 3b
       0.011242798 -0.01786235 -0.002974314 0.006891038
000110 1d 7c 1f bb 82 77 0d 3b 6c 01 41 3b 0e 44 04 3d
       -0.0024335452 0.0021586125 0.002945031 0.032291465
000120 45 ff e0 3c 44 c1 86 bb c0 a0 91 bc 6d 71 d1 bc
       0.027465472 -0.0041123945 -0.017776847 -0.025566781
000130 03 61 32 bb b0 fb 3c 3d 45 30 63 bc 8f eb 36 3c
       -0.0027218468 0.046138465 -0.013866489 0.01116456
000140 d4 59 72 3c 58 5a ad 3b 24 7f 40 bb ca d1 a7 bc
       0.0147919245 0.005290311 -0.0029372657 -0.020485777
000150 9f e6 61 3b 05 45 d5 ba d4 7b a5 3b d5 33 3f 3a
       0.0034469736 -0.001627118 0.005050162 0.00072937954
000160 fe 51 99 3a 93 ba d7 3a 15 09 ab 3a 2c 40 d3 3a
       0.0011697409 0.0016458802 0.0013048971 0.0016117147
000170 66 53 a8 bc 6e fc 05 3c fd 5f 02 bc 4c 5a 0e 3b
       -0.02054758 0.00817786 -0.007957456 0.0021721302
000180 90 76 8a 3b 33 08 58 bc 03 44 3f 3b 84 2d 63 3c
       0.0042255595 -0.013185549 0.0029184825 0.013865832
000190 37 01 8b bc af a1 2a 3c ad 80 95 3c de 6f a5 bc
       -0.016968353 0.010414525 0.018249834 -0.020194944
0001a0 17 34 26 bc 05 8c 6e 3c b5 30 13 3b a5 f5 9a 3a
       -0.010144255 0.01455975 0.0022459452 0.0011822475
0001b0 9e f1 1f 3b d6 54 da 3c 3c d7 bf bc 56 c5 11 3b
       0.002440549 0.026651781 -0.023418061 0.0022242866
0001c0 c4 49 0b 3d c1 f6 14 bb eb 0f fd bc a6 4c c7 bc
       0.034005895 -0.0022730085 -0.03089138 -0.024328541
0001d0 9f c6 17 bc 72 6a d2 bb 6c ff 48 3c f9 f0 0b 3c
       -0.009263664 -0.0064213807 0.012267929 0.008541339
0001e0 91 09 2d bc 37 67 10 bc 1f b7 3d bc 05 26 00 bc
       -0.010561363 -0.008813671 -0.011579304 -0.007821565
0001f0 b6 6f c9 bc 5b 10 f1 ba 88 f6 89 bc 2d ea 53 bc
       -0.0245894 -0.0018391715 -0.016841188 -0.01293425
000200 3a e7 86 3b fb 56 86 bb 51 5d 87 3b c3 67 fe 3b
       0.00411692 -0.0040997243 0.004130997 0.007763834
000210 7f 27 4c 3d c4 1e 2e 3c 21 64 c3 bb 4d ee 17 3b
       0.049842354 0.010627452 -0.005962864 0.002318281
000220 b8 49 4f bc eb af 30 bd e7 b0 78 3b bb a4 b8 bc
       -0.012651853 -0.04313652 0.003794724 -0.022539487
000230 d3 f2 58 3c fa 19 a6 3c 30 2a 2f 3b 0b 76 7c bc
       0.013241488 0.020276058 0.0026728027 -0.015409003
000240 5a bb 17 3c a2 a4 72 3c c8 c0 88 39 e5 81 b6 3c
       0.009260977 0.014809759 0.00026083575 0.022278735
000250 95 81 e7 3a de c1 5f 3b 9f 05 9e bb 76 56 e4 3c
       0.001766252 0.0034142653 -0.0048224474 0.027873259
000260 4f 83 53 bb ab bb 7f bc 82 48 a9 bb 4f 63 ea 3c
       -0.003227431 -0.015608708 -0.0051661143 0.028611807
000270 db 02 7d bb 22 69 e4 3b 57 e7 9c 3a 80 33 2f 3c
       -0.0038606438 0.0069705406 0.00119708 0.010693431
000280 7c e9 66 bc 82 6f 04 3d 27 7a 06 bc 52 36 dc 3b
       -0.014093753 0.032332905 -0.008207834 0.0067203427
000290 eb 15 a8 3c 9f 30 4a bc e0 8f 14 3c 8c 9f 69 3c
       0.020518264 -0.012340694 0.009067506 0.01425923
0002a0 d3 3a 19 3d 79 71 a4 3c a3 7e 8e 3c cf b1 66 bc
       0.037409615 0.02007364 0.01739437 -0.014080479
0002b0 68 4f 90 bc 6d c5 da 3a 63 eb 9d bb 56 9b 8a 3c
       -0.017615989 0.0016690918 -0.00481932 0.016919773
0002c0 52 52 c2 3b 0e b6 8a bb 57 1e 24 3c 78 c0 9a 3c
       0.0059302235 -0.0042331284 0.010016999 0.018890604
0002d0 ea f7 87 bc bc e2 96 bc 90 13 db 3c 18 8e 09 bc
       -0.016597707 -0.018418662 0.026742727 -0.008395694
0002e0 15 a7 ab 3c 59 a5 45 bc f7 7a 94 bc b6 ba ae bb
       0.020953694 -0.012063348 -0.01812504 -0.0053323163
0002f0 c9 bf 20 bc 63 3a be ba c2 5a e3 3b 30 a3 ee bb
       -0.00981135 -0.001451325 0.0069383094 -0.007282637
000300 3c 30 b8 bc f8 aa c3 3c 90 63 99 bc f2 73 71 bb
       -0.022483937 0.023885235 -0.018724233 -0.003684279
000310 28 68 9e 3c f6 29 82 3c c8 5c 69 bb a7 17 0b b9
       0.019336775 0.01588915 -0.003560828 -0.00013264884
000320 b3 10 be bb 80 44 9a bc bc 86 30 bb 40 1a c7 bc
       -0.0058003305 -0.018831491 -0.0026935777 -0.02430451
000330 d6 52 41 bc 3e 6a a7 3c 19 e4 02 bb 10 d0 70 bc
       -0.011799535 0.020436402 -0.0019972383 -0.014698043
000340 ee ff 92 3c 12 51 37 bb 61 da 6f ba ce ad 66 bc
       0.017944302 -0.0027971906 -0.00091496675 -0.014079524
000350 12 76 89 3c d0 2f dc bb 7f 02 ef 3c d1 f0 b6 3c
       0.016779933 -0.006719567 0.029175995 0.022331627
000360 58 ed 2a bd 61 1a 25 bd 15 d0 54 bc e6 a9 30 bc
       -0.041730255 -0.04030836 -0.012989064 -0.010782694
000370 b0 29 6d bc a8 70 ea bc a5 75 60 3c a3 82 a5 bc
       -0.014475271 -0.028618172 0.013699924 -0.020203894
000380 01 c5 66 3b b6 58 15 bc 51 06 ab bc cf bc 95 bc
       0.0035212638 -0.009115389 -0.020877035 -0.018278508
000390 77 7b 9e bc 2a dd d3 3c d6 14 23 3c ff 20 00 bc
       -0.019345982 0.025862295 0.009953698 -0.007820367
0003a0 b3 50 c1 3c 93 fb 75 bb a3 58 a0 bb b7 c0 8d bb
       0.02359805 -0.0037533983 -0.004893379 -0.004325952
0003b0 34 31 e5 ba e6 02 54 bd 90 43 ee 3b 9b fd 18 bc
       -0.0017485977 -0.051760577 0.0072712377 -0.009337808
0003c0 29 16 e7 bc b3 64 f8 3b 7f 0a 48 bc 27 ab 96 3b
       -0.028208809 0.0075803637 -0.012209534 0.0045980397
0003d0 bf f1 90 bc b8 9a 86 bc 2c 07 43 bc 22 02 d2 3c
       -0.017693399 -0.016431198 -0.011903565 0.025635783
0003e0 95 13 9c 3c 7a 74 35 bc 02 3f 7e 3c 03 9c 64 3a
       0.019052306 -0.011075133 0.015517952 0.00087207573
0003f0 2d 5f ef 3c 59 f7 00 bc 23 fe 90 3c 95 ad d8 bb
       0.029220188 -0.007871472 0.017699307 -0.0066124895

action_model._continuous_distribution.mu.bias f4 [2]
000000 99 7d 69 3b f6 a0 57 ba
       0.003562784 -0.0008225584

action_model._discrete_distribution.branches.0.weight f4 [1, 128]
000000 2f 9e c7 bb 53 14 18 bb 9b fe 88 bc 80 62 98 bc
       -0.006091855 -0.0023205474 -0.016722968 -0.018601656
000010 83 10 43 38 db 38 93 bb 52 32 69 bb 58 c7 1c 3b
       4.6507e-05 -0.0044928617 -0.0035582972 0.002392253
000020 3d ab 91 bb 0e e6 0e 3c a8 1f d7 3b 7a 53 1f 3c
       -0.004445462 0.0087218415 0.006565053 0.009724492
000030 95 4a 81 bc 5e 07 82 bc 25 17 14 bb 5b 24 ea bb
       -0.015782634 -0.015872654 -0.0022596803 -0.007145447
000040 e5 0c e2 3a 63 91 96 bb 17 8c d3 bb c9 83 84 bc
       0.0017246275 -0.004594968 -0.006455909 -0.016176121
000050 ed f3 45 bc 99 4a a9 bc 70 14 83 bb a5 80 30 3a
       -0.012082082 -0.020665454 -0.004000239 0.0006733037
000060 e3 d2 83 ba cb d7 6b bc 5f da 0c 3c f0 d4 a2 3b
       -0.0010057356 -0.014394711 0.008596986 0.004969232
000070 67 6c 8c 3a 4f 86 1f bc 4b e8 00 3c 35 5e 2d 3c
       0.0010713459 -0.0097366115 0.007867883 0.010581543
000080 97 c2 6e 3b 8f aa 23 bb 4a 9c 35 bb a0 d8 60 3b
       0.0036431903 -0.0024973487 -0.0027711564 0.0034308806
000090 e4 89 08 bc 98 70 a3 bb b8 3a 7d bc 18 8b db bb
       -0.008333657 -0.0049877875 -0.015455894 -0.006699931
0000a0 fe 90 1b bc 30 61 9b 3a 8a cd 26 3c b6 b9 85 bc
       -0.009495018 0.0011854526 0.01018084 -0.016323905
0000b0 3a 5a f0 bb b7 c8 bf bb ff b7 80 3b 0a 81 87 3c
       -0.0073349746 -0.0058527845 0.003928184 0.016541023
0000c0 4f 0b 76 bb 27 eb 28 bc ea 0a 4d 3b aa 07 58 bc
       -0.0037543362 -0.010309971 0.0031287023 -0.013185421
0000d0 ef e7 2b 3a 74 2b 8f 39 b3 a7 40 bb 48 bf 77 ba
       0.0006557693 0.0002730746 -0.0029396832 -0.00094508054
0000e0 0a 66 11 bc 77 0e 2e 3c df b6 47 3c b8 e6 cc bb
       -0.008874426 0.010623566 0.012189596 -0.0062530898
0000f0 eb b1 10 3c 77 d1 2a 3c b5 07 75 3c bb ba 01 bb
       0.008831481 0.010425917 0.014955451 -0.0019795138
000100 d4 56 8b bc 26 56 b9 3b 41 05 b6 bb 46 41 98 3a
       -0.017009176 0.0056560216 -0.0055548255 0.0011616133
000110 a2 e2 fd 3a 45 f3 06 bc ff cf 6e bc 58 0d e9 bb
       0.001936991 -0.008236711 -0.014575957 -0.0071121864
000120 2a 18 85 3a df 08 11 3c 45 95 da bb 4e 78 43 3c
       0.0010154296 0.008852213 -0.0066706263 0.011930538
000130 23 9f 1a 3c 4e 33 cb 3b bb c3 a3 ba 27 64 a1 3b
       0.009437355 0.0062011844 -0.0012494245 0.004925269
000140 23 8b e6 3b 5b a7 2c 3c 67 4c 0b 3c cb 82 d2 bb
       0.0070356294 0.0105379475 0.008502102 -0.006424283
000150 86 6b 0e 3c ff 81 80 bc b7 99 80 bc 9a 4e 1e bc
       0.008692628 -0.015686987 -0.015698297 -0.009662295
000160 3b 1c 54 3b cb c6 d9 3c 42 93 bf 3b 5f ad 12 3c
       0.003236546 0.02658405 0.005846412 0.008952468
000170 62 21 c7 ba 17 25 b5 ba 64 82 95 bc 0b 7d 83 3b
       -0.0015192444 -0.0013820258 -0.018250652 0.004012709
000180 ef b2 dd 3b 3e 84 a8 3b 77 b3 8d bb 0f c9 d0 bb
       0.0067657153 0.0051427176 -0.0043243724 -0.0063716243
000190 e7 28 13 bc 57 83 98 3c 6b 78 06 bc f7 ec 6e ba
       -0.00898192 0.018617315 -0.008207421 -0.000911429
0001a0 6f 9d 16 bb 87 c1 2b 3c 71 76 30 ba 1b 24 4a ba
       -0.0022982021 0.010483152 -0.00067315163 -0.00077110686
0001b0 7f 48 24 bc 60 2c 2e bb 95 61 a0 3b db 95 aa bc
       -0.01002705 -0.0026576743 0.004894445 -0.02082341
0001c0 35 b8 75 3c 0a 6c 60 bc f0 cb 63 bc 78 ca 61 bb
       0.014997532 -0.0136976335 -0.013903603 -0.0034452956
0001d0 db 07 ca 3b 54 0d 11 3b a4 c5 95 3c af ef 93 3b
       0.006165487 0.0022133188 0.018282719 0.0045146565
0001e0 7b 2b cc 3b 3a 14 44 3c a5 c6 8e b9 21 a5 4a bc
       0.006230769 0.011967713 -0.00027232352 -0.012368471
0001f0 58 f2 b0 bb dc c3 b5 3c 72 e2 ce ba e4 14 25 bc
       -0.0053999834 0.02218812 -0.0015784039 -0.0100757815

action_model._discrete_distribution.branches.1.weight f4 [1, 128]
000000 56 e5 8c 3c 6a fd c7 3b 3b cc 6b 3b 83 4e 30 bb
       0.0171992 0.0061032074 0.0035979885 -0.0026902265
000010 b7 5b a2 3b 05 29 a6 3b d5 60 88 3c 0a e5 7f 3b
       0.004954781 0.005070808 0.016647736 0.003904643
000020 a5 c1 74 bb b3 f2 90 bb d8 3f 93 3b cf 8c 55 bc
       -0.0037346866 -0.0044234633 0.0044936948 -0.01303406
000030 05 27 52 bc 89 9a 02 3c cd 31 c3 3b 16 de 99 bc
       -0.012826686 0.007971414 0.0059568645 -0.018782657
000040 62 97 5f 3c 5e 1b 83 bc 26 2d 22 3b ec f8 2c 3b
       0.013646932 -0.01600426 0.002474615 0.0026393486
000050 4a b6 7b bb cb a5 0c bc 13 61 0b bc 39 66 27 b9
       -0.0038408213 -0.00858445 -0.008507031 -0.00015964442
000060 28 bd 56 bc 13 cc e7 bb 6d e4 a1 3b 09 3e 8a 3b
       -0.013106622 -0.007073888 0.0049405606 0.004218821
000070 6d 63 d5 b9 42 cb 64 bc 0d d6 f1 bb d7 80 80 ba
       -0.00040700604 -0.013964476 -0.007380253 -0.0009804022
000080 60 83 64 bb 29 75 0a bb 54 be 1e bc 26 ed 9f ba
       -0.0034868345 -0.0021126962 -0.009688932 -0.0012201413
000090 c7 e7 ad 3c c2 6f eb bb 73 ab 4d bc ad ba 7f 3c
       0.021228684 -0.0071849534 -0.012553084 0.015608472
0000a0 3a e3 ba 3b d0 c1 17 3b 11 02 11 3b 61 cc 37 bb
       0.005703357 0.0023156293 0.0022126476 -0.0028045403
0000b0 ad b9 38 bc a5 3c 6e b9 c2 f8 7d ba af 69 c9 3b
       -0.011274737 -0.0002272004 -0.0009688252 0.0061466317
0000c0 40 2e d6 bb 68 03 83 bb 54 ef c5 3b 7f d3 ba bb
       -0.006536275 -0.003998209 0.006040493 -0.005701482
0000d0 1b 27 11 bb ea 4f 1d bc 72 aa d6 3b dd e8 5e 3b
       -0.0022148553 -0.0096015725 0.0065510804 0.003401331
0000e0 2b 3e cf bb 35 de e8 3b d5 eb d9 3b 36 ad 0a bc
       -0.0063245497 0.0071065673 0.006650428 -0.008464148
0000f0 8a fb d0 3b db 03 a5 bb c3 dc 49 bc 8c 24 a1 bc
       0.006377642 -0.00503586 -0.0123207 -0.019670747
000100 4a 96 07 3c 10 97 02 3c aa 95 68 3c fd 94 23 3c
       0.008275578 0.007970586 0.014195839 0.009984252
000110 bf f4 be 3c d3 5c 84 3b 5f e8 3a bc 19 20 c0 ba
       0.023310063 0.004039386 -0.011407941 -0.0014658003
000120 3f 1c 8c 3a 82 ef fc bb d7 21 cd bb 86 df 23 bb
       0.001068957 -0.0077189812 -0.0062601375 -0.0025005057
000130 cb e3 1e 3b 83 9f 3a 3c 0b 8f c6 bb b8 c7 ec 3b
       0.0024244662 0.01139057 -0.0060595325 0.007225957
000140 00 cf 79 bb 9b 15 b2 3b ed 4d 32 bc f3 5d 4b 3c
       -0.0038117766 0.0054347045 -0.010882837 0.012412536
000150 03 88 ed bb 84 8d 13 3c 1a 45 f8 bb 97 0f 9d 3a
       -0.00724888 0.009005908 -0.007576597 0.0011982796
000160 db d3 a3 bb 34 54 83 3a da 7b 76 bb 38 50 0c 3c
       -0.0049996204 0.0010019601 -0.0037610442 0.0085640475
000170 18 b3 49 bc fd 7e e7 3a 06 33 c9 b9 d2 05 2d 3a
       -0.012310766 0.0017661747 -0.00038375723 0.00066002936
000180 1b b5 0a 3c f1 6b b9 3a db cb 0d ba b4 ab c5 3a
       0.0084660305 0.0014146549 -0.00054091 0.0015081079
000190 54 48 9a bc 00 98 51 bc 18 f8 06 bb 18 53 6c 3c
       -0.018833317 -0.012792587 -0.0020594653 0.014424108
0001a0 1b 95 68 3c 5d 8f e4 3b e6 08 19 bb fe 49 90 3b
       0.014195706 0.006975098 -0.002335125 0.004403352
0001b0 35 7e 85 3b 97 dd 84 3a f0 3f 32 bc a5 ce e1 3b
       0.004073883 0.001013684 -0.010879502 0.006891089
0001c0 96 c0 26 bc 47 ea 8b bc 92 64 85 3c 07 58 69 3c
       -0.010177752 -0.017079486 0.016283307 0.014242179
0001d0 88 f3 14 bc aa 2f 94 bc 92 7c 16 bc 20 fc 7a 3a
       -0.0090912655 -0.018089134 -0.009184973 0.0009574313
0001e0 2a 89 39 bb 40 0d 5b 3c 75 1b 85 bc 64 02 be bb
       -0.0028310516 0.013369858 -0.016248444 -0.005798625
0001f0 f2 53 14 3c ad e5 6f 39 83 96 70 bb 6b aa 05 bc
       0.009053217 0.00022878377 -0.0036710806 -0.008158307

exp_avg f4 [128, 16]
000000 00 00 00 00 00 00 00 00 00 00 00 00 00 00 00 00
       0.0 0.0 0.0 0.0
000010 00 00 00 00 00 00 00 00 00 00 00 00 00 00 00 00
       0.0 0.0 0.0 0.0
000020 00 00 00 00 00 00 00 00 00 00 00 00 00 00 00 00
       0.0 0.0 0.0 0.0
000030 00 00 00 00 00 00 00 00 00 00 00 00 00 00 00 00
       0.0 0.0 0.0 0.0
000040 00 00 00 00 00 00 00 00 00 00 00 00 00 00 00 00
       0.0 0.0 0.0 0.0
000050 00 00 00 00 00 00 00 00 00 00 00 00 00 00 00 00
       0.0 0.0 0.0 0.0
000060 00 00 00 00 00 00 00 00 00 00 00 00 00 00 00 00
       0.0 0.0 0.0 0.0
000070 00 00 00 00 00 00 00 00 00 00 00 00 00 00 00 00
       0.0 0.0 0.0 0.0
000080 dc 75 5e 3c 91 3e 1f bc ab 33 91 bc b4 dd 06 39
       0.013577905 -0.009719507 -0.017724833 0.00012861827
000090 41 30 1e b9 a0 7e 88 b9 00 00 00 00 00 00 00 00
       -0.0001508603 -0.00026034284 0.0 0.0
0000a0 00 00 00 00 00 00 00 00 00 00 00 00 00 00 00 00
       0.0 0.0 0.0 0.0
0000b0 00 00 00 00 00 00 00 00 00 00 00 00 00 00 00 00
       0.0 0.0 0.0 0.0
0000c0 d5 1b cd 3b ab 9a 92 bb 94 84 05 bc 8d 4d 78 38
       0.0062594214 -0.0044740043 -0.008149285 5.9200032e-05
0000d0 fa 9e 91 b8 25 4d fb b8 00 00 00 00 00 00 00 00
       -6.9437505e-05 -0.00011982982 0.0 0.0
0000e0 00 00 00 00 00 00 00 00 00 00 00 00 00 00 00 00
       0.0 0.0 0.0 0.0
0000f0 00 00 00 00 00 00 00 00 00 00 00 00 00 00 00 00
       0.0 0.0 0.0 0.0
000100 54 2d 5e bc 08 60 1f 3c a3 8f 91 3c af fd 06 b9
       -0.013560612 0.0097274855 0.017768687 -0.0001287374
000110 bf 55 1e 39 fe 9e 88 39 00 00 00 00 00 00 00 00
       0.00015099997 0.000260584 0.0 0.0
000120 00 00 00 00 00 00 00 00 00 00 00 00 00 00 00 00
       0.0 0.0 0.0 0.0
000130 00 00 00 00 00 00 00 00 00 00 00 00 00 00 00 00
       0.0 0.0 0.0 0.0
000140 4a 17 99 bc 39 02 5b 3c b7 93 c7 3c 6f 79 39 b9
       -0.018687863 0.013367229 0.024362428 -0.00017688212
000150 66 8c 59 39 d0 b6 bb 39 00 00 00 00 00 00 00 00
       0.00020747035 0.00035803625 0.0 0.0
000160 00 00 00 00 00 00 00 00 00 00 00 00 00 00 00 00
       0.0 0.0 0.0 0.0
000170 00 00 00 00 00 00 00 00 00 00 00 00 00 00 00 00
       0.0 0.0 0.0 0.0
000180 e3 e8 e9 3b 86 7f a8 bb 7d 66 1a bc 5e bf 8e 38
       0.007138358 -0.005142155 -0.009423849 6.8067326e-05
000190 d7 6e a7 b8 a9 78 10 b9 00 00 00 00 00 00 00 00
       -7.983826e-05 -0.0001377786 0.0 0.0
0001a0 00 00 00 00 00 00 00 00 00 00 00 00 00 00 00 00
       0.0 0.0 0.0 0.0
0001b0 00 00 00 00 00 00 00 00 00 00 00 00 00 00 00 00
       0.0 0.0 0.0 0.0
0001c0 d9 94 c8 bb a6 b1 8f 3b 7e 1a 03 3c f7 66 73 b8
       -0.0061212596 0.004385191 0.008001922 -5.803161e-05
0001d0 33 bf 8e 38 67 57 f6 38 00 00 00 00 00 00 00 00
       6.806701e-05 0.00011746474 0.0 0.0
0001e0 00 00 00 00 00 00 00 00 00 00 00 00 00 00 00 00
       0.0 0.0 0.0 0.0
0001f0 00 00 00 00 00 00 00 00 00 00 00 00 00 00 00 00
       0.0 0.0 0.0 0.0
000200 53 c4 83 3b 5b f5 3b bb 7b e3 aa bb bb 27 1f 38
       0.0040212064 -0.0028680179 -0.005215106 3.7945556e-05
000210 8f ad 3a b8 c0 13 a1 b8 00 00 00 00 00 00 00 00
       -4.4507495e-05 -7.680757e-05 0.0 0.0
000220 00 00 00 00 00 00 00 00 00 00 00 00 00 00 00 00
       0.0 0.0 0.0 0.0
000230 00 00 00 00 00 00 00 00 00 00 00 00 00 00 00 00
       0.0 0.0 0.0 0.0
000240 00 00 00 00 00 00 00 00 00 00 00 00 00 00 00 00
       0.0 0.0 0.0 0.0
000250 00 00 00 00 00 00 00 00 00 00 00 00 00 00 00 00
       0.0 0.0 0.0 0.0
000260 00 00 00 00 00 00 00 00 00 00 00 00 00 00 00 00
       0.0 0.0 0.0 0.0
000270 00 00 00 00 00 00 00 00 00 00 00 00 00 00 00 00
       0.0 0.0 0.0 0.0
000280 ac f9 4b bb dc 25 13 3b 5b fd 86 3b b0 56 f9 b7
       -0.0031124158 0.0022452986 0.004119558 -2.972348e-05
000290 7a 3a 12 38 80 59 7c 38 00 00 00 00 00 00 00 00
       3.4863573e-05 6.0164835e-05 0.0 0.0
0002a0 00 00 00 00 00 00 00 00 00 00 00 00 00 00 00 00
       0.0 0.0 0.0 0.0
0002b0 00 00 00 00 00 00 00 00 00 00 00 00 00 00 00 00
       0.0 0.0 0.0 0.0
0002c0 00 00 00 00 00 00 00 00 00 00 00 00 00 00 00 00
       0.0 0.0 0.0 0.0
0002d0 00 00 00 00 00 00 00 00 00 00 00 00 00 00 00 00
       0.0 0.0 0.0 0.0
0002e0 00 00 00 00 00 00 00 00 00 00 00 00 00 00 00 00
       0.0 0.0 0.0 0.0
0002f0 00 00 00 00 00 00 00 00 00 00 00 00 00 00 00 00
       0.0 0.0 0.0 0.0
000300 1c 90 5a ba 30 58 21 3a 93 a3 96 3a be d9 08 b7
       -0.0008337514 0.00061548036 0.0011492841 -8.156929e-06
000310 33 84 20 37 db 80 8a 37 00 00 00 00 00 00 00 00
       9.567523e-06 1.6510885e-05 0.0 0.0
000320 00 00 00 00 00 00 00 00 00 00 00 00 00 00 00 00
       0.0 0.0 0.0 0.0
000330 00 00 00 00 00 00 00 00 00 00 00 00 00 00 00 00
       0.0 0.0 0.0 0.0
000340 a8 3d c1 3b 23 59 8a bb 35 54 fc bb cd 56 6a 38
       0.0058972426 -0.0042220517 -0.007700468 5.5870787e-05
000350 86 6e 89 b8 39 2b ed b8 00 00 00 00 00 00 00 00
       -6.553256e-05 -0.000113090915 0.0 0.0
000360 00 00 00 00 00 00 00 00 00 00 00 00 00 00 00 00
       0.0 0.0 0.0 0.0
000370 00 00 00 00 00 00 00 00 00 00 00 00 00 00 00 00
       0.0 0.0 0.0 0.0
000380 2a 79 3f bc 5b fd 08 3c 61 b7 79 3c d1 07 e8 b8
       -0.011686603 0.008361186 0.015241475 -0.00011064078
000390 ec 13 08 39 1e d5 6a 39 00 00 00 00 00 00 00 00
       0.00012977392 0.00022395371 0.0 0.0
0003a0 00 00 00 00 00 00 00 00 00 00 00 00 00 00 00 00
       0.0 0.0 0.0 0.0
0003b0 00 00 00 00 00 00 00 00 00 00 00 00 00 00 00 00
       0.0 0.0 0.0 0.0
0003c0 ef ab e6 3b fe 5e a5 bb 95 f7 16 bc b0 10 8c 38
       0.007039539 -0.0050467243 -0.009214302 6.6788285e-05
0003d0 66 49 a4 b8 b2 c1 0d b9 00 00 00 00 00 00 00 00
       -7.833801e-05 -0.00013518965 0.0 0.0
0003e0 00 00 00 00 00 00 00 00 00 00 00 00 00 00 00 00
       0.0 0.0 0.0 0.0
0003f0 00 00 00 00 00 00 00 00 00 00 00 00 00 00 00 00
       0.0 0.0 0.0 0.0

exp_avg_sq f4 [128, 16]
000000 00 00 00 00 00 00 00 00 00 00 00 00 00 00 00 00
       0.0 0.0 0.0 0.0
000010 00 00 00 00 00 00 00 00 00 00 00 00 00 00 00 00
       0.0 0.0 0.0 0.0
000020 00 00 00 00 00 00 00 00 00 00 00 00 00 00 00 00
       0.0 0.0 0.0 0.0
000030 00 00 00 00 00 00 00 00 00 00 00 00 00 00 00 00
       0.0 0.0 0.0 0.0
000040 00 00 00 00 00 00 00 00 00 00 00 00 00 00 00 00
       0.0 0.0 0.0 0.0
000050 00 00 00 00 00 00 00 00 00 00 00 00 00 00 00 00
       0.0 0.0 0.0 0.0
000060 00 00 00 00 00 00 00 00 00 00 00 00 00 00 00 00
       0.0 0.0 0.0 0.0
000070 00 00 00 00 00 00 00 00 00 00 00 00 00 00 00 00
       0.0 0.0 0.0 0.0
000080 29 9e f9 3b 3f 15 80 3b 81 dd 55 3c ec c1 37 35
       0.007617731 0.0039087827 0.013053299 6.8455006e-07
000090 a9 ce 7c 35 ec 38 3c 36 00 00 00 00 00 00 00 00
       9.4178046e-07 2.8047316e-06 0.0 0.0
0000a0 00 00 00 00 00 00 00 00 00 00 00 00 00 00 00 00
       0.0 0.0 0.0 0.0
0000b0 00 00 00 00 00 00 00 00 00 00 00 00 00 00 00 00
       0.0 0.0 0.0 0.0
0000c0 c3 71 b2 3a ef 4d 36 3a 6c 2d 17 3b e8 bd 02 34
       0.0013614226 0.0006954362 0.0023067845 1.2176281e-07
0000d0 bf de 33 34 20 eb 05 35 00 00 00 00 00 00 00 00
       1.6751709e-07 4.9888513e-07 0.0 0.0
0000e0 00 00 00 00 00 00 00 00 00 00 00 00 00 00 00 00
       0.0 0.0 0.0 0.0
0000f0 00 00 00 00 00 00 00 00 00 00 00 00 00 00 00 00
       0.0 0.0 0.0 0.0
000100 0d 2d 3d 3c 4a 0d c3 3b ba 68 a4 3c b1 f5 8b 35
       0.0115463855 0.005952512 0.020069469 1.0427813e-06
000110 40 8d c0 35 45 5c 8f 36 00 00 00 00 00 00 00 00
       1.4346224e-06 4.2724737e-06 0.0 0.0
000120 00 00 00 00 00 00 00 00 00 00 00 00 00 00 00 00
       0.0 0.0 0.0 0.0
000130 00 00 00 00 00 00 00 00 00 00 00 00 00 00 00 00
       0.0 0.0 0.0 0.0
000140 d2 f5 39 3c d1 28 be 3b 15 f0 9d 3c 33 61 88 35
       0.011350112 0.0058032055 0.01927952 1.0161078e-06
000150 61 a0 bb 35 81 b1 8b 36 00 00 00 00 00 00 00 00
       1.3979262e-06 4.163187e-06 0.0 0.0
000160 00 00 00 00 00 00 00 00 00 00 00 00 00 00 00 00
       0.0 0.0 0.0 0.0
000170 00 00 00 00 00 00 00 00 00 00 00 00 00 00 00 00
       0.0 0.0 0.0 0.0
000180 42 0c 4b 3c 5f f4 d1 3b d9 a1 b2 3c ce b0 96 35
       0.012393059 0.006407305 0.02180569 1.1227328e-06
000190 9b 50 cf 35 1b 5a 9a 36 00 00 00 00 00 00 00 00
       1.5446161e-06 4.6000473e-06 0.0 0.0
0001a0 00 00 00 00 00 00 00 00 00 00 00 00 00 00 00 00
       0.0 0.0 0.0 0.0
0001b0 00 00 00 00 00 00 00 00 00 00 00 00 00 00 00 00
       0.0 0.0 0.0 0.0
0001c0 8d ae d2 3a 0e 7c 58 3a d3 7e 35 3b 21 4e 1b 34
       0.0016073749 0.00082582317 0.0027694001 1.4463923e-07
0001d0 de a9 55 34 23 14 1f 35 00 00 00 00 00 00 00 00
       1.9898968e-07 5.926142e-07 0.0 0.0
0001e0 00 00 00 00 00 00 00 00 00 00 00 00 00 00 00 00
       0.0 0.0 0.0 0.0
0001f0 00 00 00 00 00 00 00 00 00 00 00 00 00 00 00 00
       0.0 0.0 0.0 0.0
000200 14 64 22 3a 80 4e a5 39 7b d4 89 3a 29 16 6d 33
       0.00061947224 0.0003152974 0.0010515595 5.5201017e-08
000210 78 16 a3 33 e2 d8 72 34 00 00 00 00 00 00 00 00
       7.594366e-08 2.2616908e-07 0.0 0.0
000220 00 00 00 00 00 00 00 00 00 00 00 00 00 00 00 00
       0.0 0.0 0.0 0.0
000230 00 00 00 00 00 00 00 00 00 00 00 00 00 00 00 00
       0.0 0.0 0.0 0.0
000240 00 00 00 00 00 00 00 00 00 00 00 00 00 00 00 00
       0.0 0.0 0.0 0.0
000250 00 00 00 00 00 00 00 00 00 00 00 00 00 00 00 00
       0.0 0.0 0.0 0.0
000260 00 00 00 00 00 00 00 00 00 00 00 00 00 00 00 00
       0.0 0.0 0.0 0.0
000270 00 00 00 00 00 00 00 00 00 00 00 00 00 00 00 00
       0.0 0.0 0.0 0.0
000280 ad 03 24 3b ee 94 a9 3a 7f ae 90 3b ac 6e 73 34
       0.0025026605 0.0012938061 0.004415333 2.2671401e-07
000290 f1 73 a7 34 dd 58 79 35 00 00 00 00 00 00 00 00
       3.1190532e-07 9.288904e-07 0.0 0.0
0002a0 00 00 00 00 00 00 00 00 00 00 00 00 00 00 00 00
       0.0 0.0 0.0 0.0
0002b0 00 00 00 00 00 00 00 00 00 00 00 00 00 00 00 00
       0.0 0.0 0.0 0.0
0002c0 00 00 00 00 00 00 00 00 00 00 00 00 00 00 00 00
       0.0 0.0 0.0 0.0
0002d0 00 00 00 00 00 00 00 00 00 00 00 00 00 00 00 00
       0.0 0.0 0.0 0.0
0002e0 00 00 00 00 00 00 00 00 00 00 00 00 00 00 00 00
       0.0 0.0 0.0 0.0
0002f0 00 00 00 00 00 00 00 00 00 00 00 00 00 00 00 00
       0.0 0.0 0.0 0.0
000300 b6 5c 1d 3b 98 82 a2 3a da 30 8b 3b a5 48 69 34
       0.002401156 0.0012398539 0.004247767 2.1726244e-07
000310 c9 78 a0 34 b5 f3 6e 35 00 00 00 00 00 00 00 00
       2.9890205e-07 8.901655e-07 0.0 0.0
000320 00 00 00 00 00 00 00 00 00 00 00 00 00 00 00 00
       0.0 0.0 0.0 0.0
000330 00 00 00 00 00 00 00 00 00 00 00 00 00 00 00 00
       0.0 0.0 0.0 0.0
000340 de 43 1f 3b 44 b9 a3 3a d1 67 8a 3b 84 f0 6a 34
       0.0024301927 0.0012491127 0.0042238017 2.1880447e-07
000350 60 9c a1 34 de a5 70 35 00 00 00 00 00 00 00 00
       3.0102365e-07 8.9648336e-07 0.0 0.0
000360 00 00 00 00 00 00 00 00 00 00 00 00 00 00 00 00
       0.0 0.0 0.0 0.0
000370 00 00 00 00 00 00 00 00 00 00 00 00 00 00 00 00
       0.0 0.0 0.0 0.0
000380 eb 2d a9 3b 08 3a 2d 3b 7c a9 10 3c 18 80 f8 34
       0.0051629446 0.0026432294 0.008829471 4.62868e-07
000390 6a f0 2a 35 c9 89 fe 35 00 00 00 00 00 00 00 00
       6.3679784e-07 1.8964575e-06 0.0 0.0
0003a0 00 00 00 00 00 00 00 00 00 00 00 00 00 00 00 00
       0.0 0.0 0.0 0.0
0003b0 00 00 00 00 00 00 00 00 00 00 00 00 00 00 00 00
       0.0 0.0 0.0 0.0
0003c0 e8 0f 67 3b e0 2f ee 3a 32 ba c8 3b 35 e9 aa 34
       0.0035257284 0.0018172227 0.006125712 3.1834648e-07
0003d0 25 22 eb 34 4c 10 af 35 00 00 00 00 00 00 00 00
       4.3797004e-07 1.3043259e-06 0.0 0.0
0003e0 00 00 00 00 00 00 00 00 00 00 00 00 00 00 00 00
       0.0 0.0 0.0 0.0
0003f0 00 00 00 00 00 00 00 00 00 00 00 00 00 00 00 00
       0.0 0.0 0.0 0.0

exp_avg f4 [128]
000000 00 00 00 00 00 00 00 00 c0 13 26 b7 09 e2 98 b6
       0.0 0.0 -9.898969e-06 -4.556267e-06
000010 21 3b 26 37 b7 65 64 37 5a c8 af b6 91 dd 95 36
       9.908138e-06 1.3613541e-05 -5.2387304e-06 4.4663398e-06
000020 c2 fc 43 b6 00 00 00 00 47 85 19 36 00 00 00 00
       -2.9204389e-06 0.0 2.2876354e-06 0.0
000030 68 85 28 35 05 49 90 b6 25 dd 0e 37 c0 7a ac b6
       6.277901e-07 -4.300035e-06 8.515349e-06 -5.1402894e-06
000040 00 00 00 00 57 db 4d 35 4c d4 39 37 b6 74 e9 36
       0.0 7.668763e-07 1.10762885e-05 6.957528e-06
000050 00 00 00 00 00 00 00 00 00 00 00 00 8a aa 09 37
       0.0 0.0 0.0 8.205543e-06
000060 03 5f 67 b6 37 f1 a2 b6 00 00 00 00 14 23 29 b6
       -3.4476986e-06 -4.8560573e-06 0.0 -2.520338e-06
000070 00 00 00 00 9b d3 09 37 0a 41 0d b7 00 00 00 00
       0.0 8.215105e-06 -8.419398e-06 0.0
000080 18 90 97 36 00 00 00 00 00 00 00 00 c8 0d ab 36
       4.5169254e-06 0.0 0.0 5.0978015e-06
000090 0d 79 4d 36 00 00 00 00 9e e0 81 1c 00 00 00 00
       3.0617841e-06 0.0 8.594566e-22 0.0
0000a0 00 00 00 00 72 bf a0 36 00 00 00 00 00 00 00 00
       0.0 4.7906587e-06 0.0 0.0
0000b0 47 d2 8f b6 00 00 00 00 61 a7 df 36 00 00 00 00
       -4.2862116e-06 0.0 6.6654034e-06 0.0
0000c0 3e b8 81 37 00 00 00 00 00 00 00 00 00 00 00 00
       1.5463793e-05 0.0 0.0 0.0
0000d0 00 00 00 00 10 ec 45 37 00 00 00 00 30 8b 42 b6
       0.0 1.1797078e-05 0.0 -2.898927e-06
0000e0 00 00 00 00 00 00 00 00 00 00 00 00 00 00 00 00
       0.0 0.0 0.0 0.0
0000f0 00 00 00 00 00 00 00 00 b5 85 b8 b7 50 14 f2 36
       0.0 0.0 -2.1996771e-05 7.2145267e-06
000100 07 60 e0 36 00 00 00 00 00 00 00 00 00 00 00 00
       6.6868993e-06 0.0 0.0 0.0
000110 fa c1 91 36 00 00 00 00 33 9b e9 2d 00 00 00 00
       4.3439186e-06 0.0 2.6557955e-11 0.0
000120 c1 f1 82 b4 00 00 00 00 e1 87 01 b7 58 4e 50 36
       -2.4390286e-07 0.0 -7.720636e-06 3.1040017e-06
000130 00 00 00 00 00 00 00 00 79 19 fa 35 8c 23 dd b5
       0.0 0.0 1.8633865e-06 -1.6476129e-06
000140 61 e1 9f b6 00 00 00 00 00 00 00 00 7c 97 d6 35
       -4.764807e-06 0.0 0.0 1.598833e-06
000150 00 00 00 00 b0 1d ce b6 48 df 68 b6 00 00 00 00
       0.0 -6.1427345e-06 -3.470066e-06 0.0
000160 3a bb a1 b6 15 fb 8b b6 a9 53 05 35 00 00 00 00
       -4.81997e-06 -4.1717526e-06 4.96681e-07 0.0
000170 00 00 00 00 81 53 97 36 00 00 00 00 a8 81 83 36
       0.0 4.509872e-06 0.0 3.919198e-06
000180 00 00 00 00 00 00 00 00 72 72 7b 35 00 00 00 00
       0.0 0.0 9.3671326e-07 0.0
000190 51 87 50 9d 00 00 00 00 00 00 00 00 aa d7 73 37
       -2.7598528e-21 0.0 0.0 1.4534142e-05
0001a0 7c f9 02 34 78 6b 83 36 00 00 00 00 00 00 00 00
       1.2197955e-07 3.9166152e-06 0.0 0.0
0001b0 9f d7 bc b6 9f 99 1a b7 00 00 00 00 fe 50 ba b6
       -5.627938e-06 -9.214883e-06 0.0 -5.5526607e-06
0001c0 00 00 00 00 00 00 00 00 e5 7c 5b b6 ea f7 3f b7
       0.0 0.0 -3.2706241e-06 -1.1442209e-05
0001d0 a3 04 03 28 00 00 00 00 a8 03 48 37 00 00 00 00
       7.272966e-15 0.0 1.192178e-05 0.0
0001e0 bf fc 57 34 00 00 00 00 9c 7c 90 b5 00 00 00 00
       2.0115384e-07 0.0 -1.0765102e-06 0.0
0001f0 7d cc c2 36 a5 50 5b b6 b8 24 a5 b6 5f 7b 72 36
       5.805456e-06 -3.2680484e-06 -4.921658e-06 3.6132622e-06
