results/ppo/EscapeRoomAgent/EscapeRoomAgent-3576.onnx (onnx, 85758 bytes, 9 tensors)

discrete_act_size_vector f4 [1, 2]
0	0x3f800000	1.0
1	0x3f800000	1.0

network_body._body_endoder.seq_layers.0.weight f4 [128, 16]
0	0x3c4af8a4	0.012388382
1	0xbebd6053	-0.36987552
2	0x3e0f2312	0.13978222
3	0xbe6c9423	-0.23103385
4	0xbe7e640c	-0.24842852
5	0xbe807ef3	-0.25096855
6	0x3ea78ac6	0.32723063
7	0xbeb36446	-0.3503744
8	0x3e808367	0.25100252
9	0xbe5a7322	-0.21332982
10	0x3edf7397	0.43642876
11	0xbd1cb9bc	-0.038263068
12	0x3df0c06f	0.11755454
13	0x3e04263f	0.12905215
14	0xbeac5ac7	-0.33663008
15	0xbe7453dc	-0.23860115
16	0xbd28e144	-0.041230455
17	0xbe19a148	-0.1500293
18	0x3e57c5b0	0.21071506
19	0x3e5700fe	0.20996472
20	0x3ed9208e	0.4240765
21	0xbd1cf9a5	-0.038324017
22	0xbe7d07ad	-0.2470996
23	0x3f078ead	0.5295208
24	0xbe13d2b9	-0.14435853
25	0xbeae55a3	-0.3404971
26	0x3bdc189d	0.0067168013
27	0xbec4c652	-0.38432556
28	0x3db9d61c	0.09074041
29	0xbd5045da	-0.050847866
30	0x3d848632	0.06470908
31	0x3e6051a0	0.21906137
32	0x3d378705	0.0448065
33	0x3f0d4efe	0.5519866
34	0xbe3ba8e5	-0.18326147
35	0x3db2b189	0.087252684
36	0x3e0a8f08	0.13531125
37	0xbeb9af10	-0.36266375
38	0x3e424381	0.18971063
39	0xbdbcc962	-0.09218098
40	0xbea5dc08	-0.32394433
41	0xbe88052a	-0.2656644
42	0xbe8febcf	-0.28109595
43	0x3ebd7342	0.37001997
44	0xbe48ca5d	-0.19608445
45	0xbd9a9357	-0.07547634
46	0xbe9ce114	-0.3064047
47	0x3eeb9e29	0.46019104
48	0x3e0f7001	0.1400757
49	0x3d647510	0.055775702
50	0x3ecc3503	0.39884195
51	0x3dedbe91	0.11608613
52	0x3d6893b1	0.056781475
53	0x3edd4842	0.4321919
54	0xbe5fa8ea	-0.2184178
55	0x3bea944a	0.0071587907
56	0x3e9f199f	0.31074235
57	0xbed9a560	-0.42508984
58	0xbed1773b	-0.40911278
59	0xbe79da77	-0.24399744
60	0xbccc4bd5	-0.024938503
61	0x3bb04744	0.0053795893
62	0x3e215929	0.15756668
63	0xbe25f981	-0.1620846
64	0xbe9b2bb9	-0.30306795
65	0xbe064d64	-0.1311546
66	0xbe9f5006	-0.3111574
67	0x3dca3565	0.098734654
68	0x3c9f4096	0.019439977
69	0x3d9e8490	0.07740128
70	0xbd78a7b4	-0.06070681
71	0x3d4f8513	0.05066402
72	0xbe20ac63	-0.1569076
73	0xbf00e441	-0.5034829
74	0xbe685d02	-0.2269173
75	0x3e367d05	0.17821129
76	0x3f03b120	0.51442146
77	0x3dfbe651	0.12299789
78	0xbdcf0981	-0.101092346
79	0xbdca8652	-0.09888901
80	0xbca3208b	-0.019912979
81	0x3c8453ac	0.01615318
82	0xbcd110cf	-0.02552071
83	0x3e3bb799	0.18331756
84	0x3f35c2b9	0.7100025
85	0x3ccf25fb	0.025286665
86	0x3e387f48	0.18017304
87	0xbe70689c	-0.23477405
88	0xbeae9286	-0.34096164
89	0x3e0b9f9e	0.13635108
90	0xbe4e7abe	-0.2016401
91	0xbc888f73	-0.016669964
92	0x3cd30b75	0.0257623
93	0xbe0b4284	-0.13599592
94	0x3ea34649	0.3188956
95	0xbe3ef3e1	-0.1864772
96	0x3d8bc585	0.06824783
97	0x3e51f5dc	0.20503944
98	0x3df432d3	0.119237565
99	0xbdb05cd6	-0.08611457
100	0xbd9ad039	-0.075592466
101	0x3e5a6bcc	0.21330184
102	0xbc50483b	-0.012712534
103	0x3db193bf	0.086707585
104	0xbde08834	-0.10963479
105	0xbd075c63	-0.03304709
106	0xbd20df23	-0.0392753
107	0xbeb04221	-0.34425452
108	0x3da98628	0.082775414
109	0x3ef731cd	0.48280182
110	0x3cc0f946	0.023556363
111	0xbe55c260	-0.2087493
112	0xbdac3500	-0.084085464
113	0x3e14ddb2	0.14537695
114	0xbe1734ac	-0.14766186
115	0xbc563a80	-0.013075471
116	0x3d829998	0.06376952
117	0xbf0013b6	-0.50030077
118	0xbe49c33c	-0.19703382
119	0xbcd0c0b8	-0.02548252
120	0x3f2ba9a6	0.6705574
121	0x3d8ad2bf	0.06778478
122	0xbeb5b365	-0.3548843
123	0xbd918a9a	-0.07106514
124	0x3e47b4ba	0.19502535
125	0xbd543507	-0.051808383
126	0xbe37b24c	-0.17939109
127	0xbee37565	-0.44425502
128	0xbe14d2bd	-0.14533515
129	0xbccb5adb	-0.024823597
130	0x3ed84665	0.42241207
131	0xbec67cca	-0.38767081
132	0xbcc398a4	-0.023876496
133	0x3df32d8b	0.11873921
134	0x3ec4fe8f	0.38475463
135	0xbd518061	-0.051147822
136	0xbe2686c5	-0.16262348
137	0x3eb4b9dd	0.35298052
138	0xbed6e460	-0.4197111
139	0xbdca36bd	-0.09873722
140	0xbd73fd8f	-0.059567984
141	0x3db044b5	0.08606855
142	0x3e312846	0.1730052
143	0xbe2fa063	-0.17151026
144	0x3ea47ec9	0.3212798
145	0xbe653abe	-0.2238569
146	0x3e29a5c5	0.16567142
147	0xbde9a82b	-0.114090286
148	0xbe1d486a	-0.15359655
149	0xbcb99757	-0.022655172
150	0x3eb8567a	0.36003476
151	0x3f2c08ee	0.67201126
152	0xbe880d32	-0.26572567
153	0x399bb5b3	0.0002969928
154	0xbec18122	-0.37793833
155	0xbe4f0405	-0.20216377
156	0xbf19a410	-0.60015965
157	0xbd62551c	-0.055256948
158	0xbc5a81c2	-0.013336601
159	0x3cf289f4	0.029606797
160	0x3d8a054f	0.06739294
161	0xbe6bb4d9	-0.23018207
162	0xbf16f466	-0.5896667
163	0xbe291980	-0.16513634
164	0xbf2a218e	-0.6645745
165	0xbe31419a	-0.17310181
166	0xbee05d49	-0.4382117
167	0x3e8a982d	0.27069226
168	0x3ede1b59	0.4338024
169	0x3da6505c	0.08120796
170	0x3df27979	0.11839575
171	0xbe804c19	-0.25058058
172	0x3b370f7d	0.0027932816
173	0xbe58149c	-0.21101612
174	0xbf0d6472	-0.5523139
175	0x3e4eb4d3	0.20186166
176	0xbd33e410	-0.04391867
177	0x3e135ffe	0.14392087
178	0xbd6fbd56	-0.058530174
179	0x3eca7ede	0.39549917
180	0xbed5d76b	-0.41765913
181	0xbe8cb987	-0.27485296
182	0xbca3b54a	-0.019983906
183	0xbdaa4176	-0.08313267
184	0xbe8f20c7	-0.27954695
185	0x3ee0332d	0.43789044
186	0xbd7e0151	-0.062012974
187	0x3e8b1ac4	0.27168858
188	0xbda9bcbd	-0.08287952
189	0x3e89b4b4	0.26895678
190	0x3e8af5b8	0.27140594
191	0xbe635550	-0.22200513
192	0x3e1383f7	0.1440581
193	0xbeb56e97	-0.35435936
194	0xbdc401ba	-0.09570642
195	0x3e8ae80c	0.27130163
196	0xbe862870	-0.26202726
197	0x3e6bd9f0	0.23032355
198	0x3e2cd759	0.16879024
199	0xbe20f27b	-0.15717499
200	0x3d9f5b00	0.07781029
201	0x3e7f3912	0.24924114
202	0xbc59d670	-0.013295755
203	0x3e23202b	0.1593024
204	0x3ecb9e20	0.39769077
205	0x3c82fdf8	0.015990242
206	0x3e0cca4e	0.13749048
207	0xbec2dea6	-0.38060492
208	0xbe29cea2	-0.1658273
209	0xbee86430	-0.45388937
210	0x3ede9814	0.434754
211	0xbd629b18	-0.05532369
212	0x3e8bfaf1	0.2733989
213	0xbf020b87	-0.5079884
214	0xbe3d6a58	-0.18497598
215	0xbe6b2548	-0.2296344
216	0x3e08ebd2	0.13371208
217	0x3e2232c6	0.15839681
218	0xbe3afcb9	-0.18260469
219	0xbe16d6ef	-0.14730428
220	0x3920d5a2	0.00015338373
221	0x3e17d085	0.14825638
222	0xbd1a149b	-0.037617307
223	0xbf0e0444	-0.5547526
224	0xbe95c6d6	-0.29253262
225	0xbe2551e3	-0.16144519
226	0xbd225ee3	-0.039641272
227	0xbe964119	-0.2934654
228	0x3e10a5e1	0.14125778
229	0x3e52e455	0.20594914
230	0xba94b248	-0.0011344636
231	0xbdb4b0d8	-0.08822793
232	0x3d6490a9	0.05580202
233	0xbe7d9280	-0.24762917
234	0xbd08bee8	-0.033385187
235	0xbe1e52ff	-0.15461348
236	0x3c958d65	0.018255899
237	0x3d0e6bd4	0.0347708
238	0x3e96c869	0.29449776
239	0xbe08d326	-0.13361797
240	0x3ccd66ec	0.025073491
241	0x3c5f2539	0.013619714
242	0x3e0c704d	0.13714714
243	0xbd0a6af7	-0.033793416
244	0x3e08b576	0.13350472
245	0xbeb00ab5	-0.3438317
246	0x3d31bb29	0.04339138
247	0x3e495fff	0.19665526
248	0x3e6dd608	0.23226178
249	0xbdc69c98	-0.09697837
250	0x3d11c67a	0.035589673
251	0x3cdb40c2	0.026764277
252	0x3da555b5	0.08072988
253	0xbc28fc41	-0.010314048
254	0x3e7a6bd3	0.24455194
255	0x3e404c53	0.18779115

network_body._body_endoder.seq_layers.0.bias f4 [128]
0	0x00000000	0.0
1	0x00000000	0.0
2	0x00000000	0.0
3	0x00000000	0.0
4	0x00000000	0.0
5	0x00000000	0.0
6	0x00000000	0.0
7	0x00000000	0.0
8	0x00000000	0.0
9	0x00000000	0.0
10	0x00000000	0.0
11	0x00000000	0.0
12	0x00000000	0.0
13	0x00000000	0.0
14	0x00000000	0.0
15	0x00000000	0.0
16	0x00000000	0.0
17	0x00000000	0.0
18	0x00000000	0.0
19	0x00000000	0.0
20	0x00000000	0.0
21	0x00000000	0.0
22	0x00000000	0.0
23	0x00000000	0.0
24	0x00000000	0.0
25	0x00000000	0.0
26	0x00000000	0.0
27	0x00000000	0.0
28	0x00000000	0.0
29	0x00000000	0.0
30	0x00000000	0.0
31	0x00000000	0.0
32	0x00000000	0.0
33	0x00000000	0.0
34	0x00000000	0.0
35	0x00000000	0.0
36	0x00000000	0.0
37	0x00000000	0.0
38	0x00000000	0.0
39	0x00000000	0.0
40	0x00000000	0.0
41	0x00000000	0.0
42	0x00000000	0.0
43	0x00000000	0.0
44	0x00000000	0.0
45	0x00000000	0.0
46	0x00000000	0.0
47	0x00000000	0.0
48	0x00000000	0.0
49	0x00000000	0.0
50	0x00000000	0.0
51	0x00000000	0.0
52	0x00000000	0.0
53	0x00000000	0.0
54	0x00000000	0.0
55	0x00000000	0.0
56	0x00000000	0.0
57	0x00000000	0.0
58	0x00000000	0.0
59	0x00000000	0.0
60	0x00000000	0.0
61	0x00000000	0.0
62	0x00000000	0.0
63	0x00000000	0.0
64	0x00000000	0.0
65	0x00000000	0.0
66	0x00000000	0.0
67	0x00000000	0.0
68	0x00000000	0.0
69	0x00000000	0.0
70	0x00000000	0.0
71	0x00000000	0.0
72	0x00000000	0.0
73	0x00000000	0.0
74	0x00000000	0.0
75	0x00000000	0.0
76	0x00000000	0.0
77	0x00000000	0.0
78	0x00000000	0.0
79	0x00000000	0.0
80	0x00000000	0.0
81	0x00000000	0.0
82	0x00000000	0.0
83	0x00000000	0.0
84	0x00000000	0.0
85	0x00000000	0.0
86	0x00000000	0.0
87	0x00000000	0.0
88	0x00000000	0.0
89	0x00000000	0.0
90	0x00000000	0.0
91	0x00000000	0.0
92	0x00000000	0.0
93	0x00000000	0.0
94	0x00000000	0.0
95	0x00000000	0.0
96	0x00000000	0.0
97	0x00000000	0.0
98	0x00000000	0.0
99	0x00000000	0.0
100	0x00000000	0.0
101	0x00000000	0.0
102	0x00000000	0.0
103	0x00000000	0.0
104	0x00000000	0.0
105	0x00000000	0.0
106	0x00000000	0.0
107	0x00000000	0.0
108	0x00000000	0.0
109	0x00000000	0.0
110	0x00000000	0.0
111	0x00000000	0.0
112	0x00000000	0.0
113	0x00000000	0.0
114	0x00000000	0.0
115	0x00000000	0.0
116	0x00000000	0.0
117	0x00000000	0.0
118	0x00000000	0.0
119	0x00000000	0.0
120	0x00000000	0.0
121	0x00000000	0.0
122	0x00000000	0.0
123	0x00000000	0.0
124	0x00000000	0.0
125	0x00000000	0.0
126	0x00000000	0.0
127	0x00000000	0.0

network_body._body_endoder.seq_layers.2.weight f4 [128, 128]
0	0x3d3589a7	0.04432073
1	0x3baffdfb	0.005370853
2	0x3d8fbc75	0.07018367
3	0x3d2ed62b	0.042684715
4	0x3d1a29b2	0.03763742
5	0x3e166658	0.14687479
6	0xbe25175f	-0.16122197
7	0x3d91f753	0.071272515
8	0x3d251be5	0.040309805
9	0xbd9068b6	-0.07051222
10	0x3d56a8f1	0.05240721
11	0x3c8c3614	0.01711563
12	0xbc2f4179	-0.010696762
13	0x3db5db4a	0.08879717
14	0x3e05dc84	0.13072401
15	0x3bd76951	0.006573834
16	0xbd9ccebb	-0.07656618
17	0x3d15f140	0.036607027
18	0xbc78d5f1	-0.015187726
19	0xbd5cb373	-0.053882074
20	0x3d0fed44	0.035138384
21	0xbd8eec8f	-0.06978714
22	0x3d2221f6	0.03958317
23	0x3d074ba1	0.03303111
24	0x3d353045	0.044235487
25	0x3dfcc9ce	0.12343179
26	0xbd981b25	-0.074270524
27	0x3dcb03c3	0.09912827
28	0xbd872b33	-0.066000365
29	0xbd7a734b	-0.06114511
30	0x3dcc0dfa	0.09963603
31	0x3bd0306d	0.006353429
32	0x3d3f0700	0.046637535
33	0x3e1c42dc	0.1525988
34	0xbe6e636e	-0.23280117
35	0xbc828bb8	-0.015935764
36	0xbc18215c	-0.009285297
37	0xbd38f09f	-0.04515135
38	0xbded3867	-0.115830235
39	0xbd389b9a	-0.04507027
40	0x3ca593ee	0.02021214
41	0x3cc85fd0	0.02445975
42	0x3cb60e8a	0.02222373
43	0x3d4f43de	0.050601833
44	0xbd933ac5	-0.07188944
45	0xbdc6507a	-0.096833184
46	0x3db70bb2	0.089377776
47	0xbdf5af73	-0.11996355
48	0x3e04e6a6	0.1297861
49	0xbd912d02	-0.07088663
50	0x3d86e730	0.06587064
51	0xbcbe5582	-0.023234133
52	0x3cc74cc2	0.024328593
53	0x3e49d93c	0.19711775
54	0xbc7dbda7	-0.015487111
55	0xbafd0619	-0.0019304185
56	0xbd7f31fd	-0.062303532
57	0xbd093e5a	-0.03350673
58	0xbda359e0	-0.07976127
59	0xbde02c99	-0.10946006
60	0x3e2a1ea3	0.1661325
61	0x3cb8790b	0.022518655
62	0xbdda7301	-0.106664665
63	0xbdbde53d	-0.09272239
64	0x39d63c74	0.00040862302
65	0xbd785ccf	-0.060635384
66	0xbbde6f11	-0.0067881425
67	0x3d0ab1fa	0.033861138
68	0xbd8df551	-0.06931556
69	0xbd8dda3a	-0.06926389
70	0x3db0a21a	0.086246684
71	0xbd460e35	-0.048353393
72	0xbdd3ef6b	-0.103484
73	0x3ce63df6	0.028105717
74	0xbe106dc7	-0.14104377
75	0xbdcc0569	-0.099619694
76	0x3c92fa52	0.017941628
77	0xbc83fb69	-0.016111093
78	0x3d158b30	0.036509693
79	0x3d8ed80a	0.069748
80	0x3cfe20df	0.031021534
81	0xbdad96ec	-0.08476052
82	0x3e59f6b3	0.21285515
83	0xbd55675a	-0.052100517
84	0x3db650d9	0.08902139
85	0xbdab0d25	-0.083521165
86	0x3c880c86	0.016607534
87	0xbdb170d4	-0.086640984
88	0x3dceece4	0.10103777
89	0xbe1ec528	-0.15504897
90	0x3bf6f232	0.007536196
91	0x3e11dd7a	0.14244643
92	0x3e2bac4b	0.16764943
93	0xbd087b80	-0.033320904
94	0xbd8a8f0b	-0.067655645
95	0xbc890da3	-0.016730135
96	0x3e52391e	0.20529601
97	0xbcf9e77f	-0.030505894
98	0xbd0a3f83	-0.033751976
99	0xbd3e8cf3	-0.04652114
100	0xbb7d26c1	-0.0038627835
101	0xbd65d260	-0.056108832
102	0xbe1d7c45	-0.15379436
103	0x3dc56483	0.09638312
104	0x3b9d3452	0.004797497
105	0xbd943fdf	-0.07238745
106	0x3e0f9d77	0.14024912
107	0x3bb7e5ca	0.00561211
108	0xbc1686c2	-0.009187402
109	0x3d805ecf	0.06268083
110	0x3cbbd764	0.022929855
111	0x3d2ddc35	0.042446334
112	0x3caf2b62	0.021382991
113	0x3c5798ff	0.013159036
114	0x3d648b5e	0.055796973
115	0x3d068531	0.032841865
116	0xbe118f0a	-0.14214721
117	0x3ccbecfe	0.02489328
118	0x3e041460	0.12898397
119	0xbe284606	-0.16432962
120	0xbcf32324	-0.029679842
121	0xbe05abbc	-0.13053793
122	0x3c3e204c	0.01160438
123	0xbd91a205	-0.07110981
124	0x3dc93b5d	0.09825776
125	0x3dd2d9b4	0.1029543
126	0xbd35edbf	-0.044416185
127	0xbe390deb	-0.18071716
128	0xbc85d1ee	-0.016335454
129	0x3d2b8d90	0.04188305
130	0x3db0a769	0.08625681
131	0x3e5cb064	0.21551663
132	0xbd8b77cc	-0.06809959
133	0xbd3d3e9c	-0.046202287
134	0xbe1a9061	-0.15094139
135	0x3a0a66c3	0.0005279595
136	0xbd71fd66	-0.05907955
137	0x3e02410e	0.12720129
138	0xbc0c987c	-0.008581277
139	0xbc728aa6	-0.014803564
140	0x3c662276	0.014046302
141	0x3d8f2963	0.06990316
142	0xbd9f2b21	-0.07771898
143	0xbcc728ae	-0.02431139
144	0xbb9cd55a	-0.0047861757
145	0xbe2cbfaf	-0.16869996
146	0xbd19085b	-0.037361484
147	0x3d8b914c	0.068148226
148	0x3c446d20	0.011988908
149	0x3e0f69ef	0.14005254
150	0xbcd604fa	-0.02612542
151	0xbcbf4775	-0.023349503
152	0xbe51dd71	-0.2049463
153	0xbde835dc	-0.11338398
154	0xbac8e595	-0.001532721
155	0x3da06b5a	0.07832976
156	0xbc3e8fd8	-0.011630975
157	0xbd822bad	-0.06355987
158	0xbe09a0c5	-0.13440235
159	0x3d337b09	0.043818507
160	0xbdc0da7d	-0.09416673
161	0x3d91f099	0.071259685
162	0xbd0b2c42	-0.033977754
163	0x3cbdedcb	0.023184678
164	0x3e191bc6	0.14952001
165	0x3cbeaf56	0.023276966
166	0x3d35891a	0.044320203
167	0x3df50011	0.11962903
168	0x3d41ca62	0.047312148
169	0x3ad96bff	0.0016587971
170	0x3d4e0b7a	0.050303914
171	0x3b66e3f7	0.0035231092
172	0x3ce45f2c	0.027877413
173	0xbdac4452	-0.084114686
174	0x3c550488	0.013001569
175	0xbd47cd3e	-0.04877972
176	0x3c263fe8	0.010147072
177	0x3e0cb718	0.1374172
178	0xbc8c79af	-0.017147867
179	0xbdee581c	-0.11637899
180	0x3b880e5f	0.004152104
181	0xbb4bbd19	-0.0031088053
182	0x3beaca9b	0.0071652657
183	0xbd8a069c	-0.06739542
184	0xbd8e557e	-0.069499
185	0x3e0c2db4	0.1368931
186	0xbda2ec18	-0.079551876
187	0x3e223a7e	0.15842625
188	0x3d675904	0.056481376
189	0xbd53ff94	-0.05175741
190	0xbca83bd6	-0.020536344
191	0xbbe45825	-0.0069685155
192	0x3d7d221b	0.061800104
193	0xbe0ab983	-0.1354733
194	0xbd0bf2a9	-0.034166966
195	0x3c8263d0	0.015916735
196	0xbce619a8	-0.028088406
197	0x3dbcebae	0.0922464
198	0x3db2c1a1	0.08728338
199	0x3c2b3ded	0.010451776
200	0x3d9952a2	0.07486464
201	0xbd78ab7e	-0.060710423
202	0x3ccf9076	0.025337439
203	0xbe2d34ea	-0.16914716
204	0x3da7dd83	0.08196547
205	0xbb40c400	-0.00294137
206	0x3d55c152	0.052186318
207	0xbda424fb	-0.08014866
208	0xbd1c769b	-0.03819905
209	0xbc961f0c	-0.018325351
210	0xbddd83ee	-0.10816179
211	0x3c584dd7	0.013202152
212	0x3dfde851	0.123978265
213	0xbdf26596	-0.11835782
214	0x3d1de4f2	0.038548417
215	0xbd8346e9	-0.064100094
216	0xbdf6f5b8	-0.12058586
217	0x3cb62aec	0.022237264
218	0xbe2262ff	-0.15858077
219	0xbdb40357	-0.087896995
220	0xbd071924	-0.03298296
221	0xbe01785a	-0.12643567
222	0x3dba77c3	0.09104874
223	0xbe06b0f3	-0.13153438
224	0x3dd6bc67	0.10485154
225	0x3d7c2c83	0.061565887
226	0xbcfac001	-0.030609133
227	0xbd3323c1	-0.04373527
228	0x3cae69ed	0.021290744
229	0x3d00e206	0.031465553
230	0xbc892ae9	-0.016744094
231	0xbd286c8e	-0.04111915
232	0xbdc705f3	-0.097179316
233	0x3e001510	0.12508035
234	0x3ccba52a	0.02485903
235	0x3d136f1a	0.035994627
236	0xbd13fde8	-0.036130816
237	0xbd1de270	-0.038546026
238	0x3c735a5e	0.014853088
239	0xbc5c1679	-0.013433092
240	0xbd48ce12	-0.04902465
241	0x3d1ed8f6	0.03878113
242	0xbb8004e5	-0.0039068335
243	0x3bccb07f	0.006246626
244	0xbda36159	-0.07977552
245	0xbc13c361	-0.00901875
246	0x3ac19c12	0.0014771244
247	0xbdcbbb9f	-0.09947895
248	0xbbbb192d	-0.0057097883
249	0xbbed7208	-0.0072462596
250	0x3e2aa6bc	0.16665167
251	0x3b98b300	0.0046600103
252	0x3d904e07	0.070461325
253	0x3d83318b	0.06405934
254	0xbd3e7514	-0.046498373
255	0x3da1ba78	0.07896894

action_model._continuous_distribution.log_sigma f4 [1, 2]
0	0x00000000	0.0
1	0x00000000	0.0

action_model._continuous_distribution.mu.weight f4 [2, 128]
0	0xbc8fd86b	-0.01755925
1	0xbc1ae1e0	-0.009453267
2	0xbcc6d73f	-0.02427256
3	0xbcff3a85	-0.031155834
4	0xbc1dadab	-0.009623925
5	0x3ceea918	0.029133365
6	0x3ca4f72f	0.020137398
7	0xbc82dbca	-0.015973944
8	0xbb5c4243	-0.003360883
9	0x3bc57e8e	0.0060270494
10	0xbacfc8b0	-0.0015852656
11	0xbc97a063	-0.018509096
12	0x3c742eda	0.014903748
13	0x3ba92d3f	0.0051628645
14	0xbb9fe1db	-0.004879219
15	0xba7fca30	-0.00097576063
16	0x3bc877fd	0.0061178193
17	0x3b9dfa4f	0.004821099
18	0xbc5bd698	-0.013417862
19	0xbcc0f848	-0.02355589
20	0x3c1e5c9b	0.009665634
21	0x3c190683	0.009339931
22	0x3cf9f532	0.030512426
23	0xbbdc7bfb	-0.006728647
24	0x3b6a3f6d	0.003574337
25	0x3d39fbc7	0.04540613
26	0xba9dd38f	-0.0012041199
27	0x3ca4052d	0.020022
28	0x3c8e990f	0.017406968
29	0x3c4da727	0.012552059
30	0x3c176cbf	0.009242236
31	0xbcc72397	-0.024308963
32	0x3c334334	0.010941315
33	0xbccba5c6	-0.02485932
34	0xbbc4b584	-0.0060030837
35	0xbb2c540f	-0.002629522
36	0xbb47f2fd	-0.0030509823
37	0x39a0c942	0.00030667527
38	0x3ce489ba	0.027897704
39	0x3aee7043	0.0018191416
40	0xb9e8fa75	-0.00044437093
41	0xbad202ab	-0.0016022524
42	0x3cf304e3	0.029665416
43	0x3c754fd8	0.0149726495
44	0x3bb3716a	0.0054761665
45	0xbcad906b	-0.021187028
46	0xbc484f1f	-0.012225895
47	0x3c3dc71f	0.011583119
48	0xbc062e61	-0.0081897685
49	0xbd0a0498	-0.033695787
50	0xbd06b3fa	-0.032886483
51	0x3ca8e4eb	0.02061697
52	0x3d096d1b	0.033551317
53	0xbc66e717	-0.014093182
54	0x3ba96767	0.005169797
55	0x3c270985	0.010195141
56	0x3c28d330	0.010304257
57	0xbbe9c383	-0.0071339025
58	0x3b170835	0.0023045663
59	0xbc97277e	-0.018451449
60	0x3c8428ff	0.01613283
61	0xbc02ca6d	-0.007982832
62	0xbcca9edc	-0.024733953
63	0xbc9f41d7	-0.019440575
64	0x37bb5c9e	2.2335265e-05
65	0xbb32593c	-0.0027213832
66	0xbb273069	-0.0025511032
67	0xbc6e2393	-0.014534849
68	0xbc10654b	-0.008813213
69	0x3bb89b82	0.0056337724
70	0x3b8fed6a	0.0043923156
71	0xbca5ccb2	-0.020239208
72	0x3c866df7	0.016409857
73	0x3beedd4d	0.0072895647
74	0xbcbf01c9	-0.02331628
75	0x3c4745a3	0.012162599
76	0xbc9d68d9	-0.019215034
77	0x3cfedfb5	0.031112531
78	0x3cf8f385	0.030389557
79	0x3c6f1c8a	0.014594207
80	0xbb6116e5	-0.0034345922
81	0xbc1bbb11	-0.009505049
82	0xbc55e49a	-0.013054991
83	0x3d0d4177	0.03448626
84	0xbcb37af0	-0.021909207
85	0xbc484677	-0.012223831
86	0xbd02dadf	-0.031947013
87	0x3b853eca	0.004066323
88	0xbc753408	-0.0149660185
89	0xbb95e017	-0.0045738327
90	0xbc20d6d4	-0.009816844
91	0xbc1ea9cf	-0.00968404
92	0xbb245f29	-0.0025081134
93	0xbc67e32a	-0.014153281
94	0x3c5743c3	0.013138714
95	0xbc7079ff	-0.014677524
96	0x3b9712fd	0.004610418
97	0xba615e7b	-0.00085971475
98	0xba547528	-0.0008104616
99	0x3c24ec29	0.010066071
100	0xbab612c3	-0.001389109
101	0xbbfe426a	-0.007759382
102	0xbbe31f00	-0.0069311857
103	0x3aa0b749	0.0012261654
104	0xbcb718eb	-0.022350749
105	0xbcca88d8	-0.024723455
106	0x3bc2a10a	0.0059396075
107	0xbc18bdf4	-0.009322632
108	0xba4268bd	-0.000741612
109	0xbc771d9b	-0.015082742
110	0xbc831587	-0.016001476
111	0x3bb117e0	0.0054044574
112	0xbcfa60ca	-0.03056373
113	0xbcd2c8a7	-0.025730444
114	0xbbe16a3b	-0.0068791187
115	0x3cb4ae73	0.02205584
116	0x3d391660	0.045187354
117	0x3c6cc0b5	0.014450242
118	0xbb8177fa	-0.00395107
119	0x3d100012	0.035156317
120	0x3ca2ac38	0.01985751
121	0xbcd06b7a	-0.025441874
122	0xbc925b5c	-0.01786583
123	0x3c26e5ef	0.010186656
124	0xbc20e124	-0.009819303
125	0xbb009f73	-0.001962629
126	0xbbf45c0f	-0.0074572633
127	0xbc133aa3	-0.008986148
128	0xbb494bb7	-0.0030715296
129	0xbbb3a9ad	-0.0054828734
130	0x3c6f3997	0.014601133
131	0x3cc17a55	0.023617903
132	0xbbb74210	-0.005592592
133	0x3d14cbef	0.0363273
134	0xbb9b81e3	-0.0047457083
135	0x3d0dd2ce	0.034624867
136	0x3c6ca3aa	0.014443317
137	0xbc26929f	-0.010166793
138	0xbbef755b	-0.007307691
139	0xbbfda03a	-0.0077400478
140	0xbc3de060	-0.01158914
141	0xbbfc2e68	-0.0076959617
142	0xbc3edc33	-0.011649179
143	0xbcaf2a45	-0.02138246
144	0x3c5ee94a	0.013605425
145	0x3d1f283f	0.03885674
146	0x3c9049bb	0.017613282
147	0x3c3c3e61	0.011489482
148	0xbbfe6018	-0.00776292
149	0xbca60f54	-0.02027098
150	0x3c000a7f	0.007815002
151	0x3ca062bd	0.019578332
152	0xbd196ab9	-0.037455294
153	0xbd05a1ed	-0.032625128
154	0x3b8c465e	0.0042808494
155	0xbd2190f0	-0.039444864
156	0x3b744e97	0.0037278289
157	0xbc8d944e	-0.017282631
158	0x3bb54179	0.0055314866
159	0xbabaf663	-0.0014264103
160	0x3beef5df	0.0072924937
161	0x3c15471c	0.009111192
162	0xbb734bdf	-0.003712408
163	0xbca6646c	-0.020311557
164	0xbd195d61	-0.03744257
165	0xbb1ed8f4	-0.00242382
166	0x3c2d111f	0.010563164
167	0x3d0cd20f	0.034380015
168	0x3cadd3d6	0.021219175
169	0xbc84ddc4	-0.016219027
170	0xbc2374e4	-0.009976599
171	0xbb99e376	-0.004696305
172	0x3b91ae4f	0.004445828
173	0xba578020	-0.0008220691
174	0xbc8c106e	-0.017097678
175	0x3c831bb3	0.016004419
176	0xbc5dd102	-0.013538601
177	0x3cae206f	0.0212557
178	0xbd0456b2	-0.03230924
179	0xbb63ea68	-0.0034777168
180	0x3c91364b	0.017726084
181	0xbc3d8438	-0.011567168
182	0x3ca801ad	0.020508612
183	0x3c3f3c8f	0.011672153
184	0xbd459c37	-0.04824468
185	0xbce4f738	-0.027949914
186	0xbc474d78	-0.012164466
187	0x3b879224	0.0041372944
188	0xbaddffd7	-0.0016937208
189	0xbc7f2d00	-0.015574694
190	0xbbabbf9b	-0.005241347
191	0x3cc39735	0.023875812
192	0x3c843b0b	0.016141435
193	0xbc96df54	-0.018417038
194	0xbc06ce20	-0.008227855
195	0x3c9422dc	0.018083028
196	0x3c20ec1b	0.009821917
197	0xbbed0d68	-0.007234264
198	0x3cf65ea8	0.030074432
199	0x3a628bc0	0.000864204
200	0xbc770592	-0.015077012
201	0xbcbbd0b6	-0.02292667
202	0x3b8a8c38	0.004228141
203	0x3b05f15f	0.0020438058
204	0xba49dff1	-0.00077009114
205	0x3ca805e0	0.020510614
206	0x3cf3c172	0.029755328
207	0x3d1d949a	0.038471796
208	0x3cdcdf7a	0.02696203
209	0x3bbd4427	0.0057759467
210	0x3d01147c	0.031513676
211	0x3cc6fd86	0.024290811
212	0x3bac5985	0.005259695
213	0xbbe722d8	-0.0070537142
214	0x3c816afb	0.015798083
215	0xbd126679	-0.035742257
216	0x3cc9c18b	0.024628421
217	0xbc800c95	-0.015631
218	0x3b4e36e7	0.003146583
219	0x3c566167	0.013084746
220	0xba85780b	-0.001018287
221	0xbc91a2b2	-0.017777774
222	0xbce722d5	-0.028214851
223	0x3a93b065	0.001126778
224	0x3c838f94	0.016059674
225	0x3c0f3615	0.0087409215
226	0x3c1f6e3c	0.009730872
227	0xbb898b49	-0.0041975123
228	0xbcbdbfa7	-0.023162676
229	0x3c630e2a	0.013858357
230	0x3a84d5ca	0.0010134515
231	0xbcbd0cff	-0.023077486
232	0xbc808a6b	-0.015691003
233	0xba198c4b	-0.0005857392
234	0xbc933f26	-0.017974447
235	0x3b3969e4	0.0028291875
236	0xbc483b65	-0.012221192
237	0x3caf1c8f	0.021375922
238	0xbb6f5585	-0.003651948
239	0x3b8d5f22	0.004314319
240	0x3b3255fb	0.0027211893
241	0xbc8520cf	-0.016250996
242	0x3b8e9c21	0.004352108
243	0xbc1b05fe	-0.009461878
244	0xbc81f1d2	-0.01586238
245	0xbce9fdb3	-0.028563356
246	0x3c143448	0.009045668
247	0x3c362a44	0.011118475
248	0xbcc538b6	-0.024074893
249	0xbce6dcfd	-0.028181547
250	0x3c2540b8	0.010086231
251	0xbc4285de	-0.011872737
252	0xbcaf180b	-0.02137377
253	0x3c2b663f	0.010461389
254	0x3c82fb9f	0.015989123
255	0xbc2f15eb	-0.010686378

action_model._continuous_distribution.mu.bias f4 [2]
0	0x00000000	0.0
1	0x00000000	0.0

action_model._discrete_distribution.branches.0.weight f4 [1, 128]
0	0x3bddff68	0.0067748316
1	0xbae6288a	-0.0017559689
2	0x3c188b2c	0.009310525
3	0x3c270f1b	0.0101964725
4	0xbbc9e0bb	-0.006160823
5	0x3bd63868	0.006537486
6	0xbc225b93	-0.009909528
7	0xbb786e8d	-0.003790769
8	0x3b63e89f	0.0034776104
9	0xbb81ac44	-0.0039573032
10	0xbace1a5b	-0.0015724407
11	0xbba52277	-0.005039509
12	0xbbe55d15	-0.0069996216
13	0x3c652868	0.013986684
14	0x3c529533	0.012852955
15	0x3c7c52e0	0.015400618
16	0x3beb8cf3	0.0071884333
17	0xbb450f17	-0.0030068809
18	0xbc0b111e	-0.008487968
19	0x3b880894	0.004151413
20	0x3a0fe90c	0.0005489744
21	0xbc7a0b87	-0.015261537
22	0xb97b96a0	-0.00023993338
23	0xbc2ae242	-0.010429921
24	0xbc1c4b6b	-0.009539465
25	0x3c63622d	0.013878387
26	0xbabb06b1	-0.0014268962
27	0x3c687ccb	0.014189909
28	0x3c958998	0.018254086
29	0x3b17a52b	0.002313922
30	0xbc57755f	-0.013150542
31	0x3b4a7d8f	0.0030897593
32	0xbb18950d	-0.00232822
33	0xbbe60cbd	-0.0070205615
34	0x3c14ca17	0.009081385
35	0xbbb9a609	-0.005665545
36	0x3c5d9a37	0.013525537
37	0xbb94111d	-0.0045186416
38	0xbbf8d59f	-0.007593825
39	0x3c65456a	0.0139936
40	0xbb9f4c27	-0.004861373
41	0x3b71b25d	0.0036879994
42	0x3ae7ec55	0.0017694334
43	0xbac60d0b	-0.0015110088
44	0xbc6678c2	-0.014066877
45	0x3c5d8da3	0.013522538
46	0xbb794730	-0.0038036816
47	0xbc36813e	-0.011139212
48	0x3b7828d5	0.0037866135
49	0xbc8defc7	-0.017326249
50	0xbc35044f	-0.0110483905
51	0xbc02188f	-0.007940426
52	0x3ad5ec12	0.0016320965
53	0x39a1089d	0.0003071473
54	0x3b7e4a4b	0.0038801606
55	0x3b968bf1	0.004594319
56	0xbc56a398	-0.013100527
57	0x3bff8c8a	0.007798736
58	0xbb72a6a3	-0.0037025593
59	0xbbe49e3b	-0.0069768704
60	0xbac0dd9b	-0.0014714481
61	0xbc406443	-0.011742654
62	0xbbe99ab0	-0.007129036
63	0x3c68f02a	0.014217416
64	0xbb9a157b	-0.0047022677
65	0xbc91feab	-0.01782163
66	0x3b4d7b37	0.003135396
67	0xbb1ff126	-0.002440521
68	0x3c90fdc0	0.017699122
69	0x3a84f4ba	0.0010143735
70	0x37547f8f	1.2665884e-05
71	0x3bcbf7eb	0.0062246225
72	0x3c0ada06	0.008474832
73	0x3a994ef6	0.0011696506
74	0xb9c60433	-0.00037768632
75	0xbc2c4ebd	-0.01051682
76	0x3c2d4378	0.010575168
77	0x3bb6bf33	0.005576992
78	0xbb433a63	-0.002978944
79	0xbbc4872c	-0.005997559
80	0xbbd550c2	-0.006509871
81	0xbc2aa58f	-0.010415449
82	0x39e8535f	0.00044312605
83	0xbbbaf42f	-0.0057053785
84	0x3c0a5529	0.008443155
85	0xbb7f1b45	-0.0038926166
86	0x3c53e363	0.012932631
87	0x3bb48bcf	0.0055098305
88	0x3b5e9320	0.0033962205
89	0x3aef35ab	0.0018250247
90	0xbad2a067	-0.0016069532
91	0xb937f933	-0.00017545074
92	0x3c0171aa	0.007900635
93	0xba583250	-0.0008247243
94	0xbb5470cd	-0.0032415867
95	0xbbc683c3	-0.0060581877
96	0x3c0a53d8	0.0084428415
97	0xbc1df867	-0.009641743
98	0x3a92b2a6	0.0011192157
99	0x3a9239bf	0.0011156126
100	0xbc448922	-0.011995586
101	0x3c5716c2	0.0131279845
102	0xbc809ba3	-0.015699213
103	0xbbdc3323	-0.006719963
104	0xbc18e96b	-0.009332995
105	0x3a67271d	0.0008817779
106	0x3c50ec6f	0.012751683
107	0xbc19756f	-0.009366377
108	0xbb9c4879	-0.0047693816
109	0xbc858caf	-0.016302435
110	0x3ab5d51d	0.0013872717
111	0xbc0b99b3	-0.0085205315
112	0xbb8a3a27	-0.004218358
113	0xbc341a27	-0.010992563
114	0xbc6a69f2	-0.014307486
115	0xbc6c4977	-0.014421812
116	0xbc7892ca	-0.015171716
117	0xbbdd428b	-0.0067523173
118	0x3ba187ed	0.0049295337
119	0xbbe70f9a	-0.0070514204
120	0x3c202b93	0.009776014
121	0xbc0ff424	-0.008786235
122	0xba391662	-0.0007060525
123	0x3bc84fff	0.006113052
124	0xbab5f5e3	-0.0013882484
125	0x3bfa35c8	0.0076358058
126	0x3b079de5	0.0020693478
127	0x3c1a310d	0.009411109

action_model._discrete_distribution.branches.1.weight f4 [1, 128]
0	0x3bd494da	0.006487471
1	0x3c3a3704	0.011365656
2	0x3b8b6c8b	0.0042548827
3	0x3b2bb3b9	0.0026199652
4	0xbbdd213d	-0.006748347
5	0x3c419bc1	0.01181692
6	0x3c073a68	0.008253671
7	0xbb7567d8	-0.003744593
8	0x3b37baff	0.0028035042
9	0x3b6119cb	0.003434765
10	0x3a4ae37c	0.0007739586
11	0xba8e6687	-0.0010864296
12	0x3c38a189	0.011268982
13	0x3a86dc48	0.0010289038
14	0xba9005a3	-0.0010988008
15	0xbcf32723	-0.029681748
16	0xba0e05f4	-0.0005417757
17	0xbc44da67	-0.012014962
18	0xbad5ea3a	-0.0016320415
19	0x3cd0ef7b	0.025504818
20	0x3bf608d3	0.007508376
21	0xbc7ed04b	-0.015552591
22	0x3c76a262	0.0150533635
23	0x3c42ce7f	0.011890053
24	0x3bf8819a	0.007583809
25	0xbb5dcfdf	-0.0033845825
26	0x3b11de9f	0.0022257937
27	0x3c58b842	0.013227524
28	0x3c6107bd	0.013734755
29	0x3b557057	0.003256818
30	0xbb12a6a9	-0.002237717
31	0x3c38abbb	0.0112714125
32	0xbc230012	-0.009948747
33	0x3b8b22cf	0.004246093
34	0xbb5872b8	-0.0033027362
35	0x3b9deb45	0.004819306
36	0xbc03636f	-0.008019312
37	0x3b9c2217	0.004764806
38	0xbb0d0997	-0.0021520609
39	0x3a250056	0.00062943005
40	0x3bd6eee0	0.006559238
41	0xbc0b55c6	-0.008504337
42	0xbbf9ffd8	-0.007629376
43	0x3a41a497	0.00073868915
44	0x3b25d380	0.0025303066
45	0x3c0835f0	0.008313641
46	0xbb2b12d3	-0.002610375
47	0xbc1a8e76	-0.009433379
48	0xbbf41f85	-0.0074500465
49	0xbae4007b	-0.0017395163
50	0x3c4855bd	0.012227473
51	0x3c34d241	0.011036457
52	0xbc07b63b	-0.008283193
53	0xba2b89b7	-0.00065436534
54	0x3b8b6848	0.0042543747
55	0xb8663eb7	-5.489468e-05
56	0x3a926b0f	0.0011170822
57	0xbbb3dc13	-0.0054888814
58	0xbb8a9ec5	-0.0042303526
59	0x3c0ac707	0.008470303
60	0x3ab86e5f	0.0014070979
61	0xbbd3f21d	-0.006468071
62	0x3c521f30	0.0128248185
63	0x3bc9bef6	0.0061567975
64	0xbc3ef9fc	-0.011656281
65	0xbc079fdd	-0.0082778605
66	0xbc067dcc	-0.008208703
67	0x3c7be507	0.015374429
68	0x3c1e1bd6	0.009650191
69	0x3b92a98d	0.0044757784
70	0x3c2bec7b	0.010493393
71	0x3b24a69c	0.002512372
72	0xbbf92042	-0.0076027224
73	0xbb98e4f0	-0.0046659634
74	0xbc020547	-0.0079358285
75	0xbc05c5eb	-0.008164863
76	0xba31ea77	-0.0006786952
77	0x3ba60d96	0.0050675375
78	0x3aba09eb	0.001419363
79	0x3c8f230b	0.017472764
80	0xbb3a76e7	-0.002845222
81	0x3bdc1c20	0.00671722
82	0x3b30c6d4	0.002697398
83	0xbba61844	-0.0050688107
84	0xbc469bac	-0.012122076
85	0xbc2ba386	-0.010475999
86	0xbb40307f	-0.002932578
87	0xbc88a5f1	-0.01668069
88	0x3afc77f2	0.0019261821
89	0xbb5f8ec0	-0.0034112185
90	0xbc31fd5b	-0.010863627
91	0xbbdc00ff	-0.006713986
92	0x3c367fc0	0.011138856
93	0x3b01fb12	0.0019833487
94	0xbbeab765	-0.0071629756
95	0x3b73ce87	0.0037201957
96	0xbb311edf	-0.0027026457
97	0x3befebdb	0.0073218173
98	0xbc44bf4e	-0.012008501
99	0xbbbe7d3f	-0.0058132703
100	0xbc6bc442	-0.014390053
101	0xbc230116	-0.009948989
102	0x3be08a0d	0.0068523944
103	0x3b2465a3	0.0025084994
104	0x3a32c55f	0.0006819572
105	0xbaf8e47d	-0.0018988993
106	0x3b3d28f7	0.0028863528
107	0x3bff0c4a	0.0077834474
108	0xbafc52a2	-0.0019250701
109	0x3bee228f	0.0072673033
110	0x3b18b047	0.002329843
111	0x3bdf7b77	0.006820138
112	0xbbeb0abf	-0.007172912
113	0x3c1159e3	0.008871528
114	0xbb80c79e	-0.003930046
115	0xbc29e75b	-0.010370101
116	0xbc09783f	-0.008390485
117	0xbc2302c9	-0.0099493945
118	0x3b7c4de8	0.0038498584
119	0xba4ea742	-0.00078832
120	0x3b681e3f	0.0035418419
121	0x3ca7e18c	0.020493291
122	0x3c2478f5	0.010038604
123	0xbbbea183	-0.0058175935
124	0x3c2adfe3	0.010429355
125	0x3c25b150	0.010113075
126	0x3b32decb	0.002729344
127	0x3c188b37	0.009310535
