results/ppo/EscapeRoomAgent/EscapeRoomAgent-1808.onnx (onnx, 74645 bytes, 6 tensors)

network_body._body_endoder.seq_layers.0.weight f4 [128, 6]
0.5991222 -0.56617737 -0.33182397 -0.43162933 0.00907977 0.109037794 -0.5818952 -0.46758983
-0.2927759 0.120566934 0.41770718 -0.48730972 -0.34274474 -0.13743892 -0.47224084 -0.27300045
0.90235454 -0.22229747 -0.48470294 -0.13216595 0.3776175 0.0418238 -0.49352908 -0.38695604
0.35624775 -0.16241407 -0.18828078 0.25223082 -0.28061938 -0.30669528 0.16508485 0.7120289
0.6598237 0.019114504 0.11228721 0.25687617 0.14499407 -0.50556344 -0.6941623 -0.0057452777
0.21956639 -0.2972279 0.72554386 -0.43804914 0.44006473 0.06510462 0.26608315 -0.13777485
-0.26657382 -0.10852936 0.2263489 -0.22212799 -0.16956201 -0.34984905 -0.20178258 0.44301113
-0.35750946 -0.4177809 -0.58975434 -0.3102181 -0.48214498 -0.040038485 -0.04404686 0.23613569
0.08833809 0.2967877 -0.65516233 -1.0180702 0.57691175 0.3934523 0.49206176 0.20117745
0.044070505 -0.3293368 0.6943273 0.61163855 -0.5347283 0.13026337 -0.18997078 0.7492676
-0.17956507 0.5197073 0.10701169 -1.0533721 -0.63564885 0.4690688 0.42405915 -0.45284322
-0.11191771 -0.17809877 -0.16102496 -1.4255508 0.18911695 -0.93551844 0.59757197 0.023230543
-0.30549344 0.12784217 -0.037089974 0.10414141 -0.28446302 -0.2889 -0.31462437 -0.7364436
-0.58550113 -0.24382159 -0.17635673 0.051470548 -0.040475734 -0.5695698 0.8216434 -0.2961256
-0.5431945 0.11794279 -0.38076064 -0.49176943 0.4459192 -0.1504994 -1.4080923 0.08773862
0.431519 -0.18299936 0.15338461 -0.83813554 0.36129475 0.11192713 0.1179057 -0.26825178
-0.32909223 -0.5085436 0.7046211 0.17747484 0.089883775 0.23362698 0.14086297 0.29939723
0.5446636 -0.025080653 -0.039370928 -0.17396168 0.9053472 -0.90351075 -0.97954804 0.102045834
0.13168123 0.094138004 -0.57026225 0.632442 -0.10348302 -0.37953413 0.4274935 -0.60715485
-0.40526152 0.33256787 -0.2790725 0.058252953 0.27100983 0.35860828 -0.5450152 0.00485446
-0.22641577 0.32665178 0.100118496 -0.19527943 -0.19193055 -0.013968232 -0.3061102 0.2699437
-0.10339657 -0.22850865 -0.33215934 0.39396775 0.108695336 0.3340281 -0.31072313 -0.015845636
-0.12606984 0.13993607 -0.37905112 0.03874672 -0.32036704 -0.2656135 0.122418895 0.5397637
0.72820437 0.08625929 -0.29387325 -0.1631512 0.12038902 -0.038621437 -0.2887079 -0.23400444
-0.0528109 -0.20991732 -0.012996434 -0.15781088 -0.09388388 -0.275031 0.90081877 -0.39647388
-0.23276465 -0.12181351 -0.15740249 0.23069526 -0.15810563 0.39215502 -0.18017447 0.6432525
0.8989729 -0.623203 -0.055846374 0.47254476 -0.31434384 0.11231751 -0.18442218 0.20815167
-0.45408309 -0.22022307 -0.44100899 -0.054167256 -0.58474845 0.20911412 -0.6336658 -0.13601604
0.15944467 -0.10277814 -0.08722023 0.48507053 -0.043351572 -0.27549314 -0.38508686 0.7133737
-0.2778642 0.38158506 -0.22530943 0.4203405 -0.6809907 0.15685815 0.17212363 0.3280461
-0.43474925 -0.088471115 0.27153552 -0.41072118 -0.16551478 0.00531488 0.20108166 0.14347602
-0.11032915 0.27000716 -0.1687879 -0.5591719 -0.08827252 0.75684375 0.40404972 -0.34685582
00000000: 1360 193f 00f1 10bf d5e4 a9be 85fe dcbe
00000010: 51c3 143c 354f df3d 15f7 14bf ef67 efbe
00000020: b9e6 95be cceb f63d b7dd d53e a980 f9be
00000030: 3d7c afbe cabc 0cbe 8dc9 f1be b7c6 8bbe
00000040: b500 673f f3a1 63be fc2a f8be 8356 07be
00000050: 1557 c13e 6f4f 2b3d d8af fcbe 1a1f c6be
00000060: 1b66 b63e e04f 26be adcc 40be 6624 813e
00000070: 58ad 8fbe 2a07 9dbe 010c 293e 8747 363f
00000080: 35ea 283f 0596 9c3c d6f6 e53d 4685 833e
00000090: 5379 143e 9b6c 01bf 9fb4 31bf e242 bcbb
000000a0: 03d6 603e 412e 98be 3ebd 393f fa47 e0be
000000b0: 2a50 e13e 9255 853d 0d3c 883e da14 0dbe
000000c0: 5d7c 88be a444 debd 02c8 673e 8575 63be
000000d0: aaa1 2dbe 6a1f b3be 18a0 4ebe 5bd2 e23e
000000e0: 7b0b b7be 61e7 d5be 24fa 16bf e8d4 9ebe
000000f0: b5db f6be 65ff 23bd 7b6a 34bd 8ecd 713e
00000100: 9aea b43d 8ff4 973e b8b8 27bf 2050 82bf
00000110: 7db0 133f 9472 c93e 85ef fb3e 7601 4e3e
00000120: 4683 343d d59e a8be 6fbf 313f 5894 1c3f
00000130: f4e3 08bf c363 053e b387 42be 00d0 3f3f
00000140: e8df 37be 8a0b 053f f228 db3d e6d4 86bf
00000150: e2b9 22bf c929 f03e 481e d93e 11db e7be
00000160: 1d35 e5bd 865f 36be bae3 24be 7378 b6bf
00000170: e0a7 413e 237e 6fbf 7afa 183f fb4d be3c
00000180: a369 9cbe 0fe9 023e a8eb 17bd 1748 d53d
00000190: 23a5 91be b3ea 93be 7216 a1be 9187 3cbf
000001a0: 67e3 15bf 5eac 79be dc96 34be c8d2 523d
000001b0: e2c9 25bd 54cf 11bf 3957 523f c69d 97be
000001c0: cb0e 0bbf fd8b f13d 0ff3 c2be 34c9 fbbe
000001d0: 854f e43e 841c 1abe 5e3c b4bf 4eb0 b33d
000001e0: 0ff0 dc3e 2f64 3bbe db10 1d3e 0d90 56bf
000001f0: a0fb b83e 0d3a e53d 8b78 f13d 4c58 89be
00000200: c77e a8be ea2f 02bf 0c62 343f f7bb 353e
00000210: fc14 b83d e93b 6f3e 623e 103e 984a 993e
00000220: 136f 0b3f f175 cdbc 6943 21bd 0323 32be
00000230: d6c4 673f 7b4c 67bf a9c3 7abf 68fd d03d
00000240: 72d7 063e 6dcb c03d b5fc 11bf b8e7 213f
00000250: e8ee d3bd 4c52 c2be 6ee0 da3e 806e 1bbf
00000260: 707e cfbe 5646 aa3e 97e2 8ebe a69a 6e3d
00000270: cdc1 8a3e 819b b73e 1e86 0bbf 2912 9f3b
00000280: 89d9 67be e73e a73e ed0a cd3d 55f7 47be
00000290: 7189 44be 03db 64bc 7aba 9cbe 1036 8a3e
000002a0: 95c1 d3bd 2cfe 69be ca10 aabe 24b6 c93e
000002b0: a99b de3d bb05 ab3e 1a17 9fbe b5ce 81bc
000002c0: 7418 01be 674b 0f3e fd12 c2be e1b4 1e3d
000002d0: 2607 a4be 7efe 87be c2b6 fa3d f42d 0a3f
000002e0: 9a6b 3a3f b6a8 b03d 8e76 96be 1c11 27be
000002f0: 858e f63d 8331 1ebd 86d1 93be dc9e 6fbe
00000300: 3e50 58bd 91f4 56be ffee 54bc 2d99 21be
00000310: 3146 c0bd ddd0 8cbe 0f9c 663f a0fe cabe
00000320: db59 6ebe 5d79 f9bd 1e2e 21be 613b 6c3e
00000330: 71e6 21be 8bc8 c83e a87f 38be 32ac 243f
00000340: 1723 663f 3b8a 1fbf 2bbf 64bd 63f1 f13e
00000350: adf1 a0be b906 e63d 2bd9 3cbe b625 553e
00000360: 947d e8be 2882 61be eecb e1be 7cde 5dbd
00000370: 13b2 15bf 0322 563e ec37 22bf ca47 0bbe
00000380: 7745 233e 587d d2bd 85a0 b2bd 2a5b f83e
00000390: 6b91 31bd 700d 8dbe 1b2a c5be a99f 363f
000003a0: 3744 8ebe 1e5f c33e 84b7 66be df36 d73e
000003b0: 6855 2ebf 6c9f 203e 2d41 303e a9f5 a73e
000003c0: 7497 debe 5830 b5bd b406 8b3e 0c4a d2be
000003d0: b57c 29be 7228 ae3b 5ae8 4d3e 61eb 123e
000003e0: 40f4 e1bd 613e 8a3e bcd6 2cbe e425 0fbf
000003f0: 39c8 b4bd 83c0 413f 9bdf ce3e 1697 b1be

network_body._body_endoder.seq_layers.0.bias f4 [128]
0.0 0.0 0.0 0.0 0.0 0.0 0.0 0.0
0.0 0.0 0.0 0.0 0.0 0.0 0.0 0.0
0.0 0.0 0.0 0.0 0.0 0.0 0.0 0.0
0.0 0.0 0.0 0.0 0.0 0.0 0.0 0.0
0.0 0.0 0.0 0.0 0.0 0.0 0.0 0.0
0.0 0.0 0.0 0.0 0.0 0.0 0.0 0.0
0.0 0.0 0.0 0.0 0.0 0.0 0.0 0.0
0.0 0.0 0.0 0.0 0.0 0.0 0.0 0.0
0.0 0.0 0.0 0.0 0.0 0.0 0.0 0.0
0.0 0.0 0.0 0.0 0.0 0.0 0.0 0.0
0.0 0.0 0.0 0.0 0.0 0.0 0.0 0.0
0.0 0.0 0.0 0.0 0.0 0.0 0.0 0.0
0.0 0.0 0.0 0.0 0.0 0.0 0.0 0.0
0.0 0.0 0.0 0.0 0.0 0.0 0.0 0.0
0.0 0.0 0.0 0.0 0.0 0.0 0.0 0.0
0.0 0.0 0.0 0.0 0.0 0.0 0.0 0.0
00000000: 0000 0000 0000 0000 0000 0000 0000 0000
00000010: 0000 0000 0000 0000 0000 0000 0000 0000
00000020: 0000 0000 0000 0000 0000 0000 0000 0000
00000030: 0000 0000 0000 0000 0000 0000 0000 0000
00000040: 0000 0000 0000 0000 0000 0000 0000 0000
00000050: 0000 0000 0000 0000 0000 0000 0000 0000
00000060: 0000 0000 0000 0000 0000 0000 0000 0000
00000070: 0000 0000 0000 0000 0000 0000 0000 0000
00000080: 0000 0000 0000 0000 0000 0000 0000 0000
00000090: 0000 0000 0000 0000 0000 0000 0000 0000
000000a0: 0000 0000 0000 0000 0000 0000 0000 0000
000000b0: 0000 0000 0000 0000 0000 0000 0000 0000
000000c0: 0000 0000 0000 0000 0000 0000 0000 0000
000000d0: 0000 0000 0000 0000 0000 0000 0000 0000
000000e0: 0000 0000 0000 0000 0000 0000 0000 0000
000000f0: 0000 0000 0000 0000 0000 0000 0000 0000
00000100: 0000 0000 0000 0000 0000 0000 0000 0000
00000110: 0000 0000 0000 0000 0000 0000 0000 0000
00000120: 0000 0000 0000 0000 0000 0000 0000 0000
00000130: 0000 0000 0000 0000 0000 0000 0000 0000
00000140: 0000 0000 0000 0000 0000 0000 0000 0000
00000150: 0000 0000 0000 0000 0000 0000 0000 0000
00000160: 0000 0000 0000 0000 0000 0000 0000 0000
00000170: 0000 0000 0000 0000 0000 0000 0000 0000
00000180: 0000 0000 0000 0000 0000 0000 0000 0000
00000190: 0000 0000 0000 0000 0000 0000 0000 0000
000001a0: 0000 0000 0000 0000 0000 0000 0000 0000
000001b0: 0000 0000 0000 0000 0000 0000 0000 0000
000001c0: 0000 0000 0000 0000 0000 0000 0000 0000
000001d0: 0000 0000 0000 0000 0000 0000 0000 0000
000001e0: 0000 0000 0000 0000 0000 0000 0000 0000
000001f0: 0000 0000 0000 0000 0000 0000 0000 0000

network_body._body_endoder.seq_layers.2.weight f4 [128, 128]
-0.120365314 0.028033366 -0.09468832 -0.088410445 -0.014717804 -0.0028358519 -0.033493213 0.13694094
0.01571737 0.077137195 -0.0016020475 0.078035355 -0.05103005 0.08366277 0.014570143 0.067697935
0.05320442 0.04882628 0.12729096 -0.00093670876 0.031835757 0.10296646 0.026255747 -0.08081297
0.04695613 0.059379708 0.030551605 -0.1345248 -0.049692307 0.053488642 0.13044874 -0.30114576
-0.07997281 0.039975375 -0.08918274 -0.023885941 0.06156884 -0.10605609 0.011575412 0.10084504
-0.09110313 0.08883994 0.045014683 -0.108955346 -0.10118097 0.01748519 0.08910822 0.069346614
-0.11882936 -0.08615113 0.0058629303 -0.111573495 -0.018240938 -0.08590489 -0.017113872 -0.09700121
-0.08570728 -0.14460692 0.026607718 0.051680528 0.044218708 0.1310157 -0.027306478 0.044835653
0.09853969 0.04336277 0.0649817 -0.0725432 -0.17593797 -0.057322163 0.018238708 -0.042472757
-0.057318263 0.027738934 0.030683838 0.05557541 0.020530887 -0.0065428508 -0.10145522 0.03945475
0.06548568 0.08065936 -0.22459568 0.07443723 0.03686039 -0.0152990585 -0.013572836 0.102894984
0.047830578 0.009969827 -0.043973852 0.050574414 -0.0660463 -0.016664578 0.02322413 0.03558481
0.031468898 -0.16018958 -0.16421461 -0.1059117 -0.20553191 -0.0046332907 0.13013987 0.0045023607
-0.00049099437 -0.062229995 0.038786624 0.10113855 0.011599273 0.06533253 -0.1202982 -0.14138931
-0.019646402 -0.015009407 -0.18731381 -0.17941055 0.15845457 -0.078884356 -0.066470325 -0.07621333
0.14017023 0.0004955878 0.1430342 -0.026725259 -0.07724161 0.08349663 -0.06281587 0.034681153
-0.025735103 0.02471513 -0.081431806 -0.02552136 -0.0058827563 -0.047136664 0.0666408 0.063326575
0.12333783 0.044955846 -0.06320496 -0.052533638 0.13305421 -0.04220754 -0.06405249 0.06541967
0.09346414 -0.011937225 -0.04093981 0.010131088 -0.044448696 -0.021004554 0.02920085 0.08385003
0.09749185 0.05421227 0.002419159 0.045076195 0.08197426 0.0482108 0.010860352 0.018361717
-0.13486663 -0.039485283 -0.14187507 0.005153999 -0.21452162 0.0026184493 0.024894547 -0.046648737
0.012552643 0.04552367 -0.07103416 0.041235898 0.1228816 -0.098833725 0.13331744 -0.02969526
0.029912448 0.10022157 0.040890925 0.06240801 -0.06550146 -0.02483281 0.09163391 0.0043201065
-0.11980554 0.14237641 -0.19091013 0.022127537 -0.111843795 -0.0022058769 0.029417275 -0.10260221
0.107795335 0.058335368 -0.15666771 0.008604532 0.12160324 0.10848012 0.14568496 0.03253047
0.14602646 -0.07465862 -0.030717628 0.007557043 -0.06195324 -0.104304485 0.2167176 -0.0007282366
0.116746 -0.022167262 -0.003563832 0.090433784 0.12446841 0.101322055 0.11425144 0.107007526
-0.019894054 0.05766645 -0.07279025 -0.07211473 -0.31664997 -0.106168404 -0.0010854047 0.1620588
0.114334725 0.012710441 0.14477985 -0.14536774 -0.07799145 0.045739155 0.06635693 -0.07027612
0.047271077 -0.042430203 0.099383555 -0.11838243 -0.12851752 0.05887752 -0.07185415 -0.07767242
0.015947962 0.09864202 0.026404686 -0.068460554 0.11926217 0.032011177 -0.05945168 -0.12186033
-0.106209055 -0.030428898 0.0047663026 0.038050335 -0.060556255 0.0016797206 -0.15270601 -0.15090308
00000000: 1782 f6bd 3ba6 e53c f3eb c1bd 8910 b5bd
00000010: f222 71bc b3d9 39bb 2e30 09bd 3f3a 0c3e
00000020: b7c1 803c 1bfa 9d3d cbfb d1ba 00d1 9f3d
00000030: e304 51bd 6357 ab3d 9cb7 6e3c 37a5 8a3d
00000040: e1ec 593d 11fe 473d 9058 023e 768d 75ba
00000050: 3666 023d 14e0 d23d 4b16 d73c 4581 a5bd
00000060: 1255 403d 2338 733d 5c47 fa3c dfc0 09be
00000070: 298a 4bbd e816 5b3d 5b94 053e c72f 9abe
00000080: c9c8 a3bd 38bd 233d 71a5 b6bd 73ac c3bc
00000090: 9c2f 7c3d ef33 d9bd cca6 3d3c d887 ce3d
000000a0: 4794 babd b7f1 b53d 5161 383d fb23 dfbd
000000b0: f837 cfbd 1a3d 8f3c 5f7e b63d 9905 8e3d
000000c0: cf5c f3bd 0170 b0bd d31d c03b a580 e4bd
000000d0: 056e 95bc e7ee afbd 6432 8cbc 92a8 c6bd
000000e0: 4c87 afbd d613 14be 6ef8 d93c f6ae 533d
000000f0: ad1e 353d fb28 063e d6b1 dfbc 97a5 373d
00000100: 2dcf c93d 299d 313d 2015 853d 8791 94bd
00000110: 1529 34be a5ca 6abd 5869 953c eaf7 2dbd
00000120: 8ec6 6abd c33c e33c ac5c fb3c 0ba3 633d
00000130: 6430 a83c 6965 d6bb c1c7 cfbd 4e9b 213d
00000140: 5b1d 863d bc30 a53d 69fc 65be 8c72 983d
00000150: ecfa 163d e7a8 7abc 9a60 5ebc 9bba d23d
00000160: ffe9 433d 7c58 233c ed1d 34bd 1e27 4f3d
00000170: 4843 87bd 2784 88bc 8840 be3c 61c1 113d
00000180: 88e5 003d bd08 24be e027 28be 3ce8 d8bd
00000190: f576 52be dcd2 97bb 6343 053e 8a88 933b
000001a0: 13b6 00ba e1e4 7ebd b9de 1e3d ba21 cf3d
000001b0: e10a 3e3c 10cd 853d e75e f6bd 5cc8 10be
000001c0: 7ef1 a0bc 04ea 75bc 31cf 3fbe 66b7 37be
000001d0: ea41 223e 1f8e a1bd 9821 88bd bc15 9cbd
000001e0: c988 0f3e 56ea 013a 8f77 123e eeee dabc
000001f0: d930 9ebd 4800 ab3d 9ba5 80bd d30d 0e3d
00000200: 6cd2 d2bc 6277 ca3c b8c5 a6bd 2c12 d1bc
00000210: 23c4 c0bb 6012 41bd f97a 883d 5db1 813d
00000220: 8b98 fc3d 9f23 383d 9a71 81bd 832d 57bd
00000230: 5d3f 083e d0e1 2cbd f42d 83bd bffa 853d
00000240: 216a bf3d 5a94 43bc 81b0 27bd ddfc 253c
00000250: d60f 36bd be11 acbc 9f36 ef3c 91b9 ab3d
00000260: cfa9 c73d af0d 5e3d c18a 1e3b d1a1 383d
00000270: 1fe2 a73d b078 453d 9eef 313c 506b 963c
00000280: 7a1a 0abe 52bb 21bd b347 11be e1e2 a83b
00000290: 8eab 5bbe 4a9a 2b3b a6ef cb3c bf12 3fbd
000002a0: 9aa9 4d3c 0777 3a3d 5c7a 91bd f9e6 283d
000002b0: 59a9 fb3d 5669 cabd 5e84 083e 7943 f3bc
000002c0: f30a f53c f740 cd3d 3e7d 273d 8b9f 7f3d
000002d0: a125 86bd 2d6e cbbc 8faa bb3d ae8f 8d3b
000002e0: 9b5c f5bd 1fcb 113e f27d 43be cf44 b53c
000002f0: 5c0e e5bd 7990 10bb 7ffc f03c 1c21 d2bd
00000300: cdc3 dc3d 11f1 6e3d 806d 20be 06fa 0c3c
00000310: 1f0b f93d d32a de3d 702e 153e ac3e 053d
00000320: f687 153e 9ee6 98bd 89a3 fbbc 12a1 f73b
00000330: aec2 7dbd 979d d5bd 38eb 5d3e 22e7 3eba
00000340: 8718 ef3d 1e98 b5bc 2e8f 69bb 5935 b93d
00000350: 4be9 fe3d f081 cf3d a9fc e93d c326 db3d
00000360: dbf8 a2bc a833 6c3d 0e13 95bd e3b0 93bd
00000370: f21f a2be d26e d9bd 2344 8eba bef2 253e
00000380: 5328 ea3d 743f 503c 2b41 143e 48db 14be
00000390: fbb9 9fbd fb58 3b3d 24e6 873d edec 8fbd
000003a0: 519f 413d 4bcb 2dbd 9b89 cb3d 7d72 f2bd
000003b0: 199a 03be 8e29 713d 4528 93bd b812 9fbd
000003c0: 4da5 823c d404 ca3d a44e d83c 0c35 8cbd
000003d0: b93f f43d 271e 033d 9b83 73bd e991 f9bd
000003e0: 2284 d9bd 0646 f9bc a52e 9c3b abda 1b3d
000003f0: d609 78bd 122a dc3a f75e 1cbe 5686 1abe

action_model._continuous_distribution.log_sigma f4 [1, 2]
0.0 0.0
00000000: 0000 0000 0000 0000

action_model._continuous_distribution.mu.weight f4 [2, 128]
0.018275924 -0.0006162605 0.01985441 -0.017455716 -0.0017541696 -0.024067549 0.021972453 0.007315269
-0.0011552188 0.001613771 0.0012876064 0.037329692 -0.035963822 0.0104872035 -0.004880983 -0.023094459
0.0061995545 -0.00940258 0.014588274 -0.021769643 0.008768457 0.008995898 0.0030575856 0.01292938
-0.021604085 -0.00025751052 0.011537805 -0.00026387986 0.0071433424 -0.002933502 -0.022012217 -0.021234175
-0.018463856 0.02221306 0.057450242 -0.02657958 -0.02024203 -0.0008296966 0.024918998 0.000110920926
-0.019144762 0.0042378823 0.01673531 0.021234816 0.0076256557 0.021984693 -0.0041231676 -0.016234405
-0.0060267244 0.029784167 -0.00847201 0.008875828 0.0026292645 0.041891746 0.018524935 0.021247199
-0.015851015 -0.001924398 -0.031515226 0.009062275 0.01943393 -0.026880994 -0.010442744 -0.041835777
0.0032230893 0.03449815 -0.00846986 -0.008079892 -0.011570962 0.04218545 0.03315366 -0.002062177
-0.020937288 -0.0031109292 0.019451458 -0.02828203 -0.013533853 0.037803423 0.0037592445 -0.0081463875
-0.00652842 0.012673563 0.00823563 -0.0146739995 0.0066733337 -0.020560866 0.020069638 -0.028102214
-0.0003475603 -0.03785058 0.006238857 -0.009700082 0.010569456 0.012841758 0.01802562 0.029016841
-0.005638202 -0.0118343 -0.0068280706 -0.002092593 -0.022029627 -0.004990449 -0.01664645 0.0069157034
-0.013758043 -0.026382959 -0.0063282396 0.009122665 0.010996888 -0.008467414 -0.0023441638 0.022756504
0.018395502 0.01233247 -0.020774564 0.015004195 -0.045809165 -0.0090358695 -0.01278763 -0.013315231
0.0076324157 -0.0004681614 0.026231555 -0.01426055 0.020138567 -3.5518267e-05 0.0060610794 -0.01110338
0.037516724 0.008323523 6.144694e-05 -0.030005202 -0.0102584325 -0.016304951 0.00361348 0.012349035
0.04167332 -0.0113579305 0.036443856 0.0037344173 0.01784089 0.017418828 -0.0030326508 0.021516344
0.013768928 0.010822902 -0.0038919006 0.020754477 0.01686143 0.0005122504 0.037232775 0.0064807124
-0.009050249 0.0115527455 0.006847195 0.002108 0.025355598 -0.00046140768 -0.034498416 0.017552495
-0.0419962 -0.0025112059 0.0016104196 0.0052535976 -0.014991249 -0.009001507 -0.004114888 -0.010054007
0.03491023 0.0028354262 -0.017784055 0.015047637 -0.002321131 -0.03355918 0.0042518275 -0.02650725
0.01354289 0.010006043 -0.0016613957 0.018665845 -0.027943278 -0.011952925 0.013825933 0.018320257
-0.015225062 -0.009255103 -0.027358085 0.006173366 -0.02594665 -0.010288822 -0.0005202772 0.005167979
0.0068649948 0.011713503 -0.020341951 0.010159711 -0.0043153292 0.0035682952 0.0073009985 0.033960458
-0.009387948 -0.021530585 0.011333906 0.020503946 -0.035598956 -0.015885895 -0.01378828 0.017350277
-0.011374398 0.0028308937 0.010309813 -0.01224511 -0.011688112 -0.0074058557 -0.025528071 -0.0034781129
-0.00019290605 0.0072866636 -0.03893515 0.009357411 -0.00017841453 0.0154175 -0.015795538 -0.022626122
-0.016646931 0.0108975535 -0.0047589876 -0.017913952 0.05797376 -0.0021082282 0.008323423 -0.0068914513
-0.008122514 0.030198721 0.0006067602 0.0029901012 0.010146084 -0.0021906765 -0.023997827 0.0088143265
0.0013177854 -0.033000942 0.0022851555 0.024014436 0.0024385971 -0.0065055336 -0.00050579937 0.016256316
-0.011410413 0.01175588 0.01883758 0.0026041034 -0.009108643 0.007484257 -0.0016876486 0.00825645
00000000: 64b7 953c 8b8c 21ba b7a5 a23c 4aff 8ebc
00000010: 2aec e5ba 4f29 c5bc 93ff b33c edb4 ef3b
00000020: b66a 97ba 2b85 d33a e7c4 a83a 05e7 183d
00000030: cd4e 13bd 85d2 2b3c a7f0 9fbb 9730 bdbc
00000040: a225 cb3b 470d 1abc a803 6f3c 4056 b2bc
00000050: 93a9 0f3c 8863 133c c661 483b c0d5 533c
00000060: 0dfb b0bc 7a02 87b9 1009 3d3c 5b59 8ab9
00000070: b312 ea3b ff3f 40bb f752 b4bc 4bf3 adbc
00000080: 8341 97bc 2af8 b53c f250 6b3d 6bbd d9bc
00000090: 9dd2 a5bc ff7f 59ba ed22 cc3c 389e e838
000000a0: 7ad5 9cbc efdd 8a3b 7d18 893c a3f4 ad3c
000000b0: a3e0 f93b 3e19 b43c a31b 87bb 04fe 84bc
000000c0: d47b c5bb edfd f33c 2fce 0abc ec6b 113c
000000d0: bd4f 2c3b ae96 2b3d 9bc1 973c 9b0e ae3c
000000e0: fdd9 81bc 153c fcba 1c16 01bd f079 143c
000000f0: e833 9f3c 8835 dcbc 0b18 2bbc fe5b 2bbd
00000100: 773a 533b ef4d 0d3d 2bc5 0abc 8661 04bc
00000110: 2294 3dbc a7ca 2c3d 22cc 073d 9725 07bb
00000120: ad84 abbc bbe0 4bbb aa58 9f3c b7af e7bc
00000130: 18bd 5dbc c3d7 1a3d a85d 763b 6d78 05bc
00000140: 5bec d5bb c7a4 4f3c bcee 063c 376b 70bc
00000150: fbab da3b 436f a8bc 1569 a43c 9d36 e6bc
00000160: c138 b6b9 3609 1bbd 536f cc3b 18ed 1ebc
00000170: 832b 2d3c 3d66 523c 77aa 933c bab4 ed3c
00000180: abc0 b8bb a7e4 41bc 02be dfbb e223 09bb
00000190: 7a77 b4bc ec86 a3bb 235e 88bc 209d e23b
000001a0: 6a69 61bc 1321 d8bc 1f5d cfbb 3b77 153c
000001b0: 4b2c 343c e9ba 0abc 8ba0 19bb d96b ba3c
000001c0: 2ab2 963c 210e 4a3c 6b2f aabc 28d4 753c
000001d0: 64a2 3bbd 2f0b 14bc 3583 51bc 2028 5abc
000001e0: 5819 fa3b 8f73 f5b9 8fe3 d63c 15a5 69bc
000001f0: a3f9 a43c 73f9 14b8 059c c63b f3ea 35bc
00000200: 23ab 193d 635f 083c 13dd 8038 78cd f5bc
00000210: fc12 28bc f691 85bc 22d0 6c3b 9b53 4a3c
00000220: a5b1 2a3d 9d16 3abc 2746 153d 20bd 743b
00000230: 0f27 923c eeb1 8e3c 70bf 46bb 0b43 b03c
00000240: 1297 613c 8b52 313c 420f 7fbb 4b05 aa3c
00000250: fb20 8a3c 8b48 063a 6581 183d 285c d43b
00000260: 7f47 14bc ba47 3d3c 6f5e e03b 5f26 0a3b
00000270: 8bb6 cf3c 17e9 f1b9 364e 0dbd 40ca 8f3c
00000280: 3504 2cbd 0b93 24bb b714 d33a 5f26 ac3b
00000290: db9d 75bc 0f7b 13bc 2fd6 86bb 90b9 24bc
000002a0: 08fe 0e3d 8fd2 393b deaf 91bc 5d8a 763c
000002b0: 1e1e 18bb 5a75 09bd ea52 8b3b bb25 d9bc
000002c0: ffe2 5d3c 63f0 233c 30c3 d9ba 1de9 983c
000002d0: 4de9 e4bc 33d6 43bc 2b86 623c 5d14 963c
000002e0: 8a72 79bc b7a2 17bc 101e e0bc f349 ca3b
000002f0: 128e d4bc 7392 28bc 3663 08ba 2658 a93b
00000300: c0f3 e03b fee9 3f3c 2aa4 a6bc eb74 263c
00000310: 9b67 8dbb 0fda 693b 373d ef3b 1f1a 0b3d
00000320: e8cf 19bc e960 b0bc d9b1 393c e4f7 a73c
00000330: 36d0 11bd 2323 82bc 3de8 61bc 2b22 8e3c
00000340: af5b 3abc 8486 393b 7dea 283c b79f 48bc
00000350: 7f7f 3fbc d2ac f2bb 3f20 d1bc 0df1 63bb
00000360: d346 4ab9 f7c4 ee3b 777a 1fbd d44f 193c
00000370: c914 3bb9 af99 7c3c a565 81bc 6b5a b9bc
00000380: 255f 88bc a78b 323c 48f1 9bbb 48c0 92bc
00000390: e575 6d3d 332a 0abb f75e 083c afd1 e1bb
000003a0: 4b14 05bc 4f63 f73c fd0e 1f3a 93f5 433b
000003b0: c33b 263c 7491 0fbb 1797 c4bc f769 103c
000003c0: 8ab9 ac3a ff2b 07bd 8cc2 153b ecb9 c43c
000003d0: dfd0 1f3b 5f2c d5bb 9f97 04ba f72b 853c
000003e0: bef2 3abc bc9b 403c 4551 9a3c 9ba9 2a3b
000003f0: 6b3c 15bc 803e f53b 1734 ddba 1046 073c

action_model._continuous_distribution.mu.bias f4 [2]
0.0 0.0
00000000: 0000 0000 0000 0000
