results/ppo/EscapeRoomAgent/EscapeRoomAgent-4660.onnx (onnx, 74645 bytes, 6 tensors)

network_body._body_endoder.seq_layers.0.weight f4 [128, 6]
00000000: fb60 203f 2486 153d 0e81 08be 93b3 7e3d
00000010: 466f af3e 9199 30be 700a bdbd fe0d 40bf
00000020: f5d8 d9bb 401d efbe b092 5dbe 6bca 16bf
00000030: 0a38 2dbe 0e2f 283f a8a7 94be 311c d0be
00000040: 3717 8c3d ffe4 27bd 2140 9a3e 89f4 483f
00000050: 9a1a 2c3f 5d99 34bc e678 dd3e 13fa 993d
00000060: 099b 613e ddaf a3be 050a dcbe 673b c0be
00000070: f91f b13e 373c d33d f872 bd3e 9adc 91be
00000080: b7cb 723f bdde 88be 84da 36be 566f f5be
00000090: 9042 233d 5491 c13b 8934 c73e fee4 ecbd
000000a0: 1ff1 263e 32ec dc3e d3fb 133f d2c4 32bf
000000b0: 3fdd 363d 8767 773e e0a0 e03e ce9e 56bf
000000c0: d7a7 ccbe 175b f4be 5dc6 ee3e 0fa3 76be
000000d0: b750 3e3f d519 01bf 4d4d 7a3e b27a b83e
000000e0: 9337 15bf f27c 5dbd b509 86be 8018 80be
000000f0: a206 a03e 0919 52bf b3e6 1bbc 9b2e 08be
00000100: f6ec 273e 5e6a a63e 6783 9c3d 7f99 9dbd
00000110: 2135 15bf 13ee e3be bd23 ad3a 81a6 783e
00000120: 4117 63be 0c1c 82be 8327 6a3e 3a0b 6d3e
00000130: bebb fbbe c19d 913e b9bc 983e 4e12 e83e
00000140: c6c4 773e b9dc 2d3e 9a87 bc3e e6aa 6abd
00000150: 1f32 ac3d 1ec8 a23e b373 57bf f1c0 66be
00000160: 5d5f 823e 3a9d 373f 04c0 80be 1102 1d3f
00000170: 624f 753e 82ed b0bd ea8e 803d 6c4a 7ebd
00000180: 4949 143e bff9 3fbf b644 8cbe 3166 22be
00000190: f641 63be 03dc 6ebf c85b 13bf 67ee 263e
000001a0: 5aae 8bbe 6225 923d d0eb f2be dfb3 9ebe
000001b0: ae5a 9e3e 1a20 0ebe 0394 b53e 275b 733f
000001c0: 6a94 61bd 950d 1e3d 6ab9 013e 8929 1b3f
000001d0: ba9f 023f c757 e23e 57bb d03e 05d5 8fbe
000001e0: e8c5 173f 62a7 c53d 6507 263f 2b4d 5ebc
000001f0: 1471 14bf d756 48bd 8590 2fbc e796 023f
00000200: 8e2c b3bd 273d 69be 9b66 123e cb87 03bf
00000210: 13f4 023e 8804 d83e d59e 00bf 760f 473e
00000220: ac6f d53e 6099 473e 3015 f1be 7b39 bcbe
00000230: 187a fc3e 6120 6b3e 7f18 f33e 7d86 26bf
00000240: dbf9 423f 486c 693e 64cd b8bd b485 80be
00000250: 1220 0b3d 7f72 123f 5004 1bbe 2a3c 54be
00000260: db4d d4be 4ca7 5ebf df39 343e 0006 c1be
00000270: 7ec1 cdbe 2079 18be 0073 6bbe 6eb4 a9be
00000280: a095 82be e535 14bf d560 983c 3af8 29be
00000290: 4746 92bd 8e0c 31be a508 27bf 3dbd 2cbf
000002a0: da8f 42be 07a4 47be bae6 8cbb d2df 5abf
000002b0: 00a5 0b3e 5aca 0abf 934e 88be b1e9 adbd
000002c0: 454a d43c eb38 acbe e5c7 d73c 5146 6dbe
000002d0: a461 d93e d64c df3d ef38 4d3e 4ea5 2c3f
000002e0: cd40 0c3f caca 023f 3e2d f0be ba5a edbe
000002f0: ccc3 433f 2894 253f e647 f8bc 05ba 43be
00000300: 708c 87bd 3e95 47bd 8ca1 58be 5093 983e
00000310: b8ce 3ebf 4f50 a83d 9ca2 403e 4eda 35be
00000320: 8728 d83e 9fd6 aebe b560 913b e48a c1be
00000330: aef1 3ebf b394 ef3d e48b cc3d c3ce 5e3f
00000340: cba9 b6bd af0b ae3e a7f6 e63e 9c5c 72be
00000350: 2d26 82bd 5200 bfbc 9ab0 cb3d f189 49bd
00000360: 029f 033f 894b 11bf 4f72 90bd 9849 c23e
00000370: 7e99 18be 6dbe e0be 6a32 78bd 5ede 1e3d
00000380: 3713 1f3f 36ce db3e c54d 093f 8ff5 573f
00000390: 73ec dc3e 6752 0a3f 9723 103e 01e2 063e
000003a0: 1159 193e 0967 0f3f d3c2 dfbe ce2c e7be
000003b0: 1b36 12bf 2a5d 003e 2f86 b53d 6db9 ccbd
000003c0: 97ac 673f af5c 5bbe 6179 cb3e a846 983b
000003d0: 30a2 dc3d d526 3abd b6f5 f8be 747e 233f
000003e0: 2d22 3e3c 9fb2 f43e 7b2e 9a3e 24f1 243f
000003f0: e73c 20be d158 333f 06f2 813c 5641 0ebf
0.6264798 0.03650488 -0.1333048 0.062182974 0.34264582 -0.17246081 -0.092305064 -0.7502135
-0.0066481777 -0.46702003 -0.21637988 -0.58902615 -0.16915908 0.656968 -0.29034162 -0.40646508
0.068403654 -0.040989872 0.3012705 0.7849813 0.6722809 -0.011022893 0.432563 0.07518401
0.22031797 -0.3197011 -0.42976394 -0.3754532 0.34594706 0.103142194 0.37001777 -0.28488618
0.94842094 -0.26732436 -0.17856795 -0.47936505 0.0398584 0.005907217 0.3890727 -0.11567114
0.16302918 0.43148953 0.5780613 -0.69831574 0.04464459 0.24160586 0.43872738 -0.83836067
-0.39971802 -0.47725746 0.46635714 -0.2408564 0.7434191 -0.5043004 0.2444355 0.3603111
-0.58287925 -0.054074235 -0.2617928 -0.25018692 0.3125506 -0.8206945 -0.009515452 -0.13299029
0.16398987 0.32503027 0.076422505 -0.07695293 -0.58284193 -0.44517574 0.0013209503 0.24282266
-0.2217684 -0.25412023 0.22866635 0.23148814 -0.49166673 0.2844067 0.29831484 0.45326465
0.24196157 0.1697873 0.36822206 -0.057291888 0.08407997 0.31793302 -0.8416092 -0.22534539
0.2546338 0.71724284 -0.25146496 0.6133128 0.23956063 -0.08639051 0.06277259 -0.062082693
0.14481081 -0.7499046 -0.27396172 -0.15859295 -0.22193131 -0.9330446 -0.5756192 0.16301881
-0.27281457 0.071360365 -0.47445536 -0.30996606 0.30928558 -0.13879433 0.35464486 0.9506096
-0.05507318 0.03858717 0.12668386 0.6061025 0.51024973 0.44207594 0.4076793 -0.28092209
0.59286356 0.09651066 0.64855033 -0.013568203 -0.57985044 -0.048910942 -0.0107156085 0.5101151
-0.087487325 -0.22777234 0.14296953 -0.5137908 0.1278842 0.42190957 -0.5024236 0.19439492
0.4168676 0.19492102 -0.47086477 -0.36762604 0.493119 0.2296157 0.47479627 -0.6504896
0.761625 0.22795212 -0.0902355 -0.25102007 0.03396613 0.5720596 -0.15138364 -0.20726076
-0.4146565 -0.86974025 0.17600201 -0.3769989 -0.40186685 -0.14889956 -0.22993088 -0.3314547
-0.2550478 -0.57894737 0.01860086 -0.16598597 -0.071423106 -0.17289945 -0.65247566 -0.67476255
-0.19000188 -0.19496165 -0.0042999657 -0.8549777 0.13637161 -0.54215014 -0.26622447 -0.08491839
0.02591432 -0.33637175 0.026340434 -0.23171355 0.42457306 0.10903327 0.2004125 0.67439735
0.5478638 0.5109068 -0.46909517 -0.4635828 0.7647064 0.64679193 -0.030307721 -0.1911393
-0.06618583 -0.048726313 -0.21155375 0.2979989 -0.7453418 0.08218443 0.1881203 -0.17759058
0.4221842 -0.34148118 0.004436577 -0.37801278 -0.74587524 0.11698284 0.099876195 0.87034243
-0.08919104 0.3399329 0.45110056 -0.2366814 -0.06354938 -0.023315582 0.099457934 -0.049203817
0.514145 -0.5675588 -0.07053053 0.37946773 -0.14902303 -0.43895283 -0.060594954 0.038786285
0.62138695 0.42930764 0.5363429 0.8435907 0.43149146 0.54031986 0.14076076 0.13172151
0.14975382 0.56016594 -0.43703327 -0.4515137 -0.5711381 0.1253554 0.08863484 -0.09996305
0.90497726 -0.21422075 0.39741042 0.0046470948 0.10773122 -0.04544719 -0.48624963 0.6386483
0.011604828 0.47792527 0.30113587 0.6443045 -0.15648232 0.700574 0.015862476 -0.55568445

network_body._body_endoder.seq_layers.0.bias f4 [128]
00000000: 0000 0000 0000 0000 0000 0000 0000 0000
00000010: 0000 0000 0000 0000 0000 0000 0000 0000
00000020: 0000 0000 0000 0000 0000 0000 0000 0000
00000030: 0000 0000 0000 0000 0000 0000 0000 0000
00000040: 0000 0000 0000 0000 0000 0000 0000 0000
00000050: 0000 0000 0000 0000 0000 0000 0000 0000
00000060: 0000 0000 0000 0000 0000 0000 0000 0000
00000070: 0000 0000 0000 0000 0000 0000 0000 0000
00000080: 0000 0000 0000 0000 0000 0000 0000 0000
00000090: 0000 0000 0000 0000 0000 0000 0000 0000
000000a0: 0000 0000 0000 0000 0000 0000 0000 0000
000000b0: 0000 0000 0000 0000 0000 0000 0000 0000
000000c0: 0000 0000 0000 0000 0000 0000 0000 0000
000000d0: 0000 0000 0000 0000 0000 0000 0000 0000
000000e0: 0000 0000 0000 0000 0000 0000 0000 0000
000000f0: 0000 0000 0000 0000 0000 0000 0000 0000
00000100: 0000 0000 0000 0000 0000 0000 0000 0000
00000110: 0000 0000 0000 0000 0000 0000 0000 0000
00000120: 0000 0000 0000 0000 0000 0000 0000 0000
00000130: 0000 0000 0000 0000 0000 0000 0000 0000
00000140: 0000 0000 0000 0000 0000 0000 0000 0000
00000150: 0000 0000 0000 0000 0000 0000 0000 0000
00000160: 0000 0000 0000 0000 0000 0000 0000 0000
00000170: 0000 0000 0000 0000 0000 0000 0000 0000
00000180: 0000 0000 0000 0000 0000 0000 0000 0000
00000190: 0000 0000 0000 0000 0000 0000 0000 0000
000001a0: 0000 0000 0000 0000 0000 0000 0000 0000
000001b0: 0000 0000 0000 0000 0000 0000 0000 0000
000001c0: 0000 0000 0000 0000 0000 0000 0000 0000
000001d0: 0000 0000 0000 0000 0000 0000 0000 0000
000001e0: 0000 0000 0000 0000 0000 0000 0000 0000
000001f0: 0000 0000 0000 0000 0000 0000 0000 0000
0.0 0.0 0.0 0.0 0.0 0.0 0.0 0.0
0.0 0.0 0.0 0.0 0.0 0.0 0.0 0.0
0.0 0.0 0.0 0.0 0.0 0.0 0.0 0.0
0.0 0.0 0.0 0.0 0.0 0.0 0.0 0.0
0.0 0.0 0.0 0.0 0.0 0.0 0.0 0.0
0.0 0.0 0.0 0.0 0.0 0.0 0.0 0.0
0.0 0.0 0.0 0.0 0.0 0.0 0.0 0.0
0.0 0.0 0.0 0.0 0.0 0.0 0.0 0.0
0.0 0.0 0.0 0.0 0.0 0.0 0.0 0.0
0.0 0.0 0.0 0.0 0.0 0.0 0.0 0.0
0.0 0.0 0.0 0.0 0.0 0.0 0.0 0.0
0.0 0.0 0.0 0.0 0.0 0.0 0.0 0.0
0.0 0.0 0.0 0.0 0.0 0.0 0.0 0.0
0.0 0.0 0.0 0.0 0.0 0.0 0.0 0.0
0.0 0.0 0.0 0.0 0.0 0.0 0.0 0.0
0.0 0.0 0.0 0.0 0.0 0.0 0.0 0.0

network_body._body_endoder.seq_layers.2.weight f4 [128, 128]
00000000: ce58 9bbe 6606 203d cc4a b33d ee4f 25be
00000010: 4ffc 183c 4d76 8e3d 45d5 94bc d329 b0bc
00000020: 74c6 9f3d 9083 21bd 5da8 2e3b 5198 9abd
00000030: 3cbd e7bc 4780 a6bb 89bc 093e 2f24 33bd
00000040: fb00 9abd 4fe8 213d 5edb 173e f989 713d
00000050: b8f1 cb3d 610c c1bd 7348 173e bd01 543d
00000060: 28a3 12be 510b 8f3d 9e0b 07bd 5c17 1f3d
00000070: c30c 8fbd dd08 933d 106e 08bd ff30 1ebd
00000080: 51b3 a93c f97b 2abd 3a7f 6c3d 4a71 a0bd
00000090: d296 a9bd 6ae2 683d 43ab 6e3d a324 bd3d
000000a0: 5f95 5dbd bdc9 663c 62e0 d23c 4e73 2e3d
000000b0: b0bd aebd 9463 febd 14c6 1bbd 2d0f 15be
000000c0: d198 dc3c 8169 61bd 2851 f83c afa1 293e
000000d0: b33d 953d 82da cb3c 8f14 c3b9 9e51 b33d
000000e0: 2153 0cbe 7616 d93d 0ec9 ab3d a1e6 11be
000000f0: 343b 4e3d 731c 4cbd e674 e03c 5a1d 343d
00000100: 07bb 1ebd e696 90bd b24a 50bd ef98 30bd
00000110: 5cb1 c4bc 7774 283e 78d7 93bc c039 803e
00000120: 1fac b6bc d7da 323c c116 1d3e 3c59 ae3c
00000130: c201 993d 1301 12be ef95 ed3c bcc6 b6bd
00000140: 40d0 e1bc 531b 273c e38a e3bd eeb5 45bd
00000150: f9e2 69bd 688f 1b3d 953a d7bb 80dc 75bd
00000160: dd07 babb 2f0b 13be 51ff f13d e238 5ebd
00000170: 1511 663d 5cd3 87bd 305f 5cbd 5a28 273c
00000180: 67b0 56bd 235e 01bd 5462 cf3c c6b1 b93d
00000190: 63cf 1fbd 2f8f f6bd 8bbc f5bd a697 29bc
000001a0: fcb1 f13d e5d1 26bd 9aa8 bfbd a87d 223e
000001b0: 7321 28bc 56ce 983d 8818 9c3d f9c7 afbd
000001c0: 43c9 163c caad 33bd 31cc fbbb 8336 9cba
000001d0: 3707 ad3b 1a61 18bd 5239 343c 97c3 d3bd
000001e0: b28c f1bd 483e 77be 1850 24be df77 f0bd
000001f0: 3820 273d 10c2 6fbd 7b3d c8bd f159 f43d
00000200: a0f8 75bd 9f19 e33c 87cf 14bd 171c c33c
00000210: 751b 97be 6bce 07bc 9594 8e3d 28ff b8bd
00000220: 0f73 f23d 8df4 11be add3 65bd 75e4 8dbd
00000230: ae6d 92bb 3ba8 023e e400 8c3d 7034 d13d
00000240: 0b44 283e f343 623a c9fb 933c 747b 3b3c
00000250: 10fa 33be ca54 44be 8962 443d 0076 c2bc
00000260: 7ecd 8b3d 80d1 83bd 90a0 b23c 53b0 0f3e
00000270: 1a46 adbd 7a81 b4ba e1ce bb3d ef57 983d
00000280: 095d aa3d 0733 383e 6587 ccbd eac4 0fbe
00000290: ffcb d03d 6195 8b3d 7a40 523d 4fb3 24bb
000002a0: c118 5d3d c27d 0abe 3473 1cbd 8c10 f5bd
000002b0: 64b7 a03d 06f6 f63c bb61 ac3d 4a4d c93d
000002c0: 0f79 65bc 968c a9bd ca33 0a3e 1f83 c03d
000002d0: 0a54 dfbd 4715 8bbd b261 23bd 808d 133e
000002e0: 54da 83bd f494 eabd 93e5 073d 62ae aa3d
000002f0: 3fcd 263e ab7f 40ba 9a7e a93d aec9 c43d
00000300: deea 1ebe c674 1f3e 52d8 02be 14ae 6abd
00000310: 6129 313d 0066 93bd c27b aebc 76bd 523d
00000320: ab21 15be 2585 6fbc eabd e83d 8d09 18be
00000330: 5d1e 003e f011 dcbd 8531 35bd eb0e 7cbe
00000340: 5af7 d23d 395d 11bc 9da0 173b 9ab3 92bd
00000350: 5238 f3bd f0ee 0a3d 1da9 8dbb a792 60bd
00000360: ac1e c13d b7ac 21be cd33 d83c 9edf bb3d
00000370: 7c90 1f3e 14d9 073d 3625 10bd c684 efbd
00000380: 537f cd3d ebe6 16be cd94 ed3c 3c10 593d
00000390: 95eb 11bd 3d44 113e 7ab5 813d 8441 003d
000003a0: 14ee e03d acc1 373d adb9 1dbe 4bdf 083d
000003b0: c7c7 69b9 a791 973d 7566 84bd 178a 1ebc
000003c0: af17 4b3d 1ee7 203b 72a4 a0bd 82f5 d43b
000003d0: 0fe0 0b3c fda5 613d 8444 f4bd eff9 f53d
000003e0: 533d 85bb a30c 63bc 415c 0fbd be58 b23d
000003f0: fadb fb3c f665 f2bd 4f2d a13c 7e8b 37bd
-0.3034119 0.039068602 0.08754501 -0.16143772 0.009337499 0.06956158 -0.018168101 -0.021504318
0.07801524 -0.03943211 0.0026650645 -0.07548583 -0.028288476 -0.00508121 0.13450827 -0.04373568
-0.07519718 0.039528187 0.14829776 0.05896947 0.099582136 -0.09426189 0.14773731 0.05175947
-0.14320052 0.0698458 -0.032970063 0.038840637 -0.06984856 0.07179425 -0.03330809 -0.038620945
0.020715388 -0.041622136 0.05773852 -0.07834108 -0.0828072 0.05685655 0.058268797 0.092355035
-0.05409753 0.014086184 0.02574176 0.042590432 -0.08532274 -0.12421337 -0.0380307 -0.1455657
0.026928337 -0.055032257 0.030312136 0.16565584 0.07287159 0.024884466 -0.00037208616 0.087558016
-0.13703586 0.10599987 0.083879575 -0.14248134 0.05034943 -0.04983182 0.027399492 0.043973304
-0.038752582 -0.070600316 -0.050852485 -0.0431146 -0.024010353 0.16450678 -0.01804708 0.2504406
-0.02229887 0.010916433 0.15340711 0.021282785 0.074710384 -0.14258222 0.029002158 -0.08924624
-0.027565122 0.010199386 -0.11110475 -0.048269205 -0.057101224 0.03797856 -0.006568263 -0.06002474
-0.005677207 -0.14359735 0.11816276 -0.054253466 0.056168634 -0.066321105 -0.053801715 0.010202492
-0.052414324 -0.031583916 0.025315441 0.09067111 -0.03901614 -0.12039029 -0.11998852 -0.010351097
0.11801526 -0.040727515 -0.0935833 0.15868247 -0.010261881 0.074612305 0.076218665 -0.08583064
0.009203258 -0.04386691 -0.0076842536 -0.0011918101 0.005280401 -0.03720198 0.010999994 -0.1034004
-0.117944136 -0.24144852 -0.16046178 -0.117416136 0.04080221 -0.05853468 -0.097773515 0.119312175
-0.06005156 0.027722178 -0.036330726 0.023817105 -0.29513136 -0.00828896 0.069619335 -0.09033042
0.11838352 -0.14253445 -0.056110073 -0.0692834 -0.0044686412 0.12759487 0.068361074 0.1021508
0.16432206 0.0008631341 0.018064396 0.011443008 -0.1757586 -0.1917297 0.047945533 -0.023737907
0.06826304 -0.06436443 0.021805078 0.14032106 -0.084606364 -0.0013771497 0.091703184 0.07438647
0.08318526 0.17988215 -0.09986762 -0.1403996 0.10195159 0.06815601 0.05133102 -0.002513129
0.053978685 -0.13524535 -0.038195804 -0.11966047 0.07847479 0.03014661 0.08417078 0.09829195
-0.014005913 -0.08278768 0.13496318 0.09400009 -0.10904701 -0.06791168 -0.03988809 0.14409447
-0.06438127 -0.11454192 0.033177923 0.08334042 0.16289233 -0.0007343243 0.082761005 0.0960878
-0.15519282 0.1557189 -0.12777832 -0.05729492 0.043252353 -0.07197189 -0.021299247 0.051450215
-0.14563625 -0.0146191465 0.11364348 -0.14847393 0.12511583 -0.10745609 -0.04423668 -0.24615066
0.10301085 -0.008872324 0.0023136504 -0.071631625 -0.118759766 0.033919275 -0.0043231384 -0.05482736
0.09429678 -0.15788542 0.026391888 0.09173511 0.1558246 0.033166006 -0.035191737 -0.116952464
0.10034051 -0.14736526 0.029001618 0.052993998 -0.03562506 0.14186187 0.06333442 0.03131248
0.1098291 0.044862434 -0.15402861 0.033416074 -0.00022295034 0.07400828 -0.06464855 -0.009676478
0.049583133 0.002455182 -0.078438655 0.0064989934 0.008537306 0.05508994 -0.11927131 0.12010562
-0.0040661483 -0.013857993 -0.03500009 0.087083325 0.030744541 -0.11835854 0.019674925 -0.044810764

action_model._continuous_distribution.log_sigma f4 [1, 2]
00000000: 0000 0000 0000 0000
0.0 0.0

action_model._continuous_distribution.mu.weight f4 [2, 128]
00000000: 61a5 25bd 64e0 c6b8 bbbb b7bc ab88 403d
00000010: 2faf 24bc 9081 7d3c 9899 f03c 68f7 733b
00000020: abea 9f3c fc84 99bc b227 1dbc baab d1ba
00000030: 6803 6abc 7d35 d4bb a7bd 843c 0842 0a3c
00000040: 1bb2 7dbc ba12 fabb 350f 733b b034 c0bb
00000050: 5cf1 37bc cafa ffbc 7b43 c73c fc98 a63c
00000060: 8a8d 553c c5f9 c2bc 396f b73b 2c24 0c3c
00000070: 3865 a53c a7a3 98bb 0b6b 0d3c 0393 55bc
00000080: 4cb8 c7bc cba0 463b 14ad c3bc 2342 e8bb
00000090: 5d06 c03c 7bad 92bc 3757 393d 9f95 173c
000000a0: b7e7 fa3c 2b07 333b e71a a33c 0f8c ae3c
000000b0: b00b 903c f80f 52bc 0e21 b3bb 84f3 3e3c
000000c0: ef9c 9e3c e8d4 f1ba 72c5 483c b72e 203d
000000d0: a04c ce3b 4f1c 90bc 9855 05bd b3cf 9a3b
000000e0: cff6 53bc ab9e b13b 0e32 30bd efed 0a3a
000000f0: ff93 5b3c bf07 89bc 4111 063b 303d c9bb
00000100: 97a2 4c3c c64f 31bc 8372 94bc 4b43 e53a
00000110: 15c3 97bc 267a 8c3c af97 963b a7df 7b3c
00000120: 33e1 a53c 5b42 64bc d78c 2abc 400e 34bc
00000130: c4da b9bc c8a0 de3c f479 8bbc aa64 e6bc
00000140: 9a1f dabc 7c9c c7bc 0b59 3c3c 13ef 29bc
00000150: f83d 913c b7f8 c33c df05 333c 2239 503d
00000160: d2d8 ea3b c367 cd39 fb01 6abc 6eeb 9c3c
00000170: 6dc7 c6bb 2372 a63a 64d9 193c 2bbe a43b
00000180: 7ef8 843b 4fe6 233c d2cf 593c ad12 903c
00000190: b2a8 ad3c 966f 15bd 25dc 91bc 1c68 99bc
000001a0: 65a1 a8bb 4053 e3ba 6a85 bf3c 4594 753c
000001b0: 1fcc bc3c 3de5 a03c c7b2 babc d7b0 0ebc
000001c0: eac5 9b3b 48d2 1ebd dc2a a5bb 57b2 143b
000001d0: cd95 313a 73b3 9fbc 35c0 e83b 686e d73b
000001e0: 2df6 513c 3782 1ebb af63 5f3c 322a 68bc
000001f0: d78b 78bc f718 f5ba 532d ae3b dadc 613c
00000200: df75 9abb b76b 2e3c 43b9 a9ba fa9d c039
00000210: ab52 b5bc 6d10 fa3b 18fc 273b 45b8 5bbc
00000220: 6d8d 40bc e8ba 7e3b 72c8 fabc abe9 76bc
00000230: d027 a73a 8f50 d6bb 8f15 a1b9 fd83 1fbd
00000240: 1f22 09bd 3b14 573b 8833 923b 9846 bd3c
00000250: 156d ffba 6c51 8dbc 8df1 463d 772b 05bc
00000260: 56d5 883b 17de 303c a0b7 23bc 6ec9 0e3d
00000270: b0d5 0e3b aee8 a93a f98d 8ebc cb97 123c
00000280: c36b 06bd dede 82bc 0651 2f3a 4a68 163c
00000290: 00d0 843c e869 523c 2f54 e73b 4a38 77bc
000002a0: 10a6 d43a b15e 08bd d247 343a 3a4f 7ebc
000002b0: 2b66 37bd 8799 27bb d7cf 95bb 8299 c13b
000002c0: 3f4a bf3c 905a 7fbc c749 8a3c 037b b93c
000002d0: 7720 2cbb 2f25 65bc e540 1b3b 9587 7ebb
000002e0: dde9 c3bc f643 9d3b fa16 25bb a02c e13c
000002f0: e780 283b 3e5d 9e3c bd45 f3bb 70fc 2fbc
00000300: c334 d43c 6ffc 073b ee65 c73c e79d a33c
00000310: 3003 343b a560 7b3c 0e0d 8d3c dfc4 03bc
00000320: 67e9 22bc 7c49 b2bb 03d1 a23c 1bec 3f3c
00000330: 8ca0 153c a55a 433d dabe cd3b 6f55 89bc
00000340: 53bb 323c 8278 00bb 6a7d 42bc 255f 80bc
00000350: b24a b3bc 5ebe 113d 8fec 73bc e3e3 b73c
00000360: b284 593c cdad de3c 5433 49bc 167f 24bc
00000370: 2fec 2abc 9ab1 f0bc 9706 033d 0c88 833a
00000380: 30f5 69bc 2f95 bebc 3b54 873c 3717 3f3b
00000390: 3d78 0bbd a3ec e8bc 2175 c5bc aff5 eabc
000003a0: db0e 193c 4b50 bb3a 5dac 1ebc 0aca 1e3c
000003b0: 1827 89bc 30e6 0bbc 631e ecbb 5519 8cbc
000003c0: e708 8abc ab20 0fbb 32fb 79bc 4d47 bfbb
000003d0: 7694 b23b 5827 e0bc 381c 08bd b0bd 61bb
000003e0: d03d 0abc e5b3 a8bc 4722 d23c ba4e f53c
000003f0: e8f5 d53c 5f9d ecbb 381c fb3c 3b02 b3bc
-0.04044092 -9.483172e-05 -0.022428384 0.047005337 -0.010051533 0.015472785 0.029370114 0.0037226323
0.019521078 -0.01874017 -0.009591984 -0.0015996613 -0.014283039 -0.006476103 0.016203715 0.008438595
-0.015484358 -0.007631627 0.0037087922 -0.005865656 -0.011226978 -0.031247515 0.02432417 0.02033662
0.013034234 -0.02380074 0.0055979756 0.008553546 0.020189866 -0.0046581808 0.008631478 -0.013035539
-0.024379872 0.0030308242 -0.023886241 -0.0070879622 0.023440534 -0.017904988 0.04524919 0.009251981
0.030628068 0.0027317505 0.019910289 0.02130702 0.017583698 -0.01282119 -0.005466587 0.011654738
0.019361941 -0.0018450292 0.012254106 0.03910705 0.0062957555 -0.017591624 -0.03255233 0.0047244667
-0.012937262 0.005420526 -0.043016486 0.0005299737 0.013401984 -0.016727326 0.0020457061 -0.0061413273
0.012489936 -0.010822242 -0.01812101 0.0017491368 -0.01852564 0.017148089 0.004595719 0.015373147
0.020248985 -0.013931836 -0.010409555 -0.010989726 -0.022687323 0.027176276 -0.017025925 -0.028124172
-0.026626397 -0.02436661 0.011495839 -0.010371941 0.017729744 0.023922307 0.010926693 0.050835736
0.0071669603 0.00039177955 -0.014282699 0.01915523 -0.006066254 0.001269881 0.009390209 0.0050275526
0.004057943 0.01000364 0.013294177 0.01758703 0.021198604 -0.03648337 -0.017805168 -0.018726401
-0.005146193 -0.0017343536 0.023379046 0.0149889635 0.023046551 0.01964056 -0.022790326 -0.008709154
0.004753818 -0.03877476 -0.0050405096 0.0022689307 0.0006774336 -0.019494748 0.007102991 0.0065744407
0.012815041 -0.00241865 0.013634606 -0.014170216 -0.015170059 -0.0018699457 0.0053154617 0.013785565
-0.0047137584 0.010645798 -0.0012948889 0.00036738795 -0.022134146 0.0076313526 0.0025632437 -0.0134106325
-0.0117524685 0.003886873 -0.030613158 -0.015070359 0.0012752954 -0.006540365 -0.00030724375 -0.038944233
-0.033479806 0.0032818455 0.0044617094 0.02310495 -0.0019487465 -0.017250739 0.048570205 -0.008128039
0.0041758223 0.010795138 -0.00999251 0.034860067 0.0021794848 0.0012963021 -0.017401682 0.008947323
-0.032817613 -0.015975412 0.00066877936 0.009180138 0.016212463 0.012842633 0.007059596 -0.015089104
0.0016223807 -0.03329343 0.0006877157 -0.015521819 -0.04477517 -0.0025573687 -0.0045718956 0.005908192
0.023350833 -0.015585557 0.016880883 0.022641664 -0.0026264468 -0.013985916 0.0023689803 -0.0038838137
-0.023915226 0.0047993613 -0.0025190697 0.0274871 0.0025711597 0.01933157 -0.007424085 -0.010741338
0.025904065 0.0020749827 0.024340596 0.019972755 0.002746772 0.015342866 0.017218139 -0.008042543
-0.009943343 -0.005440889 0.019875055 0.011714007 0.009132516 0.047693867 0.006278855 -0.01676437
0.010908919 -0.0019603078 -0.011870721 -0.015670368 -0.021886203 0.03558194 -0.014887943 0.022447532
0.013276266 0.027182484 -0.012280304 -0.010040065 -0.010432287 -0.029381562 0.031988706 0.0010035052
-0.014279649 -0.023264496 0.016519656 0.0029158124 -0.034050215 -0.02843315 -0.024103703 -0.028681604
0.009341921 0.0014290897 -0.009684649 0.009691725 -0.016742274 -0.008538768 -0.007205771 -0.017101923
-0.016849948 -0.002183954 -0.015257644 -0.005837357 0.005449827 -0.02736251 -0.033230036 -0.0034445338
-0.008437589 -0.020593593 0.02565111 0.029944766 0.026118234 -0.0072209085 0.030653104 -0.02185165

action_model._continuous_distribution.mu.bias f4 [2]
00000000: 0000 0000 0000 0000
0.0 0.0
